p1_navigation/checkpoint.pth (torch_old, 28463 bytes, 6 tensors)

fc1.weight f4 [64, 37]
-0.0027398807 0.013631551 -0.1526966 -0.1069724 -0.07063812 -0.15699667 0.11261835 0.08080615
0.07589761 -0.07332431 -0.16935904 -0.109600425 -0.10524037 0.09920014 0.13853028 -0.05261422
0.031760704 0.14948924 -0.08039893 -0.107363515 -0.11142467 0.17784959 0.017556654 0.1934962
0.09373376 -0.006548281 -0.046679772 -0.10706098 -0.03988719 -0.11222615 -0.27561352 0.13165888
-0.01529308 0.0061320662 -0.07874806 -0.10381507 -0.05458985 0.15039444 0.0013442929 0.03978227
-0.0063730325 -0.10076138 -0.20391054 -0.13478965 0.07420277 -0.07339117 -0.6265566 0.095661804
0.08362084 -0.117250785 -0.05309177 0.08626599 0.071074866 -0.2194587 0.15579328 -0.15094322
-0.37558717 -0.10468067 -0.15546755 -0.14971852 -0.090773694 0.10559218 -0.12207742 0.020740692
0.16543494 -0.4860503 -0.9830434 -0.027982133 0.12242884 0.15490328 -0.08047389 -0.1279707
-0.013690924 0.042309638 0.17286916 0.091867365 0.05417598 0.1239047 -0.09597071 -0.30744955
0.15522335 0.16283824 0.0672253 -0.27174312 0.24115899 -0.035969086 -0.10538125 -0.15940842
-1.1296775 -0.095801435 0.13018137 0.096066184 0.15452838 0.24647161 -0.16132264 -0.014886253
0.09323671 -0.04545137 -0.011913855 -0.006827851 0.21443214 0.0970394 -0.052833356 0.12286321
-0.23320079 -0.07560651 -0.042839155 -0.1100229 0.11251336 -0.022534724 -0.02079775 0.30077428
-0.11649493 -0.02206241 -0.010200935 -0.5805355 0.011321163 0.02177872 0.074988045 -0.029259948
-0.066801086 0.15072928 -0.078379564 -0.14167093 -0.12093255 -0.3595027 0.036408644 0.016213588
-0.14720176 -0.15038708 -0.05155648 -0.15359499 -0.0061279307 0.034882758 0.20611909 0.07169997
-0.009943112 -0.059442423 0.0029235156 0.2468937 0.2251204 0.03343051 0.23785782 0.028096119
-0.13960709 -0.25736833 0.085731596 -0.00083493564 -0.081040785 -0.039657146 -0.11220468 -0.19693923
-0.16352732 0.13357784 0.279272 0.09074867 0.017412333 -0.26449972 -0.018289894 0.012488142
-0.034745827 -0.06429145 -0.06783242 -0.053128857 -0.092550404 -0.08019739 0.010812613 0.065679185
-0.081806086 -0.0014852694 0.013604981 0.064475484 0.09990841 0.34979275 -0.72432774 -0.44533107
-0.32199356 -1.9244279 -0.026102623 -0.014149853 0.13019802 0.26165935 0.38902596 0.017862072
0.005187485 -0.09994801 0.05859356 0.013726584 -0.034767546 0.103319906 0.11577248 0.48691317
-0.3164529 -0.13465278 -1.011319 -0.099499784 -0.038435813 -0.10731218 0.112928875 0.027357558
-0.0024886993 -0.051547244 0.024913494 0.03769579 -0.109568864 0.06267363 0.13650998 0.15533125
-0.120357454 0.242105 -0.13656284 0.1017798 0.021680398 0.06716126 0.07108872 0.17695062
-0.8616283 -0.14963502 -0.006292254 -0.94618493 -0.058602065 -0.00072323345 -0.19735621 0.04482222
-0.14230199 0.12513062 0.035029124 -0.30614915 -0.13548538 0.13798383 -0.02967753 0.22960639
0.041084856 -0.051062148 -2.0872647e-05 0.15570764 0.25060448 -0.32321146 0.084302746 -0.070070304
-0.022414327 0.19770555 -0.17490314 -0.06583295 0.054498564 -0.023118792 0.28702635 -0.14908077
-0.32500893 0.06333032 0.028379545 0.08800196 0.0016982792 -0.112243466 0.050109975 -0.042612962
00000000: 928f 33bb de56 5f3c 7f5c 1cbe 5814 dbbd
00000010: b8aa 90bd bcc3 20be 73a4 e63d b27d a53d
00000020: 3570 9b3d 0e2b 96bd 756c 2dbe 3076 e0bd
00000030: 4388 d7bd 7129 cb3d e2da 0d3e 0282 57bd
00000040: 8317 023d b513 193e 32a8 a4bd 67e1 dbbd
00000050: 9e32 e4bd 341e 363e f9d2 8f3c de23 463e
00000060: 7cf7 bf3d f692 d6bb 4a33 3fbd c942 dbbd
00000070: c060 23bd d3d6 e5bd 371d 8dbe 96d1 063e
00000080: d48f 7abc 80ef c83b aa46 a1bd ff9c d4bd
00000090: 9b99 5fbd 0001 1a3e fc32 b03a bcf2 223d
000000a0: dfd4 d0bb fb5b cebd edcd 50be 4c06 0abe
000000b0: 9ff7 973d 1c4e 96bd 0366 20bf 56ea c33d
000000c0: 6741 ab3d 2e21 f0bd c176 59bd 39ac b03d
000000d0: b38f 913d c8b9 60be 4688 1f3e dc90 1abe
000000e0: f64c c0be d262 d6bd e332 1fbe d04f 19be
000000f0: 8fe7 b9bd b640 d83d ba03 fabd 62e8 a93c
00000100: c767 293e 96db f8be bba8 7bbf c93a e5bc
00000110: f9bb fa3d f79e 1e3e 7fcf a4bd c00a 03be
00000120: e64f 60bc df4c 2d3d 9d04 313e f524 bc3d
00000130: a2e7 5d3d bfc1 fd3d 4b8c c4bd 076a 9dbe
00000140: dff2 1e3e 11bf 263e 6bad 893d ea21 8bbe
00000150: 62f2 763e 5254 13bd 20d2 d7bd f63b 23be
00000160: 4699 90bf 8b33 c4bd 444e 053e 59be c43d
00000170: b03c 1e3e 0e63 7c3e c331 25be 78e5 73bc
00000180: e3f2 be3d 372b 3abd 5432 43bc 2abc dfbb
00000190: 1994 5b3e 98bc c63d ca67 58bd b59f fb3d
000001a0: 30cc 6ebe 96d7 9abd 1c78 2fbd b053 e1bd
000001b0: 686d e63d be9a b8bc 0b60 aabc 16ff 993e
000001c0: e594 eebd 3abc b4bc d321 27bc f99d 14bf
000001d0: 667c 393c 4969 b23c 5593 993d 8fb2 efbc
000001e0: 02cf 88bd c758 1a3e 7785 a0bd 2f12 11be
000001f0: 7cab f7bd bd10 b8be 3b21 153d 5cd2 843c
00000200: 0fbc 16be 12ff 19be e32c 53bd 0148 1dbe
00000210: cfcc c8bb 39e1 0e3d e210 533e 6fd7 923d
00000220: 6fe8 22bc e679 73bd 7498 3f3b b4d1 7c3e
00000230: f685 663e 6eee 083d 0091 733e d529 e63c
00000240: 29f5 0ebe c8c5 83be 0c94 af3d 95df 5aba
00000250: b6f8 a5bd 886f 22bd 91cb e5bd 70aa 49be
00000260: b573 27be a1c8 083e bdfc 8e3e 70da b93d
00000270: 4fa4 8e3c 826c 87be b0d4 95bc 109b 4c3c
00000280: a451 0ebd 3cab 83bd b9eb 8abd a59d 59bd
00000290: 118b bdbd 873e a4bd 6327 313c cf82 863d
000002a0: f389 a7bd 5fad c2ba 6de7 5e3c b90b 843d
000002b0: c89c cc3d 0918 b33e 8b6d 39bf 6f02 e4be
000002c0: 57dc a4be a753 f6bf 2bd5 d5bc c9d4 67bc
000002d0: a152 053e 37f8 853e 692e c73e 7b53 923c
000002e0: c7fb a93b 8bb1 ccbd cdff 6f3d 77e5 603c
000002f0: 6a68 0ebd 6399 d33d 1f1a ed3d af4c f93e
00000300: 1d06 a2be 6be2 09be e772 81bf 8bc6 cbbd
00000310: df6e 1dbd 7dc6 dbbd 4147 e73d f51c e03c
00000320: 7219 23bb 3423 53bd 6217 cc3c e766 1a3d
00000330: a465 e0bd 085b 803d 46c9 0b3e 280f 1f3e
00000340: f87d f6bd 60ea 773e 21d7 0bbe ee71 d03d
00000350: 179b b13c d88b 893d f696 913d 8b32 353e
00000360: ac93 5cbf ec39 19be 412f cebb 2d39 72bf
00000370: b808 70bd 6097 3dba bf17 4abe 8197 373d
00000380: 9db7 11be 3e22 003e b37a 0f3d 95bf 9cbe
00000390: aebc 0abe a24b 0d3e 4b1e f3bc f01d 6b3e
000003a0: 9848 283d 8b26 51bd ab17 afb7 d371 1f3e
000003b0: 3b4f 803e f97b a5be eba6 ac3d 0581 8fbd
000003c0: 409e b7bc 5373 4a3e cf19 33be 6dd3 86bd
000003d0: e339 5f3d 9f63 bdbc 1ef5 923e a1a8 18be
000003e0: 9267 a6be 54b3 813d 387c e83c 5f3a b43d
000003f0: cb98 de3a e7df e5bd 1e40 4d3d ee8a 2ebd

fc1.bias f4 [64]
0.09193411 -0.056371834 -0.115870304 -0.07258651 0.21966982 -0.02840679 -0.1436685 0.053088397
-0.015005208 -0.18890266 0.20680153 0.15502927 0.08784829 0.18736143 -0.04642667 -0.04293621
0.04535796 0.0131001165 -0.0054902467 -0.25186688 -0.0693888 -0.0009763667 0.031913664 -0.06617045
-0.08601108 0.18169704 -0.13096057 -0.041530233 0.035258263 0.2047646 -0.045798477 -0.14906847
0.16243906 0.02855578 -0.06834611 0.027617699 -0.12229317 -0.023348352 -0.012774471 -0.06435083
-0.10604542 -0.103744835 -0.08226124 0.107757166 -0.008197099 -0.04577593 0.10840439 -0.15380019
-0.16801886 -0.02558758 -0.2730823 0.082841314 -0.006109322 -0.009284012 -0.15940629 -0.027243303
0.09709477 -0.041918494 -0.18123738 -0.12751096 -0.0097805755 -0.026139144 0.02335768 0.06221507
00000000: f347 bc3d 27e6 66bd 694d edbd 3ca8 94bd
00000010: 20f1 603e 5bb5 e8bc d61d 13be 3873 593d
00000020: 67d8 75bc b36f 41be c8c3 533e febf 1e3e
00000030: cee9 b33d addb 3f3e e429 3ebd e1dd 2fbd
00000040: 45c9 393d dfa1 563c 87e7 b3bb b2f4 80be
00000050: b71b 8ebd dcf2 7fba e7b7 023d 5f84 87bd
00000060: 9426 b0bd ca0e 3a3e 871a 06be 9b1b 2abd
00000070: f86a 103d d0ad 513e 2f97 3bbd 68a5 18be
00000080: 6d56 263e d0ed e93c 0cf9 8bbd 833e e23c
00000090: d774 fabd 0b45 bfbc 044c 51bc 5eca 83bd
000000a0: 572e d9bd 2c78 d4bd 9578 a8bd caaf dc3d
000000b0: 204d 06bc 8b7f 3bbd 1f03 de3d cc7d 1dbe
000000c0: 230d 2cbe 0b9d d1bc 71d1 8bbe b5a8 a93d
000000d0: b530 c8bb f81b 18bc 673b 23be 592d dfbc
000000e0: 9fd9 c63d bab2 2bbd 4b96 39be 3c92 02be
000000f0: b53e 20bc c221 d6bc 9b58 bf3c 3bd5 7e3d

fc2.weight f4 [64, 64]
0.06739425 0.08751657 -0.061010323 0.06924449 -0.5029948 -0.12663381 -0.099832006 0.05757883
-0.021866743 0.09845058 0.050647154 -0.18975466 0.052106343 0.13209775 -0.03143823 -0.1663893
-0.028838705 0.033516247 -0.087395735 0.04044544 -0.15283689 -0.27397835 -0.04382076 -0.28093034
-0.30007866 -0.15824324 0.015771816 -0.09888527 -0.11552057 -0.082260676 0.1497601 -0.123879075
0.13322309 0.29667026 0.02415006 0.042450737 -0.18726349 -0.15344146 0.15672183 0.2232844
-0.19082691 0.11040382 0.13167599 -0.04240963 -0.050036956 -0.037443884 -0.1698917 0.17203085
-0.17703794 0.013139292 0.019192219 -0.101301745 -0.05720816 0.0414552 0.05729745 -0.08916288
0.091349125 0.014945366 -0.009469422 0.10000859 0.07861089 0.119225904 -0.023937559 -0.028531777
0.017427005 0.12557134 -0.30470067 -0.031385247 -0.05718955 0.13599978 -0.2732308 0.05200426
-0.11009557 -0.309546 -0.008668349 0.09905031 0.24415681 0.13589443 -0.021588385 -0.08467812
-0.0074328575 0.14036638 -0.16432244 0.10100948 0.22416887 -0.25057516 0.10326854 -0.2087602
0.2595763 0.14998202 -0.038998462 -0.18137461 0.048501313 -0.057443723 0.020591613 -0.25584614
-0.21618196 0.10327474 -0.16564028 0.13449962 -0.081410624 0.014574381 -0.0823747 -0.31490374
0.003570431 -0.0167301 0.056182783 -0.13023955 -0.18800099 0.19457957 -0.08868861 0.15206912
-0.018668205 0.05899402 -0.18622729 0.25760943 -0.013457838 -0.024955941 -0.05805939 0.035921734
-0.4062944 0.21470524 0.21959111 -0.014461996 -0.24702628 -0.07008822 -0.018392982 -0.08148352
-0.14767006 -0.14022991 -0.011259415 0.08946045 0.20466715 0.17708126 -0.108543016 -0.02587652
0.0614432 -0.0053436067 0.030416738 -0.06512072 -0.016641734 0.04392201 0.06330163 -0.06548356
-0.08435561 0.09595693 0.37810922 0.05196353 -0.07255956 0.1513248 -0.056880828 0.27331623
0.123874284 0.4048061 0.03202122 -0.030649636 0.0028944628 0.017096065 -0.044231445 0.098966666
-0.0706043 -0.0514587 -0.080354445 0.15627243 0.27275932 0.01944364 0.44884813 0.19409749
0.11164532 -0.2895214 -0.22917567 -0.19536361 -0.008401314 0.044876423 0.032476757 -0.1617434
0.18163855 -0.29601696 -0.10228274 0.19033481 -0.2966796 -0.051106907 -0.2195545 0.04787832
-0.4754299 0.2607545 0.015747601 -0.112758964 0.097627506 -0.016600164 -0.0013217522 -0.018245723
0.08932163 -0.02653323 0.15614909 -0.13902842 -0.13054499 -0.21328443 -0.02410305 -0.15056512
-0.13671356 -0.1288893 -0.033307143 0.1945691 -0.17701314 -0.0067338976 0.09189014 -0.33430064
0.020055978 -0.18045059 -0.11417435 -0.03170901 0.2898114 0.05508344 -0.1324947 0.07344388
0.07729666 -0.012807077 -0.033203106 0.09660097 0.16412602 -0.39106113 0.46407476 -0.09566031
0.0692776 -0.19313689 0.01233947 0.15189014 -0.17788115 0.30676264 -0.11906596 -0.38318807
0.13730633 0.15433677 0.18573292 -0.2542548 -0.11116571 0.13492791 0.08493855 0.1112455
-0.045274794 0.05132114 -0.22376488 0.15578726 0.3042666 0.09299649 -0.19784474 -0.15327181
-0.062454585 -0.17626788 -0.26976824 0.11733656 -0.13181303 -0.0027709717 -0.222694 -0.015272569
00000000: ff05 8a3d e33b b33d f6e5 79bd 0ed0 8d3d
00000010: 44c4 00bf 4bac 01be b974 ccbd c7d7 6b3d
00000020: e221 b3bc 75a0 c93d 6473 4f3d 0c4f 42be
00000030: 766d 553d a244 073e 60c5 00bd f561 2abe
00000040: 263f ecbc 5548 093d 89fc b2bd 1eaa 253d
00000050: 4681 1cbe e446 8cbe 667d 33bd 1ad6 8fbe
00000060: e9a3 99be 840a 22be e533 813c 5c84 cabd
00000070: 0c96 ecbd 4978 a8bd b65a 193e 50b4 fdbd
00000080: a26b 083e 2ae5 973e 59d6 c53c d3e0 2d3d
00000090: 00c2 3fbe c21f 1dbe b07b 203e aaa4 643e
000000a0: 2168 43be 661b e23d 12d6 063e b8b5 2dbd
000000b0: 8df3 4cbd c25e 19bd 17f8 2dbe db28 303e
000000c0: 6f49 35be 2f46 573c 0039 9d3c 4a77 cfbd
000000d0: 1b53 6abd eecc 293d bbb0 6a3d 079b b6bd
000000e0: 4015 bb3d 69dd 743c a225 1bbc 4ed1 cc3d
000000f0: bffe a03d b62c f43d b318 c4bc 79bb e9bc
00000100: 14c3 8e3c c695 003e ba01 9cbe d18d 00bd
00000110: 973f 6abd 8743 0b3e e8e4 8bbe 6b02 553d
00000120: c979 e1bd d07c 9ebe b105 0ebc e4da ca3d
00000130: 3e04 7a3e e927 0b3e 20da b0bc b96b adbd
00000140: 548f f3bb 34bc 0f3e 2444 28be 0fde ce3d
00000150: 868c 653e 634b 80be 757e d33d 3cc5 55be
00000160: 2fe7 843e e394 193e dabc 1fbd 44ba 39be
00000170: 50a9 463d 1c4a 6bbd beaf a83c 44fe 82be
00000180: ce5e 5dbe b581 d33d 9b9d 29be 45ba 093e
00000190: 9dba a6bd 62c9 6e3c 11b4 a8bd 103b a1be
000001a0: e4fd 693b 900d 89bc eb1f 663d 845d 05be
000001b0: 5583 40be de3f 473e 60a2 b5bd 02b8 1b3e
000001c0: 10ee 98bc b7a3 713d 5eb2 3ebe 62e5 833e
000001d0: 447e 5cbc 6770 ccbc afcf 6dbd ab22 133d
000001e0: d205 d0be b1db 5b3e 7edc 603e 02f2 6cbc
000001f0: 75f4 7cbe 6a8a 8fbd e1ac 96bc d5e0 a6bd
00000200: d236 17be 6e98 0fbe 6979 38bc 0a37 b73d
00000210: 4494 513e ca54 353e cd4b debd fffa d3bc
00000220: ddab 7b3d 6c19 afbb 862c f93c 035e 85bd
00000230: 3f54 88bc 91e7 333d 49a4 813d 3f1c 86bd
00000240: a2c2 acbd 1185 c43d 8897 c13e b6d7 543d
00000250: 1b9a 94bd e3f4 1a3e dffb 68bd 1bf0 8b3e
00000260: cdb1 fd3d bf42 cf3e af28 033d f214 fbbc
00000270: 07b1 3d3b 0c0d 8c3c 082c 35bd 09af ca3d
00000280: fd98 90bd 5cc6 52bd df90 a4bd e105 203e
00000290: 1ca7 8b3e 4548 9f3c 6ccf e53e 7ec1 463e
000002a0: 4da6 e43d 263c 94be 07ad 6abe 660d 48be
000002b0: aaa5 09bc 57d0 373d 5906 053d 10a0 25be
000002c0: 75ff 393e 898f 97be 9d79 d1bd 21e7 423e
000002d0: 63e6 97be 7a55 51bd e5d2 60be 0f1c 443d
000002e0: 8c6b f3be 9d81 853e 1d01 813c 2cee e6bd
000002f0: eef0 c73d 11fd 87bc a53e adba 0e78 95bc
00000300: 42ee b63d 375c d9bc 8ce5 1f3e 775d 0ebe
00000310: 96ad 05be 3c67 5abe c273 c5bc be2d 1abe
00000320: a4fe 0bbe 8ffb 03be 126d 08bd 1f3d 473e
00000330: ef42 35be 07a8 dcbb e630 bc3d 7429 abbe
00000340: 6f4c a43c 0ac8 38be 3ed4 e9bd 4fe1 01bd
00000350: 2962 943e 2c9f 613d b1ac 07be bf69 963d
00000360: b64d 9e3d c6d4 51bc fbff 07bd bbd6 c53d
00000370: a710 283e 2a39 c8be 359b ed3e 8de9 c3bd
00000380: 6ae1 8d3d adc5 45be 7d2b 4a3c 1789 1b3e
00000390: 7a26 36be fe0f 9d3e dbd8 f3bd 3a31 c4be
000003a0: 089a 0c3e 750a 1e3e c530 3e3e af2d 82be
000003b0: d9aa e3bd 8b2a 0a3e 43f4 ad3d aed4 e33d
000003c0: 1072 39bd 1e36 523d 9f22 65be b286 1f3e
000003d0: d5c8 9b3e f274 be3d d097 4abe 49f3 1cbe
000003e0: 61d0 7fbd 917f 34be 101f 8abe 264e f03d
000003f0: fff9 06be 3199 35bb e509 64be cc39 7abc

fc2.bias f4 [64]
-0.04752862 -0.049055226 0.098304264 0.0060080546 0.08418078 -0.09360525 -0.043069527 0.026670484
0.22827612 0.34987122 0.009624713 0.19094168 0.13883178 -0.08519031 -0.09801553 -0.037039682
-0.009403468 -0.03851455 -0.1444861 0.087676436 0.257569 0.3946789 -0.1419841 0.023152843
0.046588227 -0.13739416 -0.00043962413 -0.1350072 0.033656523 0.042980876 0.04085503 0.14126419
-0.010729968 0.119127415 -0.0082632555 -0.09072452 -0.12031089 -0.14908102 0.29455307 0.055232823
-0.15174428 0.42888913 0.2635523 -0.14033478 0.098643616 -0.15517473 0.21179478 -0.13723372
-0.017379262 -0.054032233 -0.031254757 0.24558456 -0.003943226 -0.10334284 0.05912935 0.11154002
-0.1444375 -0.14613464 -0.031773306 -0.0954297 -0.006398588 0.056058187 -0.004409551 0.006465111
00000000: 5fad 42bd 22ee 48bd bf53 c93d 37df c43b
00000010: f966 ac3d 1cb4 bfbd ac69 30bd 0f7c da3c
00000020: 37c1 693e 5222 b33e f9b0 1d3c 3786 433e
00000030: eb29 0e3e 4278 aebd 5ebc c8bd ecb6 17bd
00000040: 0111 1abc 6fc1 1dbd 2af4 13be b48f b33d
00000050: 15e0 833e 5a13 ca3e 4864 11be 08ab bd3c
00000060: 4cd3 3e3d 0eb1 0cbe 5a7d e6b9 543f 0abe
00000070: 6cdb 093d b70c 303d 9b57 273d 8fa7 103e
00000080: bfcc 2fbc 13f9 f33d 9b62 07bc c7cd b9bd
00000090: 8e65 f6bd b2a8 18be a9cf 963e d03b 623d
000000a0: da62 1bbe 5b97 db3e 54f0 863e ecb3 0fbe
000000b0: aa05 ca3d 20e6 1ebe bbe0 583e ff86 0cbe
000000c0: f45e 8ebc e750 5dbd fd04 00bd 857a 7b3e
000000d0: 2d36 81bb 69a5 d3bd 9e31 723d 186f e43d
000000e0: 6de7 13be 52a4 15be ba24 02bd a670 c3bd
000000f0: 3fab d1bb 459d 653d ff7d 90bb 48d9 d33b

fc3.weight f4 [4, 64]
-0.09383887 0.26822597 0.10067681 -0.17053986 0.27633798 0.15618141 0.09440818 -0.34276035
0.17795557 0.11909161 0.025682624 0.18233351 0.014884583 0.04045773 -0.022290973 0.054946996
0.3759195 -0.02883399 -0.17655656 0.1818227 0.14570318 0.19377817 0.06875206 0.036623415
0.10762163 -0.08233678 -0.26662543 -0.32454607 0.4871504 0.43542874 -0.63862395 0.119672135
0.31229654 0.20410757 0.0114675015 -0.038100816 -0.16102408 -0.26994377 0.12820183 0.5419488
-0.04325256 0.15160193 0.09809047 -0.064515404 0.42102978 -0.12766126 0.1706775 0.027268521
-0.07538756 0.11467471 0.19912098 0.07364954 0.20575793 -0.23608607 0.14756061 -0.0072056763
-0.15253271 0.06637466 0.27980027 0.032523938 0.008397681 0.081697285 -0.14055282 0.1768079
0.1135859 0.20082676 0.21891595 0.25274834 0.514489 0.10537535 -0.11858506 0.03499492
-0.0023132216 0.105814815 0.040800527 0.18737032 -0.012427445 0.08832776 -0.020117499 0.2881524
0.4235284 0.0023196049 -0.32603934 0.13384876 0.120533444 0.19265576 0.07748426 0.21772504
0.10447571 -0.061240338 -0.12436186 -0.19679582 0.31523848 0.49799037 0.10372025 0.13202429
0.40493342 0.10411779 0.15725258 -0.03629599 -0.047627807 -0.3424199 0.19337262 0.5888227
0.14892085 0.18375708 0.037836522 -0.07371068 0.3556457 -0.23718913 0.1633972 0.32100824
-0.17559989 0.045027625 0.20572473 0.081532046 0.22474734 -0.07577291 0.17362033 0.055560455
-0.12819624 -0.2991783 0.16327538 -0.07334179 -0.31408533 0.025515461 -0.24084777 0.07732275
-0.08908479 0.23139021 0.16826327 0.44468012 0.55367947 0.26587388 0.14247361 -0.0244622
0.07497591 0.14751719 -0.00899735 0.25435233 0.15957946 -0.3255189 -0.074394986 -0.2999977
0.31293914 -0.27666584 -0.100113496 0.13281891 0.07800426 0.24819292 -0.29764578 0.10022784
0.25039533 -0.051482763 0.060822845 -0.38905635 0.23561056 0.42292458 -0.05689388 0.050139826
0.14847669 0.24612145 0.1951388 0.117128514 0.035577603 -0.09746926 0.12852824 0.017605213
0.027545199 0.18626638 0.14607443 -0.25137198 0.3152212 -0.29531923 0.11675355 0.6519989
0.0453533 0.06732085 -0.050231926 0.2547219 0.13902037 0.010239259 0.23511101 0.11345084
-0.0835338 -0.18903005 0.51345456 0.23379564 0.09294517 0.30922344 0.0025754895 0.09535799
-0.06151297 0.277743 0.27189517 -0.28322372 -0.17909613 0.47312048 -0.17711286 0.015486419
0.06469524 0.16073334 0.20134267 -0.013189408 0.17693996 0.1560631 0.044415552 -0.45443976
0.5046659 0.049314205 0.03042311 0.17336766 0.078510255 0.15861073 -0.11217785 0.30930004
0.15691358 -0.06289554 -0.002929686 -0.040136248 0.43124917 0.0965982 -0.22901005 0.10067565
0.0076448657 0.13393459 -0.018321637 0.01206979 -0.4125335 0.006494524 0.23993622 0.542124
-0.17663498 0.19081877 0.13438125 -0.35632613 0.31757268 -0.24748486 0.12951097 0.2294324
0.057316106 -0.116441935 0.11490692 0.09376559 0.23303811 -0.32942536 0.2550296 0.25350243
-0.1674644 -0.32209146 -0.1344955 -0.006863832 -0.13565631 0.023474308 -0.23415448 0.13629292
00000000: 982e c0bd ea54 893e a52f ce3d 00a2 2ebe
00000010: 2c7c 8d3e 05ee 1f3e 1359 c13d 497e afbe
00000020: fc39 363e 4de6 f33d 5e64 d23c a3b5 3a3e
00000030: 77de 733c 01b7 253d 8f9b b6bc 1a10 613d
00000040: 8578 c03e 4335 ecbc 3ecb 34be bb2f 3a3e
00000050: 3733 153e c96d 463e e1cd 8c3d 6f02 163d
00000060: bb68 dc3d 30a0 a8bd 2183 88be e72a a6be
00000070: c76b f93e 84f0 de3e dc7c 23bf aa16 f53d
00000080: 55e5 9f3e 9301 513e 30e2 3b3c 9a0f 1cbd
00000090: 7fe3 24be 1236 8abe 5747 033e 28bd 0a3f
000000a0: 9929 31bd 893d 1b3e a8e3 c83d a720 84bd
000000b0: 3791 d73e a2b9 02be 15c6 2e3e 3c62 df3c
000000c0: cb64 9abd 93da ea3d 5fe6 4b3e 92d5 963d
000000d0: 35b2 523e 8cc0 71be 211a 173e 981d ecbb
000000e0: 8931 1cbe 70ef 873d fb41 8f3e d237 053d
000000f0: 6d96 093c e850 a73d 14ed 0fbe 210d 353e
00000100: b99f e83d 88a5 4d3e 812b 603e 3b68 813e
00000110: 8db5 033f 08cf d73d b9dc f2bd d556 0f3d
00000120: 6b99 17bb 70b5 d83d 741e 273d 01de 3f3e
00000130: 7b9c 4bbc 2fe5 b43d 74cd a4bc b688 933e
00000140: b7d8 d83e 8304 183b a1ee a6be a60f 093e
00000150: 3dda f63d 8d47 453e 11b0 9e3d 50f3 5e3e
00000160: 5cf7 d53d 26d7 7abd 6eb1 febd d884 49be
00000170: f066 a13e 98f8 fe3e 486b d43d 6031 073e
00000180: 6f53 cf3e b53b d53d d206 213e 1bab 14bd
00000190: 6015 43bd a951 afbe 7903 463e 16bd 163f
000001a0: b57e 183e d12a 3c3e 78fa 1a3d a0f5 96bd
000001b0: 3117 b63e b5e1 72be 9851 273e 315b a43e
000001c0: 75d0 33be e36e 383d 81a9 523e 46fa a63d
000001d0: 2b24 663e d42e 9bbd 87c9 313e 5c93 633d
000001e0: e045 03be e62d 99be a931 273e 3834 96bd
000001f0: cbcf a0be cd05 d13c cca0 76be 645b 9e3d
00000200: 1672 b6bd 8ef1 6c3e 354d 2c3e 1dad e33e
00000210: f0bd 0d3f 9f20 883e 9ae4 113e f464 c8bc
00000220: f88c 993d bf0e 173e 9f69 13bc 783a 823e
00000230: cc68 233e 6aaa a6be 665c 98bd 4c99 99be
00000240: 8f39 a03e 25a7 8dbe 4e08 cdbd ae01 083e
00000250: b3c0 9f3d 4926 7e3e 0765 98be 4144 cd3d
00000260: d133 803e 97df 52bd 6021 793d 6532 c7be
00000270: e543 713e 9289 d83e 8f09 69bd 6b5f 4d3d
00000280: 460a 183e 4307 7c3e 77d2 473e 13e1 ef3d
00000290: d2b9 113d f79d c7bd e89c 033e cf38 903c
000002a0: 78a6 e13c 9dbc 3e3e 8994 153e d4b3 80be
000002b0: ac64 a13e 1534 97be 7c1c ef3d 66e9 263f
000002c0: 62c4 393d 84df 893d febf 4dbd e96a 823e
000002d0: 5b5b 0e3e 91c2 273c f1c0 703e ea58 e83d
000002e0: c513 abbd 1891 41be c271 033f 2068 6f3e
000002f0: 0a5a be3d 8952 9e3e 8bc9 283b 0d4b c33d
00000300: 06f5 7bbd 5534 8e3e d835 8b3e b302 91be
00000310: fa64 37be d93c f23e 135d 35be c0ba 7d3c
00000320: f07e 843d 4897 243e c62c 4e3e 6318 58bc
00000330: c02f 353e 01cf 1f3e 15ed 353d 54ac e8be
00000340: c931 013f b1fd 493d e339 f93c 4b87 313e
00000350: fcc9 a03d da6a 223e 80bd e5bd 935c 9e3e
00000360: f4ad 203e 60cf 80bd faff 3fbb e865 24bd
00000370: b1cc dc3e 47d5 c53d 9c81 6abe 092f ce3d
00000380: c881 fa3b 2626 093e 4217 96bc 5ec0 453c
00000390: 9737 d3be 04d0 d43b d7b1 753e a3c8 0a3f
000003a0: cddf 34be ff65 433e 3d9b 093e 6170 b6be
000003b0: e398 a23e ac6c 7dbe 869e 043e 54f0 6a3e
000003c0: 4bc4 6a3d 1c79 eebd 5254 eb3d 2c08 c03d
000003d0: 8ba1 6e3e 71aa a8be 3d93 823e 12cb 813e
000003e0: ca7b 2bbe 2ce9 a4be 30b9 09be ffe9 e0bb
000003f0: 7de9 0abe 314d c03c 31c6 6fbe 5f90 0b3e

fc3.bias f4 [4]
0.26724437 0.23364328 0.11028005 0.12302977
00000000: 41d4 883e 2f40 6f3e 82da e13d 08f7 fb3d
