p3_collab-compet/checkpoint_actor_0.pth (torch_old, 28465 bytes, 4 tensors)

fc1.weight f4 [256, 24]
00000000: 2c37 01bd 68b2 b93c 9718 33bd 4707 ccbc
00000010: 00d8 9ebd 2064 2fbc 5b3d 2dbc 79a0 2dbd
00000020: d658 1d3d 1d7b 8abd 0a94 9b3c 121d 13bb
00000030: f7b9 2dbd 8006 8ebd 7990 c5bd 5884 5ebd
00000040: 1c29 83bd 603d 86bd 3b0c ccbc 8e57 edbc
00000050: ed16 27bd 4e2d 8bbd 9553 9abd 7baf 37bd
00000060: 76e5 09bc 01e7 083d a828 55bd 2f23 b33c
00000070: fa99 a03c 0d2a b1bd bdde 9fbd 1f20 88bc
00000080: 18f0 c8bb 5df0 e03c d150 613b 7211 6abd
00000090: 9674 323d 00c8 86bd e24a 68bb 40c4 d3bc
000000a0: 5a38 973c 29e1 1c3c 2ac6 263c 7745 98bd
000000b0: 8bfd 2a3d e435 a2bd fcf4 f9bb 534e 1abd
000000c0: c5bf 403c 9eb2 a63c d669 eebd 89c8 f0bc
000000d0: eaab 2b3d 040e fabd b1b2 55bd 87ba c4bd
000000e0: 331b cf3d bf42 66bc 79f9 19bc 6223 89bd
000000f0: b927 443c d3fc 8c3b 8645 a9bd f3c2 ffbd
00000100: 91ee aa3c 005f 1a3d 37bd 4ebd 0b9f afbd
00000110: 00de 42bd bf80 9fbc dca2 8fbd 7682 b4bd
00000120: 34d7 5ebd 8c89 a0bc 8c58 ffbc 5054 493d
00000130: 4216 5cbd 105b 373d ece9 fcbc 065c 14bd
00000140: bcb7 eb3c aa05 033d 3448 34bd 2c92 2f3d
00000150: 8453 5abd ae32 173d a014 f53c 1cb9 423d
00000160: c00a 7ebb e01a 74bb 8085 ebbc c0c9 ddbb
00000170: a468 41bd f216 66bd 380e c4bc 287d 393c
00000180: e937 a2bc d089 babc 9a1f 20bd 6332 b7bd
00000190: b93b babc b735 aebd a515 91bd be2d a9bd
000001a0: 4e5f 52bc 80a7 c2bc c4fc b6bd 7fa2 29bc
000001b0: 60bf 3b3c 391d 94bd b171 98bd 80fe cebd
000001c0: ac22 a4bd a218 103c f36f 8fbc dd01 dcbc
000001d0: 2681 523c 14cd 99bc a5fd c8bd fdcf 43bd
000001e0: 34e0 7a3e f676 8fbf 8485 22be 5717 463c
000001f0: 6095 0240 df94 91bf 754b 90bd 3c72 8abb
00000200: 52af 263f 4fa0 cabe 80e8 1bbe d1cb 13be
00000210: 0c38 8e3f 6e58 26bc f2e9 3ebe 3b21 f1bd
00000220: b928 b13e 239a 9bbd d2d6 f9be 6e6f 243c
00000230: 0206 133f 2e02 793f 7f05 c4be bc15 9dbd
00000240: c4bb 85bd d7f5 1e3c b88b 2fbc d852 88bd
00000250: f7b3 1d3c 8bb7 3cbd d9ee d1bd 9a3f f2bc
00000260: 7ace 62bd 1cc9 b2bd 483f 79bd 6cf3 58bd
00000270: 5b47 7bbc e19b 8bbd 4094 dd3b 0d2c a8ba
00000280: 7253 b03b 3648 fabc 135e 363c c0bd 0bbd
00000290: 2f20 85bd 18a3 babc 65bf 20bd 23ba ebbd
000002a0: 7ebd 943c a020 3e3d 604a 01bd bc12 cfba
000002b0: 422e 943c fa0e 99bd 3ccb a8bd f108 66bd
000002c0: 86a0 9e3c 8f9d 6bbd 33dd 22bb 2eb9 66bd
000002d0: aabf 063d dec4 52bc d1dd 243d 9c37 58bd
000002e0: 3b6e 9a3b a3fe 1d3d aa46 0fbd 5819 883c
000002f0: e7ee 06bc b734 44bc cbb6 d93c dbff 7fbb
00000300: b0cb 8dbc a0da 8b3c d44f febc 8034 103c
00000310: b0d0 183c 3839 a0bc 42c9 31bd 98df 16bc
00000320: 04f7 e3bc 98df 7ebc c0e1 cc3b e028 40bd
00000330: 5898 45bc c085 97bc d42b 57bd b8c0 75bd
00000340: 400c 01bc 5692 723d d8f8 443d 9877 6fbc
00000350: a445 113d f084 95bc 8ee5 2a3d 78fd babc
00000360: 0b35 0bbf 2323 b8be ab25 883d 7fab ccbd
00000370: 2d38 1c40 5a42 6a3e c4c9 e63d 325d c4bd
00000380: f1c0 1ebf c503 77bd 622a 25bd ecc6 53be
00000390: acbb b53f f421 8b3f f0d6 9e3c c298 78be
000003a0: fe19 41be 0ffb 703e fc31 493c 12ac b0be
000003b0: b1af e13e b52a 9b3f 18cb 5e3d a776 b8be
000003c0: 5471 63bd 70c1 5ebd 7ecf 37bd b47a 97bc
000003d0: 82dd 00bd 86c5 29bd b2b5 0d3d 38b3 0c3c
000003e0: f873 c7bc c83a b43c 5073 b73c e8c4 4cbd
000003f0: 40ef 8dbb a2b7 74bd d43e a03c 5054 293d
-0.031546757 0.022668079 -0.043724623 -0.024905814 -0.077560425 -0.010705024 -0.01057371 -0.042389367
0.0384148 -0.06761763 0.018991489 -0.0022447747 -0.042413678 -0.069348335 -0.096466966 -0.05432543
-0.06404325 -0.06554675 -0.024908176 -0.028972413 -0.040793348 -0.067957506 -0.07535473 -0.044845086
-0.008416524 0.033423427 -0.052040726 0.021867363 0.019604672 -0.08650599 -0.07806156 -0.016616879
-0.006132137 0.027458364 0.0034380446 -0.057145543 0.043568216 -0.06581116 -0.0035445024 -0.025850415
0.018459488 0.009575167 0.010179082 -0.07435124 0.041745704 -0.07920435 -0.0076280814 -0.037672352
0.011764471 0.020348843 -0.1164128 -0.029392498 0.041911997 -0.122097045 -0.052172367 -0.0960589
0.1011261 -0.014053999 -0.009397858 -0.06696202 0.011972361 0.0043026 -0.08265214 -0.124883555
0.02086571 0.037688255 -0.050473418 -0.08575257 -0.047574997 -0.01947057 -0.07013485 -0.08813946
-0.054404452 -0.019596837 -0.031170152 0.049152672 -0.053732164 0.04476458 -0.030873261 -0.036220573
0.028774135 0.031987824 -0.04401417 0.04286401 -0.053302303 0.036913566 0.029917061 0.047539815
-0.0038763732 -0.0037247464 -0.028750181 -0.0067684352 -0.047218934 -0.056174226 -0.023932561 0.0113213435
-0.01980205 -0.022770792 -0.039092638 -0.089451574 -0.022733556 -0.08506339 -0.070842065 -0.08260678
-0.012840105 -0.02376151 -0.0893493 -0.0103536835 0.011459202 -0.07232136 -0.0744356 -0.10107136
-0.08014426 0.008794935 -0.017509436 -0.026856357 0.012848174 -0.018774547 -0.09814004 -0.047805775
0.24499589 -1.1208179 -0.15871245 0.012090526 2.0403671 -1.1373557 -0.07045642 -0.0042250436
0.6511127 -0.3957543 -0.1522541 -0.14433219 1.1110854 -0.010152919 -0.1864393 -0.11773916
0.3460138 -0.075977586 -0.48796707 0.0100363325 0.5743104 0.9726895 -0.38285443 -0.07670161
-0.06529954 0.0097021675 -0.010714464 -0.06656426 0.0096254265 -0.046073478 -0.10250635 -0.029571343
-0.055372693 -0.08729765 -0.060851365 -0.05296652 -0.015336837 -0.06816841 0.0067620575 -0.0012830511
0.005381041 -0.030552011 0.0111308275 -0.034116507 -0.06500279 -0.022782847 -0.039245028 -0.11510112
0.018156763 0.046417832 -0.03156507 -0.001579843 0.018088464 -0.0747356 -0.08241889 -0.05616087
0.019363653 -0.057523306 -0.0024851083 -0.056328945 0.03289763 -0.01286432 0.040250603 -0.05278741
0.0047128475 0.03857292 -0.0349795 0.016613647 -0.00823567 -0.011975459 0.02657642 -0.0039062414
-0.01730904 0.017072022 -0.031043924 0.0088015795 0.009327099 -0.019558534 -0.043404825 -0.009208582
-0.027827747 -0.015556239 0.0062524974 -0.04691398 -0.012060247 -0.018496394 -0.052532032 -0.059998244
-0.007876456 0.059221588 0.04808888 -0.014615916 0.035466805 -0.018251866 0.041722827 -0.022825941
-0.5437781 -0.35964307 0.066478096 -0.09993648 2.4409287 0.22876874 0.112689525 -0.09588088
-0.62013155 -0.06030633 -0.040323623 -0.20681351 1.4197898 1.0869737 0.0193896 -0.24277022
-0.18857571 0.23533271 0.012279984 -0.3450628 0.44079354 1.2122408 0.054392904 -0.36028025
-0.055528 -0.054383695 -0.044875614 -0.018491127 -0.031461246 -0.04144814 0.034597106 0.008587651
-0.02434729 0.022000685 0.022393852 -0.049992472 -0.0043314993 -0.05974544 0.019561209 0.041340172

fc1.bias f4 [256]
00000000: e2d6 893d bb2a 2fbe 69a0 3d3d 6187 0bbe
00000010: 1ae1 053e 0271 5dbf de38 d43c be56 5fbe
00000020: 1c97 a7bd 1806 36bf b09c 3ebe dc51 5f3d
00000030: 8dc1 c1bd 8f2e 9dbf 6fdc 03bd 9e5d 8dbb
00000040: c942 e63d 6563 21be 92e3 29be 4ac5 8cbd
00000050: b749 4a3b b372 d1bd 6031 9fbd a6f6 91bd
00000060: a9ee 953d 9099 c2bb 58ae 9e3d 4431 a13d
00000070: ee3d 36be baef 673c a50d 37be 43c3 40be
00000080: 0f7e 92bd ff71 1c3e f0ad 953c 95fd 24be
00000090: 877d 3cbe e551 dc3d 56af ed3d 11fb e7bd
000000a0: f227 d63c ad8f 213d 091a d7bd 70a1 0a3d
000000b0: 3276 993d 2782 a7bd 531a a7bd 140d e33d
000000c0: c09c 643d 3ef4 fbbc adfc 073d 3516 f63c
000000d0: fc46 8fbd 0dc8 eebc 3724 013e d810 a13d
000000e0: 8df8 9d3c 09ec 05be 1656 95bd c33e a63b
000000f0: 457d 03be e00a 793d 1abf 1fbe d85b 14be
00000100: 6267 c93c ff3a 02be 03f0 50be 5b57 b83d
00000110: 73c5 debd 3a53 9ebd c58a cabd 8dfc f9bd
00000120: 49a2 233f 3819 db3e 3856 27be 4d8d 73bd
00000130: af7b 2b3d e2cd 0dbe 89b7 48be ece3 0c3d
00000140: 8e81 f2bd 0377 d33c 3c0c 43bd 3d1b 583c
00000150: 48af 1fbd ced2 82bd 5b26 22be 8677 d53d
00000160: e7d2 6c3d 1960 f23b 109c 9b3f 609c 183e
00000170: 38a1 48be c947 a03d 0dfe 163e 59a2 4cbd
00000180: bde9 45be 8c5d cebd 86c4 6eba 7b9c a7bd
00000190: 7f32 cebe 6b3c 293d b1d7 46be c089 833a
000001a0: 535d 293c ac42 b43d 90ee 85bc d29d c83d
000001b0: e1b7 923c d419 28be 9122 22be 3bd2 b9bd
000001c0: 9588 cfbe 2ed8 0fbe 9844 babe 5c2c a13d
000001d0: 3cbd ea3b 6ebe 803d a331 dcbd eedf 173e
000001e0: 4f04 30bd e586 7a3d 98c2 bfbd ad98 cd3d
000001f0: 409d bebc 1dcf afbc 5d68 b53d 9bf8 2ebd
00000200: 84e0 d7be ff28 39bd 691e d03d b836 4bbe
00000210: 91e5 173e ba2d f6bd 7c6e 65bf f09c 013d
00000220: 8852 0fbe 2894 32be bbf8 1a3d 9682 363d
00000230: c79d 28be 9d44 c23d 8a1c febd d963 013e
00000240: ba94 8f3c a25e 33be 1242 80bc 34bc 9ebd
00000250: 9efe 12bf f1b8 c7bd 3de7 163e 39bc 0ebe
00000260: 9e01 3abf 4fd3 60be 2eec d33d 36ea 0fbe
00000270: 255f a23b bd0d 7fbd 880e 50be 9d7d db3d
00000280: 793e ea3c c1e6 9c3f 4f43 e6bd 7cbc 9ebd
00000290: 2ad9 01be 71ee 40be 6306 023c 824b 1b3d
000002a0: 6288 4ebd 44fe 07be 5939 15bc 7550 1cbc
000002b0: 0a09 b4bc dffc b6be 01c8 8d3d c004 e33d
000002c0: 2d72 c4bd 3c1b 43bd c1b7 4c3d bb7a 93ba
000002d0: 7913 e63d 75bd d23d 80de 9d3d a2c2 09be
000002e0: 19bc 34bf b680 4c3d 23aa 3cbe c06f e6bd
000002f0: 8afe b7bc f222 c33d 95ba 4f3d cf40 fabc
00000300: a29b b7bd ba7d 52bd faad a73d 0142 a43f
00000310: 7fb7 4fbe 28a8 46bf 7dbb 43be db2a 2cbe
00000320: 7746 4abf a891 03be 547c aa3d d16b fbbd
00000330: 098c 62be 1c37 b9bc 6e59 493d 1e6c aabc
00000340: 2df7 a93c f288 423f 0115 1ebe 3ccb 91be
00000350: 8482 503a 984e e7bd 7cbb f5bc a4e3 143d
00000360: 4514 92bd 22c2 09bd 98ed 573c 8328 c03c
00000370: 57b5 803d 80fb 53bd 9bf4 c43c 5564 e53b
00000380: b414 dabd a171 5ebc 4b88 cbbc 7d6e 87be
00000390: 095f 8fbe 291a a83d e3e0 b6be 6517 cc3d
000003a0: d45e 063b 57f7 a73d e3ab 81bd 92f3 8bbd
000003b0: 1084 ebbd 2e93 46be 275f 8fbc 8249 943d
000003c0: 8d50 653c eb9e 8abd 2a59 04be e762 6ebd
000003d0: f21f 913d 8a0b bb3d 9fcd 573d cb78 9d3c
000003e0: 5953 ea3a 244c f7bc 9a99 65bf 12c7 79bd
000003f0: 522a ca3d a821 d5bc 16c9 083d 3a09 7cbd
0.06730439 -0.17106144 0.046295557 -0.13625862 0.1307415 -0.8650056 0.025906023 -0.21810433
-0.08183119 -0.7110305 -0.18614459 0.054521427 -0.09460745 -1.2279834 -0.032192644 -0.0043141386
0.11243207 -0.15760572 -0.16590717 -0.068735674 0.0030866691 -0.10226955 -0.077730894 -0.071271226
0.073209114 -0.005938716 0.07748097 0.07870725 -0.17797062 0.014156276 -0.17876299 -0.18824486
-0.0715295 0.15277861 0.018271416 -0.16112359 -0.1840726 0.10757808 0.11605708 -0.11327184
0.026142094 0.03944366 -0.10503013 0.033845365 0.07493247 -0.081791215 -0.08159318 0.11086479
0.05581355 -0.030756112 0.033199955 0.030039886 -0.06995961 -0.029148126 0.12611471 0.07864541
0.019283557 -0.13078322 -0.0729181 0.0050733997 -0.12840755 0.060801387 -0.15600243 -0.1448816
0.02458543 -0.12717818 -0.20404057 0.09001037 -0.10877504 -0.07730718 -0.098897494 -0.12206373
0.639195 0.42792678 -0.16341484 -0.059460927 0.041866 -0.1384807 -0.19601263 0.03439705
-0.11841117 0.025813585 -0.04761909 0.013190088 -0.03898552 -0.06387864 -0.15834944 0.10423188
0.05781832 0.0073967096 1.2157001 0.14903402 -0.1959275 0.07826192 0.1474535 -0.049959514
-0.19327445 -0.100764364 -0.0009108264 -0.08184143 -0.402729 0.041317385 -0.19418217 0.001003556
0.010337192 0.08801779 -0.016349107 0.09795727 0.017909946 -0.16416103 -0.15833499 -0.090733014
-0.4053389 -0.1404731 -0.36380458 0.07869789 0.007163672 0.062863216 -0.10751655 0.14831516
-0.04297286 0.0611638 -0.09363288 0.10038886 -0.023268342 -0.021461064 0.08857796 -0.042717557
-0.4216348 -0.045205113 0.1016205 -0.19845092 0.14833666 -0.120204404 -0.8962171 0.031643808
-0.13996327 -0.1743933 0.037834864 0.04455813 -0.16466437 0.09485743 -0.12407787 0.12635745
0.017526973 -0.17516568 -0.015656505 -0.07750741 -0.57419765 -0.09752072 0.14736648 -0.13938989
-0.7265872 -0.21955608 0.10347782 -0.14054188 0.00495519 -0.06226896 -0.20318043 0.10717318
0.028594242 1.225792 -0.11243307 -0.07750794 -0.12680498 -0.18840958 0.007936093 0.037913807
-0.050423034 -0.13280588 -0.009107911 -0.009540667 -0.021976966 -0.357398 0.06922913 0.1108489
-0.0959209 -0.047633395 0.04997993 -0.0011251786 0.11234183 0.10290042 0.07708454 -0.13453153
-0.70599514 0.049927436 -0.18424277 -0.11251783 -0.02246024 0.0952815 0.050715048 -0.030548481
-0.089652315 -0.051389433 0.0818748 1.2832643 -0.20284842 -0.77600336 -0.1911449 -0.16813223
-0.7901377 -0.12848532 0.08324495 -0.12276424 -0.22123732 -0.022609286 0.049157552 -0.020803507
0.020747745 0.7599021 -0.154377 -0.28475368 0.00079540187 -0.112942874 -0.029996626 0.036349908
-0.07132772 -0.033632405 0.013179205 0.023456817 0.06284588 -0.05175352 0.024042418 0.007000486
-0.1064848 -0.013576896 -0.024845263 -0.26451483 -0.28002194 0.08208115 -0.3571845 0.099654
0.00205033 0.08201473 -0.06331613 -0.06833567 -0.11499798 -0.19392082 -0.017501427 0.07240583
0.013996256 -0.067685924 -0.12924638 -0.05819979 0.07086171 0.0913306 0.05268633 0.019222638
0.0017877623 -0.030187674 -0.896875 -0.060980864 0.09871353 -0.026017025 0.033394895 -0.061532237

fc2.weight f4 [2, 256]
00000000: 87e7 cabb 4cd0 c3bb cd0b 5c3d 803e beb8
00000010: 0aca ce3b 5391 04bf 691c ef38 fbaa b1bc
00000020: 27e4 ebba ed80 43c0 5625 e6ba 5e52 1cbc
00000030: c3f2 45bd c36a 7bbf 1de8 f93c a77a 423c
00000040: fb45 793c 2530 a8bc 3cf7 303a dfcd 0cbb
00000050: 1d49 6f3c ac6f 32bd cc20 06ba 0252 b1ba
00000060: 9d60 13bd aa5b 643b ef0c 263d 2a75 ceba
00000070: 55c6 113b cf1a a9bc 3021 213b 005c 193a
00000080: 7309 2ebb 079c 083c 126c faba 3df9 20bd
00000090: e102 c3ba 784b 9d3b e7fd aa3a 189a 95b9
000000a0: 68ab 453d 997b a8bc 44ab a03a a351 bdbc
000000b0: e5fd 63c0 2311 afbc a581 e4bc 0c31 543c
000000c0: 92f5 b8bb 8d9c 333d 15ad 0cbd ac12 273d
000000d0: 59a3 54bd c167 1cbc 4e40 e33c c685 e1ba
000000e0: 9b7f af3c af12 04bd f4fc 19bd dced a33b
000000f0: 2158 ca3b fa3b 953c 9532 3a39 36d4 b6ba
00000100: cca4 8f3c 38f0 81bc f058 223b 1003 f43c
00000110: 0df9 aebc 8b5b cdba 5d9d 053c 9f46 143c
00000120: fac6 c53f 4cb7 d5be d073 d2bc 72e5 073c
00000130: 679c c4bc bf1f ea3b 2440 8aba 1e2f 183b
00000140: 4204 67bd a785 85ba f248 6f3a b476 c83c
00000150: 4c0f 4dbc 2c29 ccba d442 08bb fb99 ccb4
00000160: 49bd 11bb 2365 3ebd 1843 3b3f ece8 1c3b
00000170: 1f02 503c 20df b3bc 3a01 f83b 32cd 2bbc
00000180: 7ef5 1e3b 0723 44bb 4ca8 0ebd 9b87 39ba
00000190: d5d0 73bf dcdb 9dbb 9cd7 033a 503e 97bc
000001a0: 4e83 b6bc e8a3 95bc 59ca aebb 6c6a 49bd
000001b0: 2d15 39bd 8f0b 1f3c b59e 2ebb 3821 e7bc
000001c0: 3638 40bf 5f4f c8bc 5f6c 633e adbb 943c
000001d0: 5365 f3bc 9590 18bd 4f0b b8bc 8be1 7cc0
000001e0: 5726 d6bc 0009 2bbc 7ef7 23bd 029c 283d
000001f0: d3ff ae3a 54d4 ca3c 92fc 123c f964 ca3c
00000200: 06a4 0dbf 000d e93c 026a 0f3c 801a 18bb
00000210: 35be f83b 0ce1 a8ba 4920 1cc0 b171 133b
00000220: 4b30 9b3c 0c32 563a c21d 15bd 9dcc 0d3a
00000230: 45f3 5dbc 5a43 aebc 7f59 583c 480e a93b
00000240: 10dc 47bd a4a3 f13a 2331 34bb f73a 0ebd
00000250: d604 09c0 6529 cbbc 8b25 50bc 9236 febc
00000260: fc58 893c 1e4a 393c cf40 4f3b d61b 41bb
00000270: 5d28 74bd ceac 37bb 1014 9939 d645 693c
00000280: 54b8 1dbd 6514 bd3f bdee 66bd 2c95 16bd
00000290: fa52 993b 2acb 80ba f004 afb9 3a3e 7abc
000002a0: 0300 d8bb 04e3 75ba d545 51bc b5e6 6f3d
000002b0: 7d41 47bc e09d 183d ac07 443c 2ef1 aabc
000002c0: 8ed0 24bc 2c99 92bb 15f8 20c0 fb46 323b
000002d0: 70c7 993c 33ff bf3b b5be 59bd a0dc 22bb
000002e0: 9936 3ebf 2b47 4a3c 1813 01bf 739e 01bd
000002f0: 5779 83be c236 8bbc 3981 ab3c e875 40bd
00000300: d631 fd3a 955c 3abd 93be b9bc f6b2 ca3f
00000310: b305 22bb 85f6 64c0 b9dc 90bb 8893 483b
00000320: aa9d 013d 949a 5d3a 1b15 943c 80a2 86ba
00000330: 2844 c0bc e2ed 5cbd e83d 573c cb8f 04ba
00000340: f348 373d 6ce3 7740 6104 36bd 93ff 44bf
00000350: a657 c53c b0f4 b239 18bc 3cbd 0c9e c3bc
00000360: 95cb 3cbc 1ca4 f1bc 74d6 303c 2d31 22bb
00000370: ddac c63a 616d f3ba e24c 2c3c 3815 713c
00000380: 7604 93bc 0d81 1bbb ae9d 823b 8d23 7ebd
00000390: 1205 623c e58e 123d 86a7 55be fc89 1fbc
000003a0: afe5 ccba 7ef7 cc3c 9185 5fbc 4d33 ddbc
000003b0: e244 3cbc 10c7 a539 fefc 4bbd 76cd 343d
000003c0: 5c12 0dbd edff 793d c23a e3ba 49f4 5cbd
000003d0: 1028 58c0 e632 80bc fa28 a83c 77cc b73b
000003e0: 424d 303c b691 e23a 0dbf cfbf 92ff 8bbc
000003f0: ca4e f2bb bca0 3a3a 2a55 1c3c 4abe 263b
-0.006192151 -0.0059757587 0.05372219 -9.0715475e-05 0.006310706 -0.5178425 0.000114017 -0.021687975
-0.0017997072 -3.054744 -0.0017558734 -0.009541122 -0.04832722 -0.9820978 0.030506188 0.011870063
0.015214439 -0.02053077 0.0006750708 -0.0021485013 0.014604834 -0.04356353 -0.00051165815 -0.0013528469
-0.03598081 0.0034844675 0.04053968 -0.001575147 0.002224346 -0.020642666 0.0024586432 0.0005850196
-0.0026555925 0.008337981 -0.0019105694 -0.039300192 -0.0014878177 0.0048002563 0.001304564 -0.00028534303
0.04825917 -0.020566748 0.0012258072 -0.023110216 -3.5623715 -0.021370476 -0.02789385 0.012951147
-0.0056445086 0.04385047 -0.03434475 0.04078929 -0.051913593 -0.009546221 0.027740624 -0.0017206005
0.021423152 -0.03224438 -0.03759475 0.0050027203 0.0061750566 0.018217076 0.00017757186 -0.0013948742
0.017534636 -0.015861616 0.002477225 0.029786617 -0.021358991 -0.0015667541 0.008155194 0.0090500405
1.5451348 -0.41741407 -0.02568999 0.00829445 -0.02400036 0.0071448977 -0.001054768 0.0023221443
-0.056400545 -0.0010186926 0.0009127996 0.024470665 -0.012515854 -0.0015576235 -0.0020791786 -3.8109997e-07
-0.0022238067 -0.04648317 0.7314925 0.0023942543 0.012695818 -0.02195698 0.0075685056 -0.010485934
0.0024255211 -0.0029928104 -0.03482847 -0.0007077397 -0.9524053 -0.004817469 0.0005029382 -0.01846233
-0.022279408 -0.018266633 -0.0053341803 -0.049173757 -0.04518621 0.009707346 -0.002664489 -0.028214082
-0.7508577 -0.02445191 0.22209309 0.018155897 -0.029711401 -0.03724726 -0.02246633 -3.951266
-0.026141329 -0.0104391575 -0.04003095 0.041164406 0.0013351388 0.024759449 0.00897135 0.02470635
-0.55328405 0.028448582 0.008753302 -0.0023209155 0.007591034 -0.0012884452 -2.4394705 0.0022498185
0.018943926 0.000817091 -0.036405332 0.0005409213 -0.0135467695 -0.02127235 0.013204931 0.005159173
-0.048793852 0.001843561 -0.0027495108 -0.034724202 -2.1409202 -0.024800012 -0.012704263 -0.03103188
0.016766064 0.011309175 0.0031624322 -0.0029466054 -0.059608806 -0.0028026584 0.00029197382 0.014237842
-0.038505867 1.4771849 -0.056380022 -0.036763355 0.004679081 -0.0009826173 -0.0003338228 -0.015273625
-0.0065917983 -0.0009379836 -0.012772997 0.05856963 -0.01216161 0.037259936 0.01196472 -0.020866957
-0.010059489 -0.004473826 -2.5151417 0.0027202952 0.018771857 0.0058592795 -0.053160388 -0.002485074
-0.7430206 0.012346069 -0.5041976 -0.03164525 -0.25678512 -0.016993884 0.020935642 -0.046987444
0.001931722 -0.04549845 -0.02267388 1.5835865 -0.0024722635 -3.5775464 -0.0044208434 0.0030605514
0.0316445 0.0008453515 0.01807647 -0.0010271817 -0.02347 -0.0539378 0.013137318 -0.0005056827
0.044747304 3.8732557 -0.04443777 -0.76952475 0.024089646 0.00034133112 -0.046077818 -0.023879074
-0.011523147 -0.029497199 0.010793317 -0.002474855 0.0015157718 -0.0018572026 0.010516377 0.014714532
-0.017946463 -0.0023728043 0.003986082 -0.062045623 0.013795154 0.035780806 -0.20864686 -0.009737488
-0.0015632416 0.025020357 -0.013642685 -0.027002001 -0.011491032 0.00031619566 -0.04980182 0.044141255
-0.034441337 0.061035085 -0.0017336237 -0.053943906 -3.3774452 -0.01564927 0.020527352 0.005609091
0.010760607 0.0017285857 -1.6230179 -0.017089639 -0.0073946463 0.0007119288 0.009541789 0.002544301

fc2.bias f4 [2]
00000000: 8741 673f eedf 8dbf
0.9033436 -1.1083963
