p3_collab-compet/checkpoint_critic_0.pth (torch_old, 450860 bytes, 7 tensors)

fcs1.weight f4 [256, 48]
-1.9630697 -0.5899948 -0.30955312 -0.21250747 -1.0124061 0.74649143 -0.2752836 -0.28928918
-1.834978 -0.33601877 -0.46093825 -0.15637459 -0.71966916 -0.0032198103 -0.41863054 -0.24150114
-0.32099822 -0.65597016 0.5821789 -0.6276624 0.038318582 -0.4164141 0.63740176 -0.60701567
-2.364579 -0.24987815 -0.9536258 -0.025466895 0.35635623 0.79906183 -0.87072384 -0.01488364
-2.1650999 0.55827814 -0.24196865 0.28042394 0.25248814 -0.06687253 -0.20459245 0.26727712
-1.5864558 0.43593755 -0.111895256 -0.16645527 -0.111372836 -0.5246096 -0.04805469 -0.17314447
0.09704905 -1.0636859 -0.0053918357 -0.08543627 2.7757225 0.9856947 0.086257786 -0.08328853
-0.08464308 -0.6009085 -0.5110727 -0.12548812 0.884307 0.12506358 -0.54045254 -0.16988188
0.6746916 -0.22541419 -0.28445843 0.12826811 -3.1789525 -1.4893385 -0.33206186 0.14994463
-0.54903585 -0.28749904 -0.04239185 0.14975877 -1.7823998 1.0135401 -0.06274586 0.095019944
-0.0078121917 0.47851256 0.4212516 0.083835155 -0.8564137 0.053225685 0.40632474 0.06892646
-0.08508882 0.5942472 -0.09891667 -0.5593472 1.2090359 -1.4628357 -0.10896445 -0.64207095
0.09686069 -1.9317607 -0.20854947 0.8410864 -0.23883446 -0.065461226 -0.2526855 0.8660811
0.4916138 -1.1640159 -0.075365916 0.6746557 -0.3991811 -1.4095324 -0.13898562 0.7079309
0.090034395 -2.0446336 -0.23709144 -0.31422037 -0.6793889 -0.8638047 -0.21524578 -0.33625603
-0.39492396 -0.45668304 -0.2673951 0.35473555 0.6093122 -0.03377265 -0.23874901 0.36521024
-0.218108 -1.1810637 -0.19055445 0.07865782 0.86387753 -1.4224764 -0.14103177 0.017109692
0.20189542 -1.6527851 -0.05665733 0.32678905 0.9419586 -0.8939162 -0.03505907 0.42411008
-0.19523604 0.5882661 -0.4016136 -0.02385676 1.6378672 0.69521606 -0.35982135 -0.12184366
0.15742917 1.070065 -0.26965865 -0.18723486 0.11385634 0.13901177 -0.34052753 -0.109422
0.6303188 0.9287844 0.21972638 -0.8029757 -2.3508708 -1.1675594 0.27766678 -0.8607182
-0.6511748 -0.1809976 -0.24616571 -0.206326 -1.2055256 0.7503717 -0.23946176 -0.14907159
-0.43306178 0.2785308 -0.43228003 -0.16486537 -0.5502302 0.12236425 -0.4128081 -0.21018301
-0.5576471 0.48715615 0.20141144 -0.43795004 0.7300731 -1.1114894 0.16860913 -0.5336458
-0.46538255 0.3407006 0.017063549 0.09690071 0.95961225 0.12042134 0.060689062 0.032060362
-0.47079426 0.69524384 0.10212876 -0.35364342 -0.32530564 -0.4561105 -0.016211426 -0.3452991
0.55727255 0.77720004 0.33495808 -0.20908381 -3.0675035 -1.5488409 0.34520087 -0.21290885
-0.7036149 0.097558856 0.37897235 -0.13507915 -1.1721395 0.10041155 0.35559872 -0.19386424
-0.51887476 0.82302874 -0.21359637 -0.098494396 -0.55649346 -0.38898918 -0.16372167 -0.058622472
-0.5104921 0.8105927 -0.023728194 -0.6432697 0.7427504 -1.4856497 -0.09106061 -0.5710525
-0.31804678 -0.83053046 0.32885894 0.055513546 -1.4253185 0.9925695 0.39275777 0.039292846
-0.42962414 -0.5851145 0.24162434 0.11496701 -0.5936512 0.07346957 0.18981792 0.049569517
00000000: de45 fbbf e609 17bf bf7d 9ebe 8f9b 59be
00000010: 8696 81bf 101a 3f3f f9f1 8cbe b61d 94be
00000020: 8fe0 eabf a70a acbe 1900 ecbe a920 20be
00000030: 3d3c 38bf 7403 53bb be56 d6be 134c 77be
00000040: e159 a4be a9ed 27bf ad09 153f 7cae 20bf
00000050: f2f3 1c3d 3b34 d5be c32c 233f 6165 1bbf
00000060: 4355 17c0 0fe0 7fbe d220 74bf f39f d0bc
00000070: 5374 b63e 518f 4c3f c2e7 5ebf 83da 73bc
00000080: ff90 0ac0 51eb 0e3f a1c6 77be ba93 8f3e
00000090: 2046 813e 77f4 88bd af80 51be 8cd8 883e
000000a0: fc10 cbbf 3533 df3e 5729 e5bd 4073 2abe
000000b0: 7117 e4bd d14c 06bf ffd4 44bd c94c 31be
000000c0: a7c1 c63d dc26 88bf ffad b0bb 36f9 aebd
000000d0: 70a5 3140 7d56 7c3f eca7 b03d 2d93 aabd
000000e0: 5a59 adbd 24d5 19bf a9d5 02bf f57f 00be
000000f0: f261 623f ab10 003e 195b 0abf 84f5 2dbe
00000100: 97b8 2c3f fad2 66be 89a4 91be b758 033e
00000110: f573 4bc0 a5a2 bebf 0304 aabe 168b 193e
00000120: 9d8d 0cbf 1333 93be 14a3 2dbd 5d5a 193e
00000130: ad25 e4bf afbb 813f e780 80bd d199 c23d
00000140: 6afd ffbb 99ff f43e 4aae d73e c4b1 ab3d
00000150: ee3d 5bbf 2d03 5a3d cc09 d03e 5129 8d3d
00000160: 0c43 aebd 9620 183f d394 cabd 6131 0fbf
00000170: b0c1 9a3f 333e bbbf c128 dfbd c35e 24bf
00000180: e65e c63d ef43 f7bf fe8d 55be 7051 573f
00000190: 0591 74be 8910 86bd fe5f 81be 7eb7 5d3f
000001a0: ceb4 fb3e 79fe 94bf 7259 9abd 3cb6 2c3f
000001b0: 7761 ccbe 8f6b b4bf 3f52 0ebe f63a 353f
000001c0: f463 b83d 47db 02c0 19c8 72be 7ee1 a0be
000001d0: 6eec 2dbf 4e22 5dbf 6469 5cbe c029 acbe
000001e0: 7933 cabe 5cd2 e9be 03e8 88be e69f b53e
000001f0: e2fb 1b3f 3155 0abd 9f7a 74be d6fc ba3e
00000200: b457 5fbe 182d 97bf b520 43be 5a17 a13d
00000210: 1427 5d3f b513 b6bf a26a 10be a029 8c3c
00000220: acbd 4e3e 768e d3bf 8411 68bd e550 a73e
00000230: 3324 713f b1d7 64bf 199a 0fbd f524 d93e
00000240: f5eb 47be 9b98 163f 4ca0 cdbe 406f c3bc
00000250: a2a5 d13f aef9 313f 813a b8be 2b89 f9bd
00000260: 1d35 213e e4f7 883f b310 8abe 7fba 3fbe
00000270: 832d e93d 1a59 0e3e a059 aebe a418 e0bd
00000280: 935c 213f d0c4 6d3f f4ff 603e d18f 4dbf
00000290: ab74 16c0 9672 95bf 572a 8e3e 0758 5cbf
000002a0: 64b3 26bf 6f57 39be dd12 7cbe 1f47 53be
000002b0: aa4e 9abf 5c18 403f 7735 75be 39a6 18be
000002c0: 46ba ddbe 979b 8e3e cf53 ddbe 78d2 28be
000002d0: e3db 0cbf 1c9a fa3d 955b d3be 373a 57be
000002e0: f6c1 0ebf 886c f93e cd3e 4e3e fd3a e0be
000002f0: 12e6 3a3f 4945 8ebf dfa7 2c3e 039d 08bf
00000300: 9f46 eebe 4f70 ae3e dbc8 8b3c e173 c63d
00000310: 26a9 753f 779f f63d 1895 783d ba51 033d
00000320: f20b f1be 80fb 313f e228 d13d c010 b5be
00000330: 768e a6be 5187 e9be d3cd 84bc 0bcb b0be
00000340: 6aa9 0e3f 95f6 463f a07f ab3e 111a 56be
00000350: fa51 44c0 6b40 c6bf 2bbe b03e c704 5abe
00000360: 1b20 34bf f0cc c73d aa08 c23e 3052 0abe
00000370: ab08 96bf 92a4 cd3d 0911 b63e 5984 46be
00000380: fad4 04bf 03b2 523f 02b9 5abe 6eb7 c9bd
00000390: 5b76 0ebf 9729 c7be a7a6 27be 1e1e 70bd
000003a0: 9caf 02bf 0183 4f3f a161 c2bc 53ad 24bf
000003b0: e424 3e3f c529 bebf fc7d babd 7f30 12bf
000003c0: 07d7 a2be a59d 54bf 3360 a83e 2c62 633d
000003d0: d670 b6bf 0919 7e3f 8c17 c93e 89f1 203d
000003e0: b2f7 dbbe 10ca 15bf 5f6c 773e d373 eb3d
000003f0: 86f9 17bf 3777 963d a15f 423e 6809 4b3d

fcs1.bias f4 [256]
-0.20187661 -0.5237548 0.50304747 -0.5657603 -0.9148561 -0.40685412 -0.9911173 -0.67401403
-1.26462 -1.1576265 -1.0369091 -0.57908016 -1.1960821 -0.60520035 -0.5596985 -0.887196
-1.2719822 -1.0996774 -0.20610155 -1.2499154 -0.93912965 -1.4621041 -0.85731095 0.4455239
-0.96898144 -1.2753835 -0.94422555 -0.34424713 -0.35591608 -1.1365285 -0.71441334 -0.06828623
-0.829757 -1.1143754 -0.80660874 -0.9091193 -1.1993697 -0.34227222 -1.3563573 -1.0927643
-1.1683235 -1.3860579 -0.21574846 0.9404474 -0.47328916 -1.0390425 -0.8098812 -0.82953525
-0.05940137 -1.3615949 -1.0149384 -1.4140595 -0.49568495 -1.0930307 -0.3086369 -1.0124859
-0.61448646 -0.46063876 -0.7756957 -1.0871493 -0.63882107 -0.7863509 -1.1970894 -0.592252
-1.3434885 -0.94650936 -1.0170658 0.9452209 -1.1393737 -1.0109826 0.81512684 -0.006551801
-1.1597968 -0.0032119749 -1.1863812 -1.4997319 -1.2522583 -1.0005313 -0.66154957 -1.142434
-1.2206109 -0.81445944 -1.3213587 -0.2723244 -1.027055 0.2943285 -1.0765128 0.92113936
-0.82962996 -0.8533245 -0.5661046 -0.27023086 -0.91214436 -0.7428348 -1.0556192 -1.1117936
-1.4948595 -0.58030677 -1.4761941 0.20516874 -0.6564918 -0.68327093 -1.1619912 -0.5093349
-1.3425847 -0.5315198 -0.26990244 0.09856557 -0.67420316 0.54265594 -1.2991765 -1.3792254
0.26415 -0.86298877 0.11096775 -0.61621284 0.42582935 -0.013732585 -0.71200496 -0.24893038
-0.9658303 -0.21139355 -1.0341476 -1.0622268 -0.7349461 -0.44840264 -1.2896812 -0.8595738
0.08810535 -1.0042452 -1.0422634 -0.8159918 -1.0304501 -0.22480696 -1.3550676 -0.9932521
-1.4043849 -0.43181986 -0.5962597 -0.85862213 -0.4508447 -0.58144003 -0.4592469 -1.2427891
-0.92822915 -0.43575126 -1.0546483 -1.1801054 -0.6742094 -1.2290531 -1.1969026 -0.9726702
-1.1556782 -0.28142652 -1.1973549 -1.1281115 -0.9683954 -1.1175362 -0.94775456 -0.7486471
-0.26281652 -0.83092666 -1.5327877 -1.006768 -1.1462622 -0.61954874 -0.5485913 -0.6679871
-1.2387447 -0.69561017 -0.88185334 -0.49742654 -0.9846121 -0.6948259 -0.8292036 -0.77739143
-0.31318825 -0.99307257 -0.70907205 -1.0422301 -1.1773719 -1.2405475 -0.5925693 -0.93338495
-1.0116463 -0.2739696 -0.83936197 -0.6004058 -1.1828278 -1.0845437 1.5858356 -1.3470787
-1.2888243 -0.6575426 -1.1543047 0.51708704 -0.59135884 -1.0952247 -1.3256743 -0.6304272
-0.8370757 -1.1634924 -1.4596236 -1.1243032 -1.1018989 -1.035044 0.01615775 -0.5161564
-0.86419815 -0.94703287 -0.030936036 0.8459854 -0.465176 -1.2389252 -0.22167018 -1.1235853
-0.7046693 -0.49937153 -0.61044127 -1.0708481 -0.90968627 -0.9085286 -0.71797544 0.3819545
-0.34907958 -0.49325746 -0.89622074 -0.802161 -1.090827 -1.0483714 -1.262082 0.5269988
-0.37481824 -1.1307011 -0.95646197 -1.1153047 0.187579 0.01791228 -0.8977244 -1.0576589
-0.8748663 -1.0491638 0.40390733 -0.65568084 -1.0781567 -0.70744675 -0.9369171 -1.0461301
-0.8594902 -1.0933274 -1.1072426 -1.6364629 -0.59735006 -0.03766424 -1.4124383 -0.26919663
00000000: beb8 4ebe cb14 06bf b8c7 003f abd5 10bf
00000010: 0234 6abf 2f4f d0be ddb9 7dbf 2f8c 2cbf
00000020: 11df a1bf 1b2d 94bf 70b9 84bf 993e 14bf
00000030: 3819 99bf 69ee 1abf 6748 0fbf 471f 63bf
00000040: 50d0 a2bf 3bc2 8cbf 490c 53be 3afd 9fbf
00000050: cd6a 70bf 3a26 bbbf bb78 5bbf b51b e43e
00000060: 2b0f 78bf c43f a3bf c4b8 71bf 2941 b0be
00000070: a23a b6be c479 91bf cbe3 36bf a7d9 8bbd
00000080: f46a 54bf daa3 8ebf e97d 4ebf 0bbc 68bf
00000090: f284 99bf 4e3e afbe 1e9d adbf b3df 8bbf
000000a0: a08b 95bf 586a b1bf 2aed 5cbe 29c1 703f
000000b0: f552 f2be 58ff 84bf 6054 4fbf 6c5c 54bf
000000c0: da4e 73bd be48 aebf 80e9 81bf e7ff b4bf
000000d0: 6bca fdbe 6ee8 8bbf a805 9ebe 2399 81bf
000000e0: fc4e 1dbf d8d8 ebbe fe93 46bf b527 8bbf
000000f0: c789 23bf 4b4e 49bf 3a3a 99bf d49d 17bf
00000100: 6ef7 abbf 704e 72bf 362f 82bf fff9 713f
00000110: ffd6 91bf e167 81bf 27ac 503f 7eb0 d6bb
00000120: 3974 94bf ff7f 52bb 57db 97bf 37f7 bfbf
00000130: 004a a0bf 6911 80bf 505b 29bf 473b 92bf
00000140: fa3c 9cbf 6a80 50bf 4822 a9bf 1b6e 8bbe
00000150: 8a76 83bf 3ab2 963e 2ccb 89bf cacf 6b3f
00000160: a162 54bf 7973 5abf 3bec 10bf b35b 8abe
00000170: 4b82 69bf 6c2a 3ebf 881e 87bf 414f 8ebf
00000180: 8e57 bfbf fc8e 14bf eef3 bcbf c117 523e
00000190: d90f 28bf d8ea 2ebf 21bc 94bf c663 02bf
000001a0: d1d9 abbf ae11 08bf a730 8abe bfdc c93d
000001b0: 9498 2cbf 80eb 0a3f 6a4b a6bf 758a b0bf
000001c0: ab3e 873e d5ec 5cbf 0f43 e33d 20c0 1dbf
000001d0: 4e06 da3e a3fe 60bc f545 36bf 9be7 7ebe
000001e0: a840 77bf 8d77 58be f35e 84bf 0cf7 87bf
000001f0: 6d25 3cbf 0895 e5be 4614 a5bf 070d 5cbf
00000200: 9470 b43d 1b8b 80bf e368 85bf d7e4 50bf
00000210: cae5 83bf cc33 66be db72 adbf c545 7ebf
00000220: e2c2 b3bf 7e17 ddbe 7aa4 18bf a9ce 5bbf
00000230: 1ed5 e6be 41d9 14bf 6922 ebbe b713 9fbf
00000240: 6da0 6dbf ca1a dfbe b7fe 86bf b20d 97bf
00000250: fd98 2cbf 9d51 9dbf 1b34 99bf ea00 79bf
00000260: 43ed 93bf 2317 90be ed42 99bf f565 90bf
00000270: c3e8 77bf 6d0b 8fbf 0ba0 72bf 56a7 3fbf
00000280: e38f 86be 9cb7 54bf 6332 c4bf c6dd 80bf
00000290: b8b8 92bf bf9a 1ebf 7b70 0cbf 3401 2bbf
000002a0: 308f 9ebf 8213 32bf 24c1 61bf b1ae febe
000002b0: 8a0f 7cbf 1ce0 31bf b046 54bf 2003 47bf
000002c0: 365a a0be 013a 7ebf bf85 35bf cc67 85bf
000002d0: 1fb4 96bf 43ca 9ebf 9fb2 17bf 51f2 6ebf
000002e0: a07d 81bf be45 8cbe 6de0 56bf 32b4 19bf
000002f0: e766 97bf 54d2 8abf a9fc ca3f 136d acbf
00000300: 32f8 a4bf b654 28bf 42c0 93bf d15f 043f
00000310: 4b63 17bf 5330 8cbf b2af a9bf ad63 21bf
00000320: 984a 56bf 52ed 94bf f2d4 babf 2be9 8fbf
00000330: 060b 8dbf 527c 84bf 425d 843c d322 04bf
00000340: 173c 5dbf bf70 72bf 926d fdbc 8092 583f
00000350: 8c2b eebe 1a95 9ebf 82fd 62be a5d1 8fbf
00000360: 3565 34bf a0ad ffbe e145 1cbf 8d11 89bf
00000370: 33e1 68bf 5595 68bf 3dcd 37bf 8a8f c33e
00000380: 8fba b2be 3e8c fcbe b96e 65bf 6c5a 4dbf
00000390: 38a0 8bbf 0931 86bf e78b a1bf 65e9 063f
000003a0: 2de8 bfbe d0ba 90bf b1da 74bf 4ec2 8ebf
000003b0: b614 403e c6bc 923c 44d1 65bf 5e61 87bf
000003c0: 3df7 5fbf 004b 86bf f1cc ce3e b3da 27bf
000003d0: 0a01 8abf 3b1b 35bf cdd9 6fbf 97e7 85bf
000003e0: 8d07 5cbf 27f2 8bbf 20ba 8dbf 9e77 d1bf
000003f0: efeb 18bf d145 1abd c7ca b4bf 24d4 89be

fc2.weight f4 [256, 260]
0.41656786 0.3301237 0.34030086 0.3243268 0.19350567 0.13181715 0.022470709 0.03268244
0.30436033 0.3617899 0.16037153 0.2043123 -0.049368832 0.16499746 0.13698353 0.2742631
0.38677245 0.18477152 0.37267664 0.14381482 0.36961058 0.18231866 -0.15383326 0.3447023
0.040377542 0.689751 0.19454704 0.22136582 0.23556745 0.22233406 0.4878143 -1.3485564
0.074324846 0.43186224 0.19831747 0.09447411 0.3197804 -0.20520867 0.37502325 0.26400256
0.1324162 0.203143 -1.1951244 0.0025889094 0.5989409 0.41357014 0.08899399 0.26461747
0.10005996 0.32556745 0.10501125 0.43337476 0.25190705 0.15908967 0.04433217 0.34362224
0.09019676 -1.193845 0.44485807 0.28384444 0.055595662 0.41556218 0.09251217 0.3433378
0.082507744 0.22227468 0.2785297 0.50482136 0.25558305 -0.019500991 0.23668683 -0.12981686
0.19290599 -1.4123989 0.38413283 0.52318805 0.22303298 0.28611106 0.4449209 0.27832365
0.34064707 0.21379751 0.09362242 0.15292193 0.36602232 -0.63105386 0.105321944 -1.8957397
0.20648083 0.17314532 0.07765119 0.2913133 0.6447286 0.4352057 0.18346585 0.5225937
0.37877968 0.26356187 0.3792324 -0.6687517 0.35613364 -0.11143716 0.5486146 0.43899357
0.41379264 -0.24949774 -1.0738673 0.9111911 0.2177932 -1.1557543 0.44237602 0.44714764
-0.9235834 0.3943171 0.38777122 -0.15398987 -0.73771065 -0.3741928 0.47618243 -0.08440847
0.14767706 -0.21303649 0.1278691 0.4965788 0.13060766 0.2602127 0.44183895 0.2632465
0.8169642 -0.0023233036 0.36164188 0.08282332 0.44264203 0.19398242 0.37243778 0.2736484
0.49819088 -0.33307895 0.11380555 0.1379403 0.16755971 0.45230368 0.2236369 0.31552395
0.30517945 0.482417 0.2634066 0.22056109 0.6754665 0.37199453 0.48031017 0.14944057
0.35465685 0.074391626 0.07145561 0.15425427 0.34877747 0.36724183 0.62120116 0.50403005
-0.6069459 0.40502158 0.31480575 0.4557602 0.38616064 0.31551367 0.027144551 0.43865123
0.36956173 0.0016106587 0.20384143 0.45662257 0.44574475 -1.7697766 0.10554054 0.5206852
-0.5556823 0.41371718 0.02155099 0.08588923 0.45208693 0.28629196 0.32073876 0.19532618
0.30788058 0.014207497 0.41683364 -0.15554379 0.1229298 0.2133162 -0.023066152 0.33936974
0.32100978 -0.002099591 0.32659355 -0.3080307 -0.539241 0.45529273 0.27008685 0.27534845
0.09927054 0.25953662 0.5292467 0.29689407 0.13060565 0.29905823 -0.312 0.24214418
0.26579794 0.2887254 0.050545026 -1.3015133 0.2607149 0.096596025 -1.4639832 0.62565994
-0.04691493 0.0057157376 0.2260364 0.32250482 0.24146235 0.078742914 0.4191188 0.44142866
-0.16144876 0.2091341 0.24566701 0.44661883 0.50747794 0.48234093 0.26802683 -0.7314437
0.2593902 0.33880237 0.40880272 0.3097155 0.2627935 0.3324913 0.24310319 0.334663
0.37241647 0.2769625 0.3011425 0.3699299 0.13157012 0.43311465 0.11613789 0.56022775
0.23712397 0.36290535 0.34279343 0.5555414 0.3694205 0.92665213 0.37631974 0.13026047
00000000: 6248 d53e f905 a93e ea3b ae3e 2a0e a63e
00000010: 5a26 463e 13fb 063e 7e14 b83c 06de 053d
00000020: 1ed5 9b3e 873c b93e 6f38 243e 3e37 513e
00000030: f936 4abd 18f5 283e 6945 0c3e 376c 8c3e
00000040: 0a07 c63e bf34 3d3e 79cf be3e 3144 133e
00000050: 993d bd3e beb1 3a3e 7786 1dbe d27c b03e
00000060: ec62 253d 8693 303f 5737 473e b9ad 623e
00000070: 9838 713e 8aab 633e ccc2 f93e 7f9d acbf
00000080: a037 983d 0c1d dd3e bc13 4b3e a47b c13d
00000090: 42ba a33e 3922 52be 0c03 c03e 582b 873e
000000a0: 1d98 073e b804 503e d6f9 98bf b1aa 293b
000000b0: 3154 193f 77bf d33e 7b42 b63d f17b 873e
000000c0: 3cec cc3d c7b0 a63e 2310 d73d 4ce3 dd3e
000000d0: f6f9 803e 67e8 223e a695 353d 41ef af3e
000000e0: 14b9 b83d eacf 98bf 70c4 e33e 0f54 913e
000000f0: 47b8 633d 91c4 d43e 0577 bd3d f9c9 af3e
00000100: d2f9 a83d f99b 633e 729b 8e3e f93b 013f
00000110: c8db 823e 8bc0 9fbc 085e 723e b6ee 04be
00000120: 2689 453e 7dc9 b4bf 0fad c43e a7ef 053f
00000130: c262 643e 267d 923e accc e33e 7080 8e3e
00000140: 4b69 ae3e bced 5a3e 1dbd bf3d 9197 1c3e
00000150: 4767 bb3e bf8c 21bf 08b3 d73d 99a7 f2bf
00000160: b66f 533e 024d 313e 9607 9f3d 0427 953e
00000170: ef0c 253f 48d3 de3e 79de 3b3e b3c8 053f
00000180: 69ef c13e 95f1 863e c02a c23e 5033 2bbf
00000190: 2657 b63e 2a39 e4bd 0272 0c3f c4c3 e03e
000001a0: a1dc d33e 567c 7fbe 7c74 89bf d243 693f
000001b0: 2e05 5f3e c2ef 93bf 1c7f e23e 89f0 e43e
000001c0: f66f 6cbf eee3 c93e f389 c63e 85af 1dbe
000001d0: 9bda 3cbf 3396 bfbe 2fce f33e 59de acbd
000001e0: a838 173e 3d26 5abe 1ef0 023e 943f fe3e
000001f0: 04be 053e 993a 853e b738 e23e 3fc8 863e
00000200: 9124 513f 9142 18bb 2029 b93e 469f a93d
00000210: faa1 e23e 54a3 463e 2ab0 be3e a51b 8c3e
00000220: e012 ff3e 5389 aabe e212 e93d 3940 0d3e
00000230: c694 2b3e 5994 e73e 1201 653e 5b8c a13e
00000240: 7b40 9c3e 5cff f63e 3bdd 863e c4da 613e
00000250: 5feb 2c3f 1176 be3e 37eb f53e f306 193e
00000260: 9595 b53e a35a 983d 5257 923d d5f4 1d3e
00000270: f692 b23e 1f07 bc3e 0a07 1f3f 1d08 013f
00000280: ce60 1bbf fd5e cf3e 382e a13e 6759 e93e
00000290: d9b6 c53e 028b a13e 405e de3c e596 e03e
000002a0: 3237 bd3e bd1c d33a cfbb 503e 6fca e93e
000002b0: a838 e43e 0a88 e2bf a325 d83d a04b 053f
000002c0: 3241 0ebf bdd2 d33e b48b b03c b1e6 af3d
000002d0: f077 e73e dc94 923e df37 a43e 9603 483e
000002e0: 86a2 9d3e 90c6 683c 386b d53e df46 1fbe
000002f0: 9ec2 fb3d 906f 5a3e 3af5 bcbc dfc1 ad3e
00000300: 655b a43e 4b99 09bb 4537 a73e 33b6 9dbe
00000310: b30b 0abf 211c e93e d348 8a3e 79fa 8c3e
00000320: 5a4e cb3d fce1 843e b67c 073f 8002 983e
00000330: 7dbd 053e 291e 993e 77be 9fbe a5f4 773e
00000340: ab16 883e d1d3 933e 4d08 4f3d fd97 a6bf
00000350: 6c7c 853e 23d4 c53d cd63 bbbf 402b 203f
00000360: df29 40bd 154b bb3b 1676 673e 5a1f a53e
00000370: e841 773e f743 a13d bd96 d63e f002 e23e
00000380: d352 25be 4027 563e 2290 7b3e 39ab e43e
00000390: 13ea 013f 64f5 f63e d03a 893e e53f 3bbf
000003a0: cbce 843e 8177 ad3e 974e d13e 0893 9e3e
000003b0: df8c 863e 4d3c aa3e 0bf0 783e f358 ab3e
000003c0: 5fad be3e 07ce 8d3e 5a2f 9a3e 7467 bd3e
000003d0: 51ba 063e 34c1 dd3e b4d9 ed3d 166b 0f3f
000003e0: a0d0 723e bbce b93e 9f82 af3e f637 0e3f
000003f0: af24 bd3e 1339 6d3f fbac c03e 0063 053e

fc2.bias f4 [256]
-0.88172024 -1.0086955 -0.8068486 -0.19825381 -0.4991581 -1.1199336 -1.0016066 -1.4884723
-0.6297752 -0.9477495 -0.35367602 -0.31554282 -0.20711206 -0.56642723 -1.6672515 -0.4654821
-1.5250897 -0.7126262 -1.2631909 -0.3231372 -0.5771499 -0.92911875 -0.89728135 -0.762892
-0.2808734 -1.451116 -1.3372582 -1.2697986 -1.2416233 -0.76910007 -1.5028055 -0.37516966
-0.8099746 -0.8156491 -1.335648 -1.2598286 -0.509528 -0.52393866 -0.44159228 -0.8884666
-1.0054548 -0.73979414 -0.6249086 -0.4253125 -0.8797701 -0.54066384 -0.5424231 -1.2275964
-0.12319127 -1.4361081 -0.9272626 -1.1844776 -0.49508527 -0.2737874 -0.81555283 -0.52310896
-0.6102407 -1.1031376 -0.7539913 -0.79294497 -0.51021487 -1.126726 -0.92898107 -1.5914052
-1.3153352 -0.45056006 -0.80443484 -1.170626 -0.5078404 -0.7795218 -1.2829809 -0.38431033
-0.46778485 -0.29507628 -0.99227786 -1.1794692 -0.62257767 -1.0439706 -1.0411367 -0.6388896
-0.3915929 -0.7786046 -1.3312473 -0.70160663 -0.93824494 -0.4725201 -0.57438695 -0.3580842
-0.9141029 -0.47201806 -0.46112296 -1.0379744 -0.6001335 -0.44070518 -1.0782536 -0.9631024
-0.6783559 -0.94863164 -0.9484783 0.13285957 -0.29268688 -0.39383483 -0.636375 0.07547573
-0.8042566 -0.27076668 -0.4965517 -1.0028911 -0.6305169 -0.48982194 -0.8511035 -0.5592561
-0.93753916 -1.4369942 -0.28752038 -1.0107849 -0.4744647 -1.098752 -0.42142415 -0.8412472
-0.99561995 -1.887839 -0.7724898 -0.7794505 -0.12305663 -1.0211469 -1.4403784 -0.84221447
-0.7678948 0.07011698 -1.1004698 -0.961499 -0.50929636 -0.82583594 -0.6438906 -0.77588654
-0.7710275 -0.8563806 -0.8547358 -0.009142454 -0.054639257 -0.96703863 -1.1024027 -0.3864055
-0.28127608 -0.7687988 -0.98797303 -0.5078766 -0.8917056 -0.73311174 -0.7806759 -0.6223524
-0.8445439 -1.3567597 -0.9571356 -1.1428823 -1.3179913 -1.1282322 -0.8302021 -1.0819544
-0.66836846 -0.7017256 -0.5529585 -0.18948638 -0.7806464 -0.27181408 0.022858132 -0.9073265
-0.7356818 -0.6721969 -0.39423373 -0.9794502 -0.6194847 -1.1751944 -0.9388765 -1.1305071
-0.43466845 0.52349627 0.17247151 -0.97103107 -1.240842 -0.5847735 -0.8527795 -1.2932153
-1.1600883 -0.63296074 -1.0678374 -0.97479254 -1.1692929 -0.4708659 -0.755537 -1.4793098
-0.7335224 -0.656206 -1.2316962 -0.6487322 -0.39627963 -0.4642057 -0.7745426 -0.717962
-0.5346547 -0.19258358 -1.553476 -0.8721313 -1.1912223 -0.8923986 0.025188753 -0.6109496
-0.5835101 -0.76298726 -0.72744006 -0.6869427 -0.82461387 -0.67427945 -0.94172126 -0.7178537
-0.78762555 -0.4715269 -1.3715545 -1.0165201 -0.38408285 -0.49408138 -1.793694 -0.8816769
-1.1183658 -1.1425143 -0.4126877 -0.6198033 -1.0863967 -0.28175136 -0.982994 -0.81131166
-0.96308064 -0.5801852 -1.2690803 -1.1132308 -0.70106536 -0.077295 -0.6180343 -1.2383157
-0.82554185 -1.0483301 -0.2598507 -1.0288428 -0.551017 -0.5262887 -0.6668154 -1.6752491
-0.39432552 -0.61900204 -1.0457797 -0.6500188 -1.0383804 -0.732249 -0.46131614 -1.3204103
00000000: 6bb8 61bf ef1c 81bf a18d 4ebf 0c03 4bbe
00000010: a791 ffbe fc59 8fbf a534 80bf 4386 bebf
00000020: f338 21bf b69f 72bf 0615 b5be d48e a1be
00000030: 2f15 54be 6001 11bf 7f68 d5bf ab53 eebe
00000040: 2436 c3bf ac6e 36bf 3db0 a1bf 3d72 a5be
00000050: 19c0 13bf bada 6dbf 3bb4 65bf e44c 43bf
00000060: a3ce 8fbe 2bbe b9bf 472b abbf c388 a2bf
00000070: 83ed 9ebf bee3 44bf ee5b c0bf 3d16 c0be
00000080: 7f5a 4fbf 61ce 50bf 83f6 aabf 1042 a1bf
00000090: 6d70 02bf d820 06bf 6218 e2be 8c72 63bf
000000a0: beb2 80bf 2663 3dbf 03fa 1fbf 8fc2 d9be
000000b0: 9d38 61bf f268 0abf 3edc 0abf e121 9dbf
000000c0: b44b fcbd 64d2 b7bf 1561 6dbf f69c 97bf
000000d0: d17b fdbe dd2d 8cbe 12c8 50bf 78ea 05bf
000000e0: bc38 1cbf 9d33 8dbf 9305 41bf 71fe 4abf
000000f0: 719d 02bf 8f38 90bf b4d1 6dbf 2ab3 cbbf
00000100: e75c a8bf cfaf e6be 71ef 4dbf 13d7 95bf
00000110: d401 02bf be8e 47bf b838 a4bf 53c4 c4be
00000120: 7f81 efbe 3d14 97be ec05 7ebf d9f8 96bf
00000130: 4061 1fbf d4a0 85bf f843 85bf 458e 23bf
00000140: dd7e c8be a252 47bf 5066 aabf 7e9c 33bf
00000150: d230 70bf 28ee f1be 060b 13bf d056 b7be
00000160: a602 6abf 5aac f1be 4f18 ecbe 58dc 84bf
00000170: 59a2 19bf 1ca4 e1be 3704 8abf e18d 76bf
00000180: bba8 2dbf 86d9 72bf 79cf 72bf 570c 083e
00000190: 0edb 95be b8a4 c9be 79e9 22bf 0593 9a3d
000001a0: c3e3 4dbf eea1 8abe 063c febe bc5e 80bf
000001b0: 8e69 21bf f1c9 fabe ebe1 59bf 682b 0fbf
000001c0: 9102 70bf 6def b7bf df35 93be 6661 81bf
000001d0: 0aed f2be e8a3 8cbf e8c4 d7be fa5b 57bf
000001e0: f3e0 7ebf b5a4 f1bf e4c1 45bf 118a 47bf
000001f0: 1d05 fcbd f1b4 82bf 525e b8bf 5e9b 57bf
00000200: c194 44bf 7e99 8f3d 32dc 8cbf cc24 76bf
00000210: 3f61 02bf fc69 53bf 04d6 24bf 80a0 46bf
00000220: 0f62 45bf c23b 5bbf f7cf 5abf 3bca 15bc
00000230: 6acd 5fbd d88f 77bf 881b 8dbf f1d6 c5be
00000240: 6b03 90be 00d0 44bf cdeb 7cbf 3304 02bf
00000250: d146 64bf 36ad 3bbf 60da 47bf 7d52 1fbf
00000260: 0734 58bf 4daa adbf d706 75bf f849 92bf
00000270: f0b3 a8bf ea69 90bf 2088 54bf 7b7d 8abf
00000280: 321a 2bbf 4aa4 33bf b08e 0dbf b808 42be
00000290: 71d8 47bf 372b 8bbe fa40 bb3c 8d46 68bf
000002a0: a455 3cbf 1915 2cbf 01d9 c9be 40bd 7abf
000002b0: 8d96 1ebf c56c 96bf 365a 70bf 75b4 90bf
000002c0: dd8c debe da03 063f 5f9c 303e 7e95 78bf
000002d0: e9d3 9ebf b7b3 15bf c24f 5abf 1488 a5bf
000002e0: c67d 94bf b709 22bf e5ae 88bf 018c 79bf
000002f0: 64ab 95bf 5615 f1be df6a 41bf 065a bdbf
00000300: 20c8 3bbf 1efd 27bf 39a8 9dbf 5013 26bf
00000310: 2ae5 cabe 5fac edbe 6d48 46bf 5ccc 37bf
00000320: 21df 08bf a134 45be 4dd8 c6bf ff43 5fbf
00000330: f979 98bf 3c74 64bf a558 ce3c 3167 1cbf
00000340: eb60 15bf 2253 43bf 8339 3abf 7adb 2fbf
00000350: e519 53bf 949d 2cbf a514 71bf 43c5 37bf
00000360: d4a1 49bf f96b f1be 198f afbf 551d 82bf
00000370: 82a6 c4be 3cf8 fcbe c497 e5bf 94b5 61bf
00000380: 9c26 8fbf e93d 92bf cd4b d3be 6eab 1ebf
00000390: 0c0f 8bbf b741 90be 7fa5 7bbf 1fb2 4fbf
000003a0: 748c 76bf 0487 14bf 3971 a2bf 597e 8ebf
000003b0: 0579 33bf d74c 9ebd 7f37 1ebf 2181 9ebf
000003c0: b656 53bf ae2f 86bf 270b 85be 1fb1 83bf
000003d0: 730f 0dbf dbba 06bf 6ab4 2abf 906e d6bf
000003e0: 09e5 c9be eb76 1ebf 1cdc 85bf a267 26bf
000003f0: a6e9 84bf ac74 3bbf a131 ecbe 3403 a9bf

fc3.weight f4 [128, 256]
0.14086111 -0.008646173 0.20473118 0.37752154 0.23459204 0.38013682 0.009946062 0.21004102
-0.09862471 0.26390958 0.17805058 0.2918979 0.0747949 -0.115307964 0.041474372 0.13121404
0.06982913 -0.016836692 0.04419032 -0.067939624 0.14183053 0.22410409 0.3158273 -0.17750739
0.2465902 0.11710462 0.40252766 0.046786055 0.01995347 -0.023074329 0.1486863 0.316054
0.10843958 0.061171748 0.20920007 0.13348202 -0.17180955 0.06558896 0.111273535 0.13857475
0.07431895 0.1780563 0.19650333 -0.131937 0.03828462 -0.021648508 0.054540515 0.13513382
0.2424233 0.2833695 0.15176862 0.11698118 0.1911573 -0.03296178 0.3420536 0.13042246
0.025885776 0.19166857 0.14664881 0.14050171 0.025073884 0.07490025 0.13681735 0.14916793
0.15409201 -0.10523009 0.17657012 0.23711936 0.36417255 0.03155948 -0.09378183 0.10095014
0.2646858 -0.0029292863 0.11651458 -0.16951524 0.30359337 0.15567388 0.029930945 0.16223924
0.43083003 0.24226747 0.17496735 -0.056495804 0.02000142 0.105539456 0.07510199 0.020696253
0.14668638 -0.054137036 0.16090839 0.10341132 0.05963904 0.028824668 -0.13651049 0.062176373
0.22377646 -0.2820179 0.14269352 0.19446532 0.31935644 0.023476992 -0.01010243 -0.15684664
0.28470966 0.17560819 0.16739003 0.2579721 0.06776995 0.3593359 -0.004219172 0.033296313
0.055978704 -0.20652276 0.2437812 0.05764277 -0.060478732 0.13761257 0.09628946 0.06101607
0.090258606 0.13247347 -0.073912196 0.21256927 -0.08859306 0.3879265 0.21770328 0.17425773
0.1484946 -0.25497088 0.091850415 -0.10395174 0.31658742 0.004172165 0.32614827 -0.08579448
0.04544715 0.18245012 -0.028433347 0.10593854 -0.14237006 0.12814742 -0.021974709 0.03411023
0.09696623 0.15594791 -0.08575248 0.3357163 -0.00081337703 -0.068083555 0.33727333 0.35677576
0.3072049 0.13338566 0.3189225 0.096573114 0.0002931765 0.68233913 0.15911579 0.16809618
0.017938416 0.024691317 0.045483314 -0.033007137 0.29226094 0.14091364 0.09468739 0.23436843
0.13193068 0.300073 0.28811967 0.22242637 0.11946325 -0.038436223 -0.0861578 0.21686266
0.31678373 0.2362852 -0.028697591 0.13967106 0.05850231 0.18168907 0.025973976 0.21898155
0.110627554 0.34902975 0.17810291 0.23336652 0.075925685 0.023967292 0.3352273 0.12511915
0.2182008 0.20554605 0.12151534 0.23963381 0.14404191 0.029356312 -0.09574065 0.14575872
0.211526 -0.12986091 0.24393718 0.24914761 0.0882627 -0.016637154 0.37411648 0.10102841
0.002825919 -0.04904876 -0.07536345 0.32821605 0.18203257 0.23787865 -0.19859657 0.038095325
0.017268214 0.20588097 0.046021286 0.0047569238 -0.16426145 0.29622746 0.064313255 0.01661361
0.16747327 -0.114105925 0.19564985 -0.04584295 -0.25087395 -0.17280993 0.40221682 0.335101
0.14083052 0.0005277986 0.17407171 -0.0018880035 0.022050248 0.029154494 0.16535655 0.16294274
0.058807652 0.21789223 0.31433213 0.15012237 -0.01530179 -0.08157802 -0.11108392 -0.16962898
0.13034001 0.23424698 0.0895571 0.03617935 0.067992486 0.08305043 0.09625765 -0.071826145
00000000: e53d 103e aea8 0dbc 0da5 513e 814a c13e
00000010: e538 703e 4ba1 c23e cff4 223c fe14 573e
00000020: c1fb c9bd 281f 873e e452 363e a473 953e
00000030: 122e 993d 9526 ecbd 08e1 293d f95c 063e
00000040: 9302 8f3d 1aed 89bc e900 353d ee23 8bbd
00000050: 063c 113e 8b7b 653e 1eb4 a13e 7fc4 35be
00000060: 2482 7c3e 8cd4 ef3d 1b18 ce3e bca2 3f3d
00000070: 7675 a33c 6006 bdbc 3941 183e d4d1 a13e
00000080: 9215 de3d 3a8f 7a3d 8b38 563e 83af 083e
00000090: d8ee 2fbe 8153 863d 61e3 e33d 8ae6 0d3e
000000a0: 8934 983d 6454 363e 2b38 493e 7e1a 07be
000000b0: 55d0 1c3d 3658 b1bc e065 5f3d 8560 0a3e
000000c0: d03d 783e cf15 913e 3c69 1b3e d493 ef3d
000000d0: bdbe 433e ee02 07bd a621 af3e 778d 053e
000000e0: 680e d43c c444 443e 1b2b 163e aedf 0f3e
000000f0: bf67 cd3c 4d65 993d d919 0c3e 7abf 183e
00000100: 4cca 1d3e e082 d7bd ccce 343e 6bcf 723e
00000110: d374 ba3e 8344 013d b010 c0bd f2be ce3d
00000120: e684 873e 45f9 3fbb 329f ee3d 6795 2dbe
00000130: 9770 9b3e f968 1f3e be31 f53c 0b22 263e
00000140: c195 dc3e f714 783e a42a 333e 2568 67bd
00000150: 05da a33c 1225 d83d 12cf 993d 308b a93c
00000160: f434 163e ccbe 5dbd 2bc5 243e 50c9 d33d
00000170: 1148 743d b621 ec3c 68c9 0bbe a7ac 7e3d
00000180: a825 653e a664 90be 401e 123e eb21 473e
00000190: b082 a33e d252 c03c aa84 25bc 689c 20be
000001a0: 77c5 913e a2d2 333e 4b68 2b3e eb14 843e
000001b0: f9ca 8a3d e0fa b73e fb40 8abb b761 083d
000001c0: ed49 653d b47a 53be c7a1 793e d31a 6c3d
000001d0: 8cb8 77bd 4fea 0c3e 6933 c53d fdeb 793d
000001e0: 81d9 b83d 20a7 073e 475f 97bd c2ab 593e
000001f0: 4770 b5bd 4d9e c63e 9ced 5e3e 9e70 323e
00000200: f80e 183e 8b8b 82be 121c bc3d a6e4 d4bd
00000210: bf17 a23e a8b6 883b e8fc a63e 04b5 afbd
00000220: ca26 3a3d 34d4 3a3e 0ded e8bc 4ef6 d83d
00000230: 75c9 11be 1439 033e 4e04 b4bc 2bb7 0b3d
00000240: 3b96 c63d cfb0 1f3e ff9e afbd 02e3 ab3e
00000250: cf38 55ba 646f 8bbd 17af ac3e 50ab b63e
00000260: f649 9d3e 4096 083e cf49 a33e 20c8 c53d
00000270: 7cb5 9939 c7ad 2e3f 40ef 223e 6821 2c3e
00000280: 96f3 923c 7245 ca3c b64c 3a3d 7e32 07bd
00000290: 3aa3 953e aa4b 103e 76eb c13d 47fe 6f3e
000002a0: d618 073e 2ba3 993e 6c84 933e bdc3 633e
000002b0: 26a9 f43d 4d6f 1dbd 8073 b0bd 3f11 5e3e
000002c0: 7a31 a23e bff4 713e 3617 ebbc ee05 0f3e
000002d0: 1ea0 6f3d b30c 3a3e 60c7 d43c b33c 603e
000002e0: b390 e23d 07b4 b23e 9c60 363e a2f7 6e3e
000002f0: ed7e 9b3d 0e57 c43c eaa2 ab3e 3c1f 003e
00000300: 0870 5f3e aa7a 523e 09dd f83d 9162 753e
00000310: b97f 133e a67c f03c ad13 c4bd c641 153e
00000320: 469a 583e 42fa 04be abca 793e 8d20 7f3e
00000330: 13c3 b43d a44a 88bc 328c bf3e fce7 ce3d
00000340: 0e33 393b 5ae7 48bd 2758 9abd ef0b a83e
00000350: bf66 3a3e 7696 733e e65c 4bbe d809 1c3d
00000360: 1276 8d3c 76d2 523e d180 3c3d f8df 9b3b
00000370: 2734 28be 20ab 973e abb6 833d 4419 883c
00000380: 1d7e 2b3e 5eb0 e9bd 6f58 483e d1c5 3bbd
00000390: 8d72 80be 16f5 30be 5def cd3e 5c92 ab3e
000003a0: e035 103e f75b 0a3a db3f 323e e376 f7ba
000003b0: b9a2 b43c 68d5 ee3c 3a53 293e 76da 263e
000003c0: 4be0 703d 241f 5f3e 24f0 a03e aeb9 193e
000003d0: 5cb4 7abc 6012 a7bd f77f e3bd 38b3 2dbe
000003e0: da77 053e 71de 6f3e b669 b73d cc30 143d
000003f0: a53f 8b3d 5816 aa3d bb22 c53d 9619 93bd

fc3.bias f4 [128]
-0.20819339 -0.5447654 -0.4321913 -0.37096235 -0.6783484 -0.16352004 -0.21125098 -1.3467222
-0.2354797 -0.31014532 -0.13950743 -0.31363225 -0.043864723 -0.009685694 -0.86977196 -0.17234123
-0.41771016 -0.25912985 -0.21877006 -0.07842766 -0.7866719 -1.1342704 -0.15293543 -1.0445341
-0.22261043 -0.3047108 -0.1789954 -0.27870536 -0.2522694 -0.3525113 -0.31962538 -0.18692571
-0.17387049 -0.02316081 -0.0048869345 -0.15260106 -0.042794675 -0.23528856 -0.123256214 0.07229309
-0.090680346 -0.07121836 -0.30839515 0.42476755 -0.47358418 -0.20766708 -0.3739183 -0.2028009
-0.28817636 -0.09767007 -0.04764935 -0.06921015 -0.23988189 -0.12562115 -0.18273447 -0.40760154
-0.27112228 -0.18176915 -1.24436 -0.029547105 -0.4148311 -1.2526393 -0.33854276 0.057983525
-0.39053315 -0.24255754 -0.29912066 -0.272691 0.3671603 -0.1211386 -0.35221168 -0.36791334
-0.29156554 -0.23700635 -1.0673815 -0.29550406 -0.058086712 -0.27696148 -0.1507991 -0.00421179
-0.23916852 -0.05857025 -0.26584095 -0.24470158 -0.12127267 -0.46253636 -0.23571858 -0.14656736
-0.38570306 -0.20986989 -0.2770454 -0.20763083 -0.36091992 -0.58166325 -0.28658962 -0.56761116
-0.17335506 -0.20147893 -1.0960357 -0.36391103 -0.13653567 0.03347221 -0.105146974 -0.5179693
-0.14278409 -0.4344232 -0.36418742 -1.3435423 -0.23635072 -0.26695082 0.01974069 -0.17760526
-0.36578843 0.64290065 -0.06754155 -0.32209468 -0.44913507 -0.38804334 -0.25318804 -0.25065103
-0.034892656 -0.36421257 -0.28974003 -0.33731785 -0.3409572 -0.40693313 -0.17452307 -0.31161934
00000000: a630 55be bf75 0bbf 2e48 ddbe c7ee bdbe
00000010: 3ea8 2dbf cc71 27be 2d52 58be 6561 acbf
00000020: 9721 71be 5ecb 9ebe 09db 0ebe 6894 a0be
00000030: 7fab 33bd bfb0 1ebc 60a9 5ebf 387a 30be
00000040: 1bde d5be abac 84be 4205 60be ae9e a0bd
00000050: 5463 49bf c62f 91bf 1b9b 1cbe 4bb3 85bf
00000060: fdf3 63be 0e03 9cbe 924a 37be 78b2 8ebe
00000070: 7429 81be 5c7c b4be f0a5 a3be 7469 3fbe
00000080: 1b0b 32be bdbb bdbc 9422 a0bb 7443 1cbe
00000090: 7849 2fbd 7cef 70be c16d fcbd 660e 943d
000000a0: 9eb6 b9bd eeda 91bd f8e5 9dbe 227b d93e
000000b0: a079 f2be aea6 54be 3872 bfbe 0aab 4fbe
000000c0: da8b 93be 3f07 c8bd f72b 43bd 0dbe 8dbd
000000d0: 99a3 75be d5a2 00be bf1e 3bbe 26b1 d0be
000000e0: 8ad0 8abe b121 3abe 3047 9fbf c50c f2bc
000000f0: be64 d4be 7c56 a0bf 7a55 adbe 2280 6d3d
00000100: f6f3 c7be 0161 78be 5826 99be 289e 8bbe
00000110: 6ffc bb3e 8417 f8bd 1755 b4be 235f bcbe
00000120: 1448 95be cbb1 72be f59f 88bf 4f4c 97be
00000130: 55ec 6dbd e5cd 8dbe 146b 1abe 0e03 8abb
00000140: 98e8 74be 5ce7 6fbd 4e1c 88be 0d93 7abe
00000150: ce5d f8bd 91d1 ecbe 3660 71be c115 16be
00000160: df7a c5be 22e8 56be e5d8 8dbe 2d9d 54be
00000170: 7fca b8be e2e7 14bf e0bb 92be f74e 11bf
00000180: fd83 31be 7e50 4ebe e64a 8cbf 8c52 babe
00000190: 02d0 0bbe 281a 093d 4c57 d7bd a399 04bf
000001a0: fe35 12be b86c debe c676 babe 32f9 abbf
000001b0: ec05 72be c7ad 88be 3ab7 a13c 27de 35be
000001c0: 9f48 bbbe 2395 243f 3953 8abd 98e9 a4be
000001d0: 08f5 e5be 9ead c6be dda1 81be 5555 80be
000001e0: 9aeb 0ebd 127a babe ce58 94be edb4 acbe
000001f0: f191 aebe 8a59 d0be 2db6 32be 928c 9fbe

fc4.weight f4 [1, 128]
-0.0010879862 -0.03506749 -0.0019458069 -0.0012777838 9.434296e-05 -0.0030520714 -0.005333594 -0.009143182
-0.0036027194 -0.007021652 -0.011874111 0.0070212875 -0.00092892424 0.0022537643 0.20720713 -0.0019737822
0.014849625 -0.0019819683 0.001168445 -0.0071603735 0.0757842 -0.07081751 -0.00043665763 0.08706531
0.0015503186 -0.010168363 -0.0018809268 0.00045987923 -0.0011990052 0.008498021 0.0022972964 0.0008870562
-0.0031144505 -0.0016554877 0.0055183824 -0.00078743347 -0.009144995 -0.0112067545 0.0007321421 2.3951176e-05
-0.00013793296 0.0032992554 0.0016901997 0.0107192695 -0.0036457907 0.0011896377 -0.0025850078 0.00028063334
0.003860748 -0.00045432328 0.0040219137 0.0046721906 0.028169407 0.0015987761 0.0016189967 0.0054945727
-0.003019698 0.005153145 -0.1376682 -0.00028245623 -0.0008785585 0.21605271 0.001831896 -0.0014694602
0.0068226755 -0.017065274 0.007113719 0.014451441 0.023934241 0.002198129 -0.021104295 0.006896682
-0.05885738 0.006441903 0.24911696 0.0055536474 0.011302422 -0.004129565 0.0022959013 -0.0022523433
-0.003518321 -0.0013489347 0.0043128286 0.0005285137 -0.015673283 0.0200027 0.0047484646 0.0078990655
0.008405915 -0.024236958 0.002649173 -0.0022291075 0.011369256 0.012771411 0.008784304 0.003309542
0.009066558 0.003241716 -0.04883857 0.007064513 -0.004554254 -0.00086780614 0.010016131 -0.00184038
0.022321926 0.0046878993 0.0059145903 -0.15166797 -0.0050598276 0.0057743886 0.010568525 0.0047975066
0.0015645073 0.05730875 0.002793173 0.013147283 0.0069238176 -0.016612798 -0.009038361 -0.00096676755
0.0059594912 0.04166491 -0.0006779218 0.008986152 -0.025466816 0.018242966 0.0014386 0.018531514
00000000: c29a 8eba eea2 0fbd 720a ffba 4f7b a7ba
00000010: fed9 c538 4305 48bb 6ec5 aebb 49cd 15bc
00000020: 9a1b 6cbb e315 e6bb a28b 42bc d412 e63b
00000030: 0d83 73ba e4b3 133b 1b2e 543e 925a 01bb
00000040: d74b 733c e9e3 01bb 8226 993a 91a1 eabb
00000050: bf34 9b3d c508 91bd 32ef e4b9 4c4f b23d
00000060: 0f34 cb3a 3599 26bc 6e89 f6ba f21b f139
00000070: f027 9dba 493b 0b3c 3d8e 163b 5589 683a
00000080: cf1b 4cbb f3fc d8ba 8cd3 b43b c46b 4eba
00000090: e4d4 15bc 899c 37bc 3aed 3f3a c2ea c837
000000a0: 19a2 10b9 5238 583b b189 dd3a e09f 2f3c
000000b0: 38ee 6ebb 9eed 9b3a 3c69 29bb f821 9339
000000c0: 9a04 7d3b 3d32 eeb9 42ca 833b 2d19 993b
000000d0: 87c3 e63c 068e d13a 8434 d43a d10b b43b
000000e0: 20e6 45bb b7db a83b e5f8 0cbe a216 94b9
000000f0: 104f 66ba ec3c 5d3e 3b1c f03a e79a c0ba
00000100: c090 df3b 79cc 8bbc 331a e93b bdc5 6c3c
00000110: be11 c43c 7c0e 103b eae2 acbc 90fd e13b
00000120: 7014 71bd 9916 d33b 8418 7f3e 5ffb b53b
00000130: cb2d 393c 4d51 87bb d576 163b 0d9c 13bb
00000140: a293 66bb bdce b0ba a152 8d3b f48b 0a3a
00000150: 4265 80bc b4dc a33c 0299 9b3b 156b 013c
00000160: f7b8 093c 968c c6bc bf9d 2d3b 3816 12bb
00000170: 1e46 3a3c 2e3f 513c 0bec 0f3c e7e4 583b
00000180: e78b 143c f872 543b f40a 48bd 6e7d e73b
00000190: da3b 95bb 7c7d 63ba b31a 243c e838 f1ba
000001a0: 79dc b63c f39c 993b 2ecf c13b d94e 1bbe
000001b0: e9cc a5bb 1537 bd3b 9b27 2d3c 6734 9d3b
000001c0: 2710 cd3a 94bc 6a3d ab0d 373b b467 573c
000001d0: 31e1 e23b 9017 88bc a215 14bc ac6e 7dba
000001e0: d647 c33b d3a8 2a3d 90b6 31ba a73a 133c
000001f0: c99f d0bc 4672 953c 688f bc3a 67cf 973c
