p3_collab-compet/checkpoint_critic_1.pth (torch_old, 450860 bytes, 7 tensors)

fcs1.weight f4 [256, 48]
0	0xbfb71327	-1.430272
1	0xbf7aa103	-0.97901934
2	0xbe7a101e	-0.2442021
3	0xbe4c5ba0	-0.19956827
4	0xbf738457	-0.9512381
5	0x3fc937d1	1.5720159
6	0xbe56f84e	-0.20993158
7	0xbe8d7d92	-0.27634865
8	0xbf85ee3a	-1.0463326
9	0xbedfdab5	-0.43721548
10	0xbec99996	-0.3937499
11	0xbee01e7d	-0.4377326
12	0xbf10e4ee	-0.5659932
13	0x3e072d98	0.13200986
14	0xbeb3f0fe	-0.351448
15	0xbf05da0d	-0.52285844
16	0xbf1df282	-0.6169816
17	0xbe2032f7	-0.15644442
18	0x3f006923	0.50160426
19	0xbf488be3	-0.7833845
20	0x3f3b0ec3	0.730694
21	0xbfe0bd39	-1.7557746
22	0x3f0e8c7b	0.55683106
23	0xbf4342be	-0.76273715
24	0xbf9e0d3d	-1.234779
25	0x3e570117	0.2099651
26	0x3e3755db	0.17903845
27	0xbebf137c	-0.37319553
28	0x3f74b529	0.9558893
29	0x3fcff290	1.6245899
30	0x3e861cea	0.26193935
31	0xbeb9a84d	-0.36261216
32	0xbf1382db	-0.57621545
33	0x3f83dc2f	1.030157
34	0x3ebaee98	0.36510158
35	0xbf045494	-0.51691556
36	0x3ec4ca52	0.38435608
37	0x3d8bfff7	0.06835931
38	0x3ece11ce	0.4024796
39	0xbf07b23a	-0.5300633
40	0x3d49489f	0.049141522
41	0x3f4258f6	0.75916994
42	0x3ea9e264	0.33180535
43	0xbf950ed2	-1.1645148
44	0xbfe412cd	-1.7818238
45	0xbfee96de	-1.8639791
46	0x3eca91eb	0.39564452
47	0xbf95ea0b	-1.1712049
48	0xbf712eb5	-0.94211894
49	0x3e5a18f3	0.2129858
50	0xbfc107e8	-1.5080538
51	0x3d300305	0.04297163
52	0xbf9c06ba	-1.2189553
53	0x3dc1f35f	0.094702475
54	0xbfb54ce6	-1.4164093
55	0x3d38cf8b	0.045119803
56	0xbfb0fd09	-1.382722
57	0x3dfaab2d	0.122396804
58	0x3ef84af8	0.48494697
59	0xbf3c7515	-0.73616153
60	0xbf70a6ef	-0.9400472
61	0xbf1514ed	-0.58235055
62	0x3ee94014	0.455567
63	0xbf47d279	-0.7805553
64	0xc0163456	-2.3469443
65	0xbd1313da	-0.035907604
66	0xbdf20b15	-0.1181852
67	0xbf1a75fd	-0.60336286
68	0xbf3312f5	-0.699508
69	0xbf92729b	-1.1441225
70	0xbe29c55c	-0.16579193
71	0xbf14e958	-0.58168554
72	0x3ebb69c9	0.36604145
73	0x3f83ea59	1.0305892
74	0xbf3d645c	-0.7398126
75	0xbd4bf09a	-0.049790002
76	0x3f59bdbb	0.8505513
77	0x3dfafa1d	0.122547366
78	0xbf429a81	-0.76017004
79	0xbdd61509	-0.10453231
80	0x3cae122a	0.021248896
81	0x3f8cc2bf	1.0996932
82	0xbf0f31c9	-0.5593534
83	0xbed554e0	-0.41666317
84	0x3f6c26b7	0.92246574
85	0xbf2778d0	-0.6541872
86	0xbf13042b	-0.57428235
87	0xbedcf701	-0.431572
88	0xc04ade6e	-3.169826
89	0x3f6fd547	0.9368481
90	0xbfeb2af2	-1.8372481
91	0xbedb40ba	-0.4282282
92	0x3f26ab9b	0.651056
93	0xbf8f0e40	-1.1176224
94	0xbfec7442	-1.8472979
95	0xbf02ce51	-0.51096064
96	0xbf83d449	-1.0299159
97	0xbf048723	-0.517687
98	0x3d2a43b6	0.04156848
99	0x3e23465e	0.15944812
100	0xbf24f671	-0.6443854
101	0x3fad524d	1.3540741
102	0xbb283e81	-0.002567202
103	0x3e3cdf36	0.18444523
104	0xbf18c9c6	-0.5968288
105	0x3d423c1e	0.047420613
106	0x3cd238f2	0.02566192
107	0xbe8ee913	-0.27912197
108	0xbef0f12b	-0.47058997
109	0x3e762a5a	0.24039593
110	0xbd1b7950	-0.03795749
111	0xbe7bbe39	-0.24584283
112	0x3bf694c2	0.0075250575
113	0x3ed13c8d	0.4086651
114	0x3e6e3fea	0.23266569
115	0xbecb7063	-0.39734182
116	0xbcd10b66	-0.02551813
117	0xbfe35a7a	-1.7761986
118	0x3e824f43	0.25451097
119	0xbed6b86b	-0.41937575
120	0xbf09968f	-0.5374536
121	0x3e55fc7d	0.20897098
122	0xbdfb9930	-0.122850776
123	0xbda64680	-0.081189156
124	0x3d28bc5a	0.04119525
125	0x3fb1609c	1.3857608
126	0xbdc0ec95	-0.094201244
127	0xbd90d309	-0.07071502
128	0xbe93de4d	-0.2888054
129	0x3f896bfc	1.0736079
130	0xbe88d018	-0.26721263
131	0xbe9a10f7	-0.30091068
132	0x3d52f5ed	0.051504064
133	0x3e68e942	0.22745231
134	0xbe5eea83	-0.21769147
135	0xbeb9942b	-0.36245856
136	0x3d376f5a	0.044783928
137	0x3f7559bb	0.9584004
138	0x3e812078	0.25220084
139	0xbf7f0229	-0.9961267
140	0xbf6c7879	-0.92371327
141	0xbfe73534	-1.8063111
142	0x3e8c2f82	0.27379996
143	0xbf661916	-0.8988203
144	0xbd16af02	-0.036787994
145	0xbedea2ce	-0.43483585
146	0x3e3fac8b	0.18718164
147	0xbed3ec97	-0.4139144
148	0xbfa6aed4	-1.3022103
149	0x3f9592c5	1.1685416
150	0x3e6a7853	0.22897463
151	0xbf030c63	-0.51190776
152	0x3ee21d62	0.44163042
153	0x3e162235	0.14661486
154	0x3e8eaceb	0.278663
155	0xbf3c0825	-0.7344993
156	0xbf6cc5df	-0.9248943
157	0x3c1b882d	0.009492916
158	0x3e54c71a	0.20779076
159	0xbf281cd8	-0.6566901
160	0x3f6f9a50	0.9359484
161	0x3f373fe1	0.71581846
162	0x3df8c0b9	0.12146134
163	0xbf4d7ad5	-0.8026555
164	0x3e18efb8	0.14935195
165	0xc01d8d04	-2.461732
166	0x3e37b510	0.17940164
167	0xbf5c42c4	-0.86039376
168	0xbf3b07a0	-0.7305851
169	0xbf2334a5	-0.63752204
170	0xbefbc6f3	-0.49175224
171	0x3d50ba75	0.05095907
172	0x3ed353a3	0.41274747
173	0x3f9ca1db	1.2236894
174	0xbef85810	-0.48504686
175	0x3ddd9ce9	0.10820944
176	0xbe9813c9	-0.29702595
177	0x3e603ad4	0.21897441
178	0xbd7d490c	-0.06183724
179	0xbe51c4ce	-0.20485231
180	0xbe4c2580	-0.1993618
181	0xbbea6bec	-0.0071539786
182	0xbd2d86d7	-0.04236492
183	0xbe80163d	-0.25016966
184	0x3ee30735	0.44341436
185	0x3e5216c0	0.20516491
186	0x3df7b83d	0.120956875
187	0xbf90f746	-1.1325462
188	0xbffb80e4	-1.9648709
189	0xc019f677	-2.405668
190	0x3db48a99	0.08815498
191	0xbf9d3733	-1.228247
192	0xbdbdd683	-0.092694305
193	0x3f978e40	1.1840286
194	0xbf054c9f	-0.5207004
195	0xc0065388	-2.0988483
196	0x3f230320	0.63676643
197	0xbeffcc93	-0.49960765
198	0xbef44350	-0.47707605
199	0xc00a7998	-2.1636715
200	0xbe85bd4c	-0.26120985
201	0x3c5d2de1	0.013499708
202	0xbd12485c	-0.03571354
203	0xbf3ccb92	-0.73748124
204	0x3f753516	0.9578413
205	0xbf631004	-0.8869631
206	0xbe1dc09f	-0.1540551
207	0xbf3aa8a5	-0.7291358
208	0xbe967942	-0.29389387
209	0xbeaf2dd0	-0.3421464
210	0xbea92fcd	-0.33044282
211	0xbed762c5	-0.42067543
212	0x3f9f919c	1.2466311
213	0xbf35b552	-0.709798
214	0xbea3f14b	-0.3202003
215	0xbed9581a	-0.4245003
216	0xbffb70b3	-1.9643768
217	0xbf9b0965	-1.2112242
218	0x3ecea0c6	0.40357035
219	0x3f09d3a1	0.53838545
220	0xbf71c030	-0.9443388
221	0xbf050584	-0.5196154
222	0x3ec2a904	0.38019574
223	0x3ef58dd0	0.47959757
224	0xbfde811d	-1.7383152
225	0xbf74a9ad	-0.95571405
226	0x3e56ea87	0.20987903
227	0x3f3dcd40	0.7414131
228	0xbffaf76c	-1.9606757
229	0xbf51e12d	-0.81984216
230	0x3e84fe7d	0.2597541
231	0x3f48027d	0.78128797
232	0xc00f2f73	-2.237271
233	0xbf13c705	-0.57725555
234	0xbdcf9c71	-0.10137261
235	0x3ed93c9d	0.42429057
236	0xc03ee5a9	-2.9827673
237	0xbf258898	-0.6466155
238	0xbe2cc263	-0.16871028
239	0x3efe364f	0.4965081
240	0xbf612303	-0.8794405
241	0xbf6212bb	-0.8830983
242	0x3e8401c9	0.25782612
243	0xbf16062b	-0.5860316
244	0xbf8afc9f	-1.0858344
245	0x3faabe65	1.3339354
246	0x3ea4b84c	0.32171857
247	0xbf1a2d4b	-0.6022536
248	0xbdc999f4	-0.09843817
249	0xbda3193f	-0.079638
250	0xbd6236a2	-0.055227883
251	0xbf0dff59	-0.55467755
252	0xbf46943c	-0.7756994
253	0xbe143894	-0.14474708
254	0xbddb3390	-0.10703194
255	0xbf1ebd4c	-0.62007594

fcs1.bias f4 [256]
0	0xbf20079e	-0.6251162
1	0xbd447aa5	-0.047968525
2	0xbf568764	-0.8380034
3	0xbf823d36	-1.017493
4	0x3e879e4e	0.26487964
5	0xbf92e84b	-1.147714
6	0xbf99ead6	-1.2024791
7	0x3ef60fcd	0.4805893
8	0xbeab39fe	-0.33442682
9	0xbf509062	-0.8147031
10	0xbf21b3df	-0.63165087
11	0xbf8c793f	-1.0974501
12	0xbfc157ee	-1.5104959
13	0xbfa45dad	-1.2841088
14	0xbf0a9f78	-0.5414958
15	0xbf0e63c4	-0.5562098
16	0xbf914611	-1.1349508
17	0xbf498e74	-0.7873299
18	0xbf60d56a	-0.87825644
19	0xbf919c91	-1.1375905
20	0xbf77f1f7	-0.96853584
21	0xbed58445	-0.41702476
22	0xbed592a1	-0.4171343
23	0xbefab6a9	-0.48967484
24	0xbeafc806	-0.34332293
25	0xbf02da64	-0.5111449
26	0xbecca4ee	-0.3996958
27	0x3f8caf84	1.0991063
28	0xbf28b5af	-0.6590223
29	0xbf4c5975	-0.79824
30	0xbf7ce580	-0.9878769
31	0x3eea089c	0.45709693
32	0xbf1c4547	-0.6104321
33	0xbf3169de	-0.69302166
34	0xbf4a8d1f	-0.79121584
35	0xbf2ebda7	-0.68258137
36	0xbf14dd5c	-0.5815027
37	0xbecff497	-0.40616295
38	0xbf8368da	-1.0266373
39	0xbfaa6c7f	-1.331436
40	0xbfe4217c	-1.7822719
41	0xbfb5514b	-1.4165434
42	0xbf107c81	-0.5643998
43	0xbf28edad	-0.65987664
44	0xbf35e96a	-0.71059287
45	0xbf696b22	-0.91179097
46	0xbf334322	-0.7002431
47	0xbf7b4315	-0.98149234
48	0xbf715b44	-0.94279885
49	0xbf17c3ac	-0.59282947
50	0xbf26e834	-0.65198064
51	0xbff5ebc8	-1.921258
52	0xbf2a1df5	-0.6645196
53	0xbf9069cd	-1.1282288
54	0xbf9bcaba	-1.2171242
55	0xbf8a6dde	-1.0814779
56	0xbf10f171	-0.5661841
57	0x3fbbaa99	1.4661437
58	0xbf3bd448	-0.7337079
59	0xbf2727f2	-0.65295327
60	0xbf85a755	-1.0441691
61	0xbf7af6cd	-0.9803284
62	0xbe9b8065	-0.30371395
63	0xbf35baf7	-0.7098841
64	0xbf6f03f8	-0.9336543
65	0xbfb986d4	-1.4494271
66	0xbfb06545	-1.3780905
67	0xbfa46b4c	-1.2845244
68	0xbf7f58c5	-0.99744827
69	0xbf1ecce7	-0.62031406
70	0xbf2d2a56	-0.67642725
71	0xbf73398f	-0.950097
72	0xbf5352c3	-0.8254816
73	0x3ea6e12e	0.32593673
74	0xbfadb661	-1.3571283
75	0xbfcb45b6	-1.5880649
76	0x3e863f22	0.26220042
77	0xbf27bfab	-0.6552684
78	0xbf0f5628	-0.5599084
79	0x3e82e651	0.25566342
80	0xbfae7aad	-1.3631188
81	0xbfa5dc2a	-1.2957814
82	0xbf41c275	-0.7568734
83	0xbfc31fa3	-1.524403
84	0xbf8e4407	-1.111451
85	0xbed49e8f	-0.4152722
86	0xbf250503	-0.6446077
87	0x3ee3c9ac	0.444898
88	0x3ed1b1fc	0.40956104
89	0xbed552d4	-0.41664755
90	0xbf7deea1	-0.99192244
91	0xbf9045ad	-1.1271263
92	0xbe29ac4f	-0.16569637
93	0xbf6d11b7	-0.92605156
94	0xbf99ac5b	-1.2005724
95	0xbf5377e2	-0.826048
96	0xbfa20dff	-1.2660521
97	0x3e26ea1e	0.16300246
98	0xbf5f7b52	-0.87297547
99	0xbee2968e	-0.4425549
100	0xbf7d8a1b	-0.9903886
101	0xbf88464a	-1.064645
102	0xbf9f9814	-1.2468286
103	0xbf3f02d7	-0.7461371
104	0xbfcf2f32	-1.6186278
105	0xbf5615f9	-0.8362728
106	0xbf83ae20	-1.0287514
107	0x3f3d40e5	0.73927146
108	0xbf196a55	-0.59927875
109	0xbf007b4c	-0.50188136
110	0xbf5a8b08	-0.85368395
111	0xbfaa724e	-1.3316133
112	0xbf17c914	-0.59291196
113	0xbef79cf1	-0.48361924
114	0x3f7d5852	0.9896289
115	0xbe2d7fdd	-0.16943307
116	0x3eb5c93d	0.35505095
117	0x3fa888df	1.316677
118	0xbe9c43d5	-0.30520502
119	0xbf6bc338	-0.92094755
120	0xbfa16a77	-1.2610615
121	0xbf413ed6	-0.75486505
122	0xbf693533	-0.910968
123	0xbf9164b6	-1.135886
124	0xbf748a4d	-0.9552353
125	0xbef47ff1	-0.47753862
126	0xbe8f4e1f	-0.2798929
127	0xbe449a73	-0.19199543
128	0xbf1acf42	-0.604725
129	0xbf23af98	-0.6393981
130	0xbfa98f30	-1.3246822
131	0xbeead6b7	-0.4586694
132	0xbe601571	-0.21883179
133	0xbf4a68aa	-0.79065955
134	0xbf6e502c	-0.9309108
135	0xbfab19e5	-1.3367277
136	0x3dbe5efd	0.09295461
137	0xbee1a9b9	-0.440748
138	0xbf795f2c	-0.97410846
139	0xbf9757b5	-1.1823641
140	0xbf137f6e	-0.5761632
141	0xbf3c4235	-0.73538524
142	0xbf07f40a	-0.5310675
143	0xbfb8b574	-1.4430375
144	0xbf3ac907	-0.72962993
145	0x3dd5b73b	0.10435339
146	0xbe44ba94	-0.19211799
147	0xbf865cf6	-1.049712
148	0xbf468d11	-0.77559
149	0xbf5b8b05	-0.85759
150	0xbfd0a20c	-1.6299453
151	0xbf51253a	-0.8169743
152	0xbf9227b6	-1.1418369
153	0x3c0dc199	0.008652114
154	0xbf749406	-0.95538366
155	0xbf2720a1	-0.6528416
156	0xbf8e4f08	-1.1117868
157	0xbf4306fe	-0.76182544
158	0xbeac219c	-0.33619392
159	0xbff9c727	-1.9513901
160	0xbf1cd689	-0.61264855
161	0x3e2fe486	0.17177019
162	0x3f65799f	0.89638704
163	0xbf36e1d6	-0.7143835
164	0xbfd5fb6f	-1.6717356
165	0xbf16393b	-0.58681077
166	0xbed429b7	-0.41438076
167	0xbf1052e3	-0.56376475
168	0xbf721178	-0.94557905
169	0xbfac79d8	-1.3474684
170	0xbf83c42f	-1.0294245
171	0xbf38afd9	-0.7214332
172	0xbef2789d	-0.47357646
173	0x3f5fd232	0.8743011
174	0xbfd9fd2f	-1.703039
175	0xbf496f85	-0.7868579
176	0xbf872725	-1.0558821
177	0xbf865d8a	-1.0497296
178	0x3e8fad92	0.2806211
179	0xbea15a41	-0.3151417
180	0x3da035c5	0.07822756
181	0xbf763b6e	-0.9618443
182	0xbf8ae735	-1.0851809
183	0x3e8e62f1	0.2780986
184	0xbf4cccd8	-0.80000067
185	0xbf04a8a1	-0.5181981
186	0xbfd1ece2	-1.6400416
187	0xbe6b1e0d	-0.22960682
188	0xbf9e89ef	-1.2385844
189	0xbe66c6d3	-0.22536783
190	0xbf0ca5ca	-0.54940474
191	0xbfa14cff	-1.2601622
192	0xbf86de16	-1.0536525
193	0x3e43da40	0.19126225
194	0xbf6b1ceb	-0.91841
195	0xbf148eca	-0.5803038
196	0xbf6c6a18	-0.92349386
197	0xbf9ea10a	-1.2392895
198	0xbfe2cda2	-1.7719004
199	0xbf143e6b	-0.5790774
200	0xbff31797	-1.8991574
201	0xbffd254e	-1.977701
202	0xbfaa1f3c	-1.3290782
203	0xbf758d07	-0.95918316
204	0xbfa08157	-1.2539471
205	0xbf8f71a4	-1.1206555
206	0xbf9bf846	-1.2185142
207	0xbe943223	-0.289445
208	0xbd925768	-0.07145578
209	0xbf922175	-1.141646
210	0x3b6d570f	0.003621522
211	0xbf99af32	-1.200659
212	0xbf24c532	-0.64363396
213	0xbf33b459	-0.70197064
214	0xbf289894	-0.65857816
215	0xbf540131	-0.8281432
216	0xbfa36984	-1.2766576
217	0xbf500147	-0.8125195
218	0xbfb00924	-1.375279
219	0xbf3c9929	-0.73671204
220	0xbf84faf9	-1.0389091
221	0xbf105fdf	-0.5639629
222	0xbf0fa12a	-0.5610529
223	0xbf0da850	-0.5533495
224	0x3db52a5c	0.0884597
225	0xbf372337	-0.7153811
226	0xbf982db3	-1.1888946
227	0xbfc12736	-1.5090091
228	0xbf87a3fc	-1.0596919
229	0xbf1e13ce	-0.6174897
230	0xbf9b89bf	-1.2151412
231	0x3e6765fd	0.22597499
232	0xbedde9cc	-0.43342435
233	0xbf8c0f7d	-1.0942227
234	0xbf4831aa	-0.7820078
235	0xbf066d44	-0.52510476
236	0xbf29ba30	-0.66299725
237	0xbf071832	-0.52771294
238	0xbf44038b	-0.76567906
239	0xbf7ca9f6	-0.9869684
240	0xbf607f48	-0.87694216
241	0xbfa0656e	-1.2530954
242	0xbf3c56f1	-0.7357016
243	0xbf0b1852	-0.54333985
244	0xbf0787f0	-0.529418
245	0xbf91cb92	-1.139025
246	0x3c53336b	0.012890677
247	0xbf9faf5a	-1.2475388
248	0xbf3494cd	-0.7053955
249	0xbf823b77	-1.0174397
250	0xbfb406c8	-1.406457
251	0xbf5acbf9	-0.8546749
252	0xbf31f50f	-0.69514555
253	0xbf18e2df	-0.5972118
254	0xbf4758f5	-0.7787011
255	0xbf2059ab	-0.6263682

fc2.weight f4 [256, 260]
0	0xbd866e4c	-0.06564006
1	0x3efc09c2	0.49226195
2	0x3e09e00e	0.13464376
3	0x3f17a8bb	0.5924184
4	0x3f726d2a	0.9469782
5	0x3efe5c26	0.4967968
6	0x3ee5413c	0.44776332
7	0x3f4d6d40	0.8024483
8	0x3db3cfba	0.08779855
9	0x3ead4fa0	0.33849812
10	0x3e51a6dd	0.2047381
11	0x3ef54ad5	0.47908655
12	0x3f1a2870	0.6021795
13	0x3eee27a5	0.4651462
14	0x3ee5b680	0.448658
15	0xbeaec4e3	-0.34134588
16	0x3f2bad3a	0.670612
17	0x3e82dc71	0.25558808
18	0x3e1a6456	0.15077338
19	0x3f24a353	0.64311713
20	0x3e86be71	0.2631717
21	0x3ae9a49f	0.001782555
22	0xbda4db4d	-0.08049641
23	0x3ebcc5ff	0.3686981
24	0xbe766a3c	-0.24063963
25	0x3ef90c49	0.48642185
26	0x3e9b199d	0.3029298
27	0xbf0fb8eb	-0.5614154
28	0xbda381fa	-0.079837754
29	0x3f6230ef	0.88355917
30	0x3f1d7a72	0.6151496
31	0x3f08d8ec	0.53455997
32	0x3e21a349	0.15784945
33	0x3e16c352	0.14722946
34	0x3e32e7e2	0.17471269
35	0x3db1f48a	0.0868922
36	0x3f079a65	0.5296996
37	0xbf297bba	-0.66204417
38	0x3ebb636c	0.3659929
39	0x3f074514	0.5283978
40	0x3e8fd556	0.2809245
41	0x3f178a93	0.5919582
42	0x3e6b3567	0.2296959
43	0xbdf21a13	-0.118213795
44	0x3e3cb81a	0.18429604
45	0x3eceeba4	0.40414155
46	0x3ee76586	0.45194644
47	0x3d3cfbeb	0.046138685
48	0x3e3f7972	0.18698671
49	0x3ea09e10	0.31370592
50	0x3ea8a609	0.32939175
51	0x3ee7102f	0.45129535
52	0xbeb45fa2	-0.35229212
53	0x3e3e089d	0.18557973
54	0x3efd1142	0.4942723
55	0x3ea8de1f	0.32981965
56	0x3e558672	0.20852068
57	0xbfc18f7a	-1.512191
58	0x3e92db59	0.28682974
59	0x3b340a76	0.0027472056
60	0x3ef46a9b	0.47737584
61	0x3e5e005e	0.21679828
62	0x3df9dedb	0.122007094
63	0x3d4e7ce4	0.050412074
64	0x3ed47cca	0.41501456
65	0x3ea59550	0.3234048
66	0x3f5d15c9	0.86361367
67	0x3f0f3601	0.5594178
68	0x3e384c07	0.17997752
69	0xbb02e113	-0.001997058
70	0x3e8471ad	0.25867978
71	0x3efd3511	0.4945455
72	0x3c853cc2	0.016264323
73	0x3de1fb29	0.11034233
74	0x3f00db50	0.50334644
75	0x3ed17ac1	0.40913966
76	0x3e857198	0.26063228
77	0xbf1eea4d	-0.62076265
78	0x3e7d848a	0.24757591
79	0x3dd1a54e	0.102366075
80	0x3f253c7a	0.64545405
81	0x3eff1243	0.4981862
82	0xbe15b221	-0.14618732
83	0x3f0f4dc0	0.5597801
84	0x3e24174d	0.16024514
85	0x3e8cfc0d	0.2753605
86	0x3ef18905	0.4717485
87	0xbd8137e4	-0.063094884
88	0x3f06d07b	0.52661866
89	0x3f0c0722	0.54698384
90	0x3f558e17	0.83419937
91	0x3f2694db	0.65070885
92	0x3ecc1cf2	0.39865834
93	0x3ec1eb5c	0.37874877
94	0x3e8d45b2	0.27592236
95	0x3e609a4f	0.21933864
96	0x3f17930a	0.5920874
97	0x3d905142	0.07046749
98	0x3f6c10b9	0.92213017
99	0x3e251703	0.1612206
100	0x3ee65b0f	0.44991347
101	0x3eae6fa6	0.34069556
102	0x3dac3cab	0.08410009
103	0xbe99e86b	-0.30060133
104	0x3f19fc8d	0.60150987
105	0xbca57e4a	-0.02020182
106	0x3ec9370a	0.39299804
107	0x3ea8fa40	0.33003426
108	0x3e72bbf1	0.23704506
109	0x3d7d769c	0.061880693
110	0x3e0bcd2b	0.13652484
111	0x3e03adea	0.12859312
112	0x3f35b3f3	0.70977706
113	0xbcbf62a0	-0.023362458
114	0xbefd575f	-0.4948072
115	0xbf32ac66	-0.6979431
116	0x3f0a526e	0.5403203
117	0x3ef8269c	0.48466957
118	0x3d994148	0.074831545
119	0x3f3491f1	0.7053519
120	0x3efbe531	0.49198297
121	0x3efd81e4	0.4951316
122	0x3dfc069d	0.12305949
123	0x3e63f22c	0.2226035
124	0x3e98a996	0.29816884
125	0x3ed8a24e	0.4231133
126	0x3f08f738	0.53502226
127	0x3f37e86f	0.7183904
128	0x3e8e6270	0.27809477
129	0x3ee629d6	0.44953793
130	0x3f250505	0.64460784
131	0x3e13d35f	0.144361
132	0x3eb076ad	0.34465542
133	0x3e07dc20	0.13267565
134	0x3e97cbdd	0.29647723
135	0x3f43ed3a	0.76533854
136	0xbd1cfcec	-0.038327143
137	0x3e57f44e	0.21089289
138	0x3f227188	0.63454485
139	0xbc37e34c	-0.011223625
140	0x3e93eb76	0.2889058
141	0x3f184d01	0.594925
142	0x3f041ea3	0.5160925
143	0x3e70fe2b	0.23534457
144	0x3f0f70b8	0.5603137
145	0xbe0e7a5b	-0.13913862
146	0xbdee8682	-0.11646749
147	0x3eb67884	0.3563882
148	0x3ede53ee	0.43423408
149	0x3e955685	0.29167572
150	0x3e6cb799	0.23116912
151	0x3e7d29c7	0.24722968
152	0x3d0cff95	0.03442343
153	0x3f022e81	0.5085221
154	0x3f1466c8	0.5796933
155	0x3ea7efad	0.32800046
156	0x3f2e654b	0.6812331
157	0x3e906cf5	0.28208128
158	0x3e8a5e85	0.27025238
159	0x3e55b622	0.2087026
160	0x3f20f012	0.6286632
161	0x3e490ca1	0.19633724
162	0xbe98cf98	-0.2984588
163	0x3f093648	0.5359845
164	0x3ec3ef81	0.38268664
165	0x3e8a9723	0.27068433
166	0x3e6ffd04	0.23436362
167	0xbff9cf46	-1.951638
168	0x3f11869d	0.5684603
169	0x3eeb0b40	0.4590702
170	0x3f149411	0.5803843
171	0x3e67fbae	0.22654602
172	0xbe0b8d1a	-0.13628045
173	0xbf02e70f	-0.5113382
174	0x3f0ec0fd	0.55763227
175	0x3e6c145a	0.23054639
176	0x3fabc654	1.34199
177	0x3f17f2a8	0.5935464
178	0xbe7b0fe0	-0.24517775
179	0xbe623d04	-0.22093588
180	0x3e934e10	0.28770494
181	0x3e1de0c0	0.15417767
182	0x3f00b649	0.50278145
183	0xbf2e5cce	-0.6811036
184	0x3f153def	0.5829763
185	0x3f32891b	0.69740456
186	0x3efca44b	0.49344096
187	0xbf356568	-0.7085786
188	0x3f35a121	0.7094899
189	0xbf86bfdc	-1.0527301
190	0x3ef817a7	0.48455545
191	0x3e8ee4be	0.2790889
192	0x3f2768ba	0.65394175
193	0x3f426450	0.75934315
194	0x3edd4546	0.43216914
195	0x3f0aace5	0.54170066
196	0x3e099b01	0.13438036
197	0x3e86f5c8	0.2635939
198	0x3f10cbe2	0.565611
199	0x3f4636a3	0.7742712
200	0x3f2d9a68	0.6781373
201	0x3f59fd44	0.8515208
202	0x3ed852ea	0.42250758
203	0x3eba79f2	0.36421162
204	0x3eb0d09c	0.34534156
205	0xbd60df65	-0.054900546
206	0xbe954f81	-0.2916222
207	0x3f211694	0.62925076
208	0x3f6f254d	0.9341629
209	0x3e77168d	0.24129696
210	0x3f0c6d38	0.54854155
211	0x3f8bf46e	1.0933969
212	0x3e4e051d	0.20119138
213	0x3ebc83f9	0.36819437
214	0x3ed48677	0.4150884
215	0x3eca5658	0.39519
216	0x3e99dcc0	0.3005123
217	0x3ea8ab9d	0.3294343
218	0x3f2eb345	0.68242294
219	0x3e468229	0.1938559
220	0x3ebc0c53	0.36728153
221	0x3e372091	0.17883517
222	0x3f118786	0.5684742
223	0x3ccdb6e1	0.025111618
224	0x3fcfe00a	1.6240246
225	0x3e9a952b	0.3019193
226	0x3f4b1dc5	0.793423
227	0x3f0ddd0c	0.55415416
228	0x3f469c4a	0.7758223
229	0x3e89ea9f	0.26936814
230	0x3eb7e0c3	0.35913667
231	0xbc706cb3	-0.014674353
232	0x3e3a7e84	0.18212324
233	0x3f85c6e2	1.0451319
234	0x3d470687	0.04859021
235	0x3f11af59	0.56908184
236	0x3d4707cc	0.04859142
237	0x3eaa9121	0.3331385
238	0x3f989ad1	1.1922246
239	0x3f0b545b	0.5442559
240	0x3e2c17ce	0.16805956
241	0x3f348709	0.7051855
242	0x3e5aa33e	0.21351334
243	0x3efb0a77	0.49031422
244	0x3d4127d6	0.04715713
245	0x3eea229a	0.45729524
246	0xbe06cc6c	-0.13163918
247	0x3eba3a1c	0.3637246
248	0x3ef6d5ac	0.48209894
249	0x3edc68d6	0.43048733
250	0x3efc1149	0.49231938
251	0x3e327462	0.17427209
252	0x3e5c2bb9	0.21501054
253	0xbe45614b	-0.19275396
254	0x3e8840c7	0.2661192
255	0xbda5d7b3	-0.08097782

fc2.bias f4 [256]
0	0xbf22a948	-0.6353955
1	0xbf739515	-0.95149356
2	0xbe61d337	-0.22053228
3	0xbf9b44d1	-1.2130376
4	0xbf166bbb	-0.58758134
5	0x3e6e12c2	0.23249343
6	0xbf9e74df	-1.2379416
7	0xbff6033d	-1.9219738
8	0xbfe0feac	-1.757772
9	0x3ebced2c	0.36899698
10	0x3e5013c2	0.20320037
11	0xbf18871d	-0.59581167
12	0xbf8b19e1	-1.0867273
13	0xbf882315	-1.0635706
14	0xbfd5a46c	-1.6690803
15	0xbf6e393b	-0.93056077
16	0xbf94ae87	-1.1615762
17	0xbf41ab7a	-0.7565228
18	0xbf5e8bae	-0.86931884
19	0xbfaf4194	-1.3691888
20	0xbf39a3e6	-0.72515714
21	0xbcb2f8c4	-0.021847136
22	0xbf1b27ff	-0.60607904
23	0xbecc1ec8	-0.39867234
24	0x3e7a64be	0.24452493
25	0xbfe24d81	-1.7679902
26	0xbf8538ec	-1.0407996
27	0xbf5f4da4	-0.87227845
28	0xbf94d203	-1.162659
29	0xbfd3f499	-1.655902
30	0xbf92345f	-1.1422232
31	0xbf700342	-0.9375497
32	0xbf99a4f9	-1.2003471
33	0xbf927daa	-1.14446
34	0xbfe7cef2	-1.811003
35	0xbfbabe61	-1.4589349
36	0xbe1453c1	-0.14485075
37	0xbf1d8988	-0.6153798
38	0xbffec16a	-1.9902775
39	0x3d68c49c	0.056828126
40	0xbfa405fa	-1.2814324
41	0xbf8ddd39	-1.1083137
42	0xbedd1fdb	-0.43188366
43	0xbfbacbce	-1.4593446
44	0xbea78a4f	-0.3272271
45	0xbf7b731c	-0.9822252
46	0xbfc141bc	-1.5098186
47	0xbf84bf9b	-1.0370973
48	0x3c525cf5	0.0128395455
49	0xbfaed7e7	-1.3659638
50	0xbfcec57b	-1.6154016
51	0xbfa36eb0	-1.2768154
52	0xbf5f2d85	-0.8717883
53	0xbfbb468f	-1.4630908
54	0xbfe60dd9	-1.7972976
55	0xbfff765f	-1.9957999
56	0xbfa3091b	-1.2737154
57	0xbd1d59ef	-0.038415845
58	0xbf858dd3	-1.0433906
59	0xbf9e983c	-1.2390208
60	0xbfd83797	-1.6891965
61	0xbfc500ce	-1.539087
62	0xbfa8d5e3	-1.3190273
63	0xbfacc34b	-1.3497099
64	0xbf7e0bd4	-0.992368
65	0xbe591bcf	-0.21202014
66	0xbfa2c54a	-1.2716458
67	0xbfb0b7a9	-1.3806049
68	0xbf9f349a	-1.2437928
69	0xbf9eda84	-1.2410436
70	0xbfba00b2	-1.4531462
71	0xbfca9836	-1.5827701
72	0xbe9fd547	-0.31217405
73	0xbe09d091	-0.13458468
74	0xbf5af50a	-0.8553015
75	0xbe90861f	-0.28227326
76	0x3e63f408	0.2226106
77	0xbe3c5382	-0.1839123
78	0x3daee4e3	0.085397504
79	0xbfd0e663	-1.6320308
80	0xbf7e9ddf	-0.9945964
81	0xbd2200bb	-0.039551478
82	0xbfc40e05	-1.5316778
83	0xbf4312ce	-0.7620057
84	0xbf8feb64	-1.124371
85	0x3c301442	0.010747017
86	0xbfcf82fd	-1.621185
87	0xbe4cbaf7	-0.19993196
88	0xbfb34ffa	-1.4008782
89	0xbf3d41ba	-0.73928416
90	0xbfc51bc8	-1.5399103
91	0xc00405a7	-2.062845
92	0xbe4dcfe8	-0.20098841
93	0xbf5af1c6	-0.85525167
94	0xbf7906ed	-0.9727619
95	0xbe8ed76d	-0.27898732
96	0xbf8e0c06	-1.1097419
97	0xbf6591b9	-0.8967548
98	0xbf552430	-0.8325834
99	0xbfe966eb	-1.8234533
100	0xbf913855	-1.1345316
101	0xbfb2528c	-1.3931441
102	0xbf1117b2	-0.5667678
103	0xbf88dda3	-1.0692638
104	0xbf23b702	-0.6395112
105	0xbf7fce61	-0.99924284
106	0xbf8b5b6d	-1.0887276
107	0xbf851883	-1.0398105
108	0xbf3b753d	-0.73225766
109	0xbfcd4c01	-1.603882
110	0xbf07141b	-0.52765054
111	0xbfe675ce	-1.8004701
112	0xbf918c77	-1.1370991
113	0xbf1baa93	-0.6080715
114	0xbf5d8d1a	-0.8654343
115	0xbda1a144	-0.07892087
116	0xbfaa50a6	-1.3305862
117	0xbfa6836c	-1.3008857
118	0x3eac125c	0.33607757
119	0xbfb058e6	-1.377713
120	0x3d003ccb	0.031307977
121	0xbfa2d903	-1.2722477
122	0xbfd31c0e	-1.6492937
123	0xbe54ad5c	-0.20769256
124	0xbf1ff043	-0.62475985
125	0xbf8fa766	-1.1222961
126	0xbf46e788	-0.7769704
127	0xbfb5ff56	-1.4218547
128	0xbf90531c	-1.1275363
129	0xbdf65d0a	-0.120294645
130	0xbf309a4d	-0.68985444
131	0xbf3955f9	-0.7239681
132	0xbfc39626	-1.5280197
133	0xbfd2324d	-1.64216
134	0xbf8e4f93	-1.1118034
135	0xbf9a8fc1	-1.207512
136	0xbfbd73f3	-1.480101
137	0xbf2d175a	-0.67613757
138	0xc000ef46	-2.014604
139	0xbfa5f4e4	-1.296536
140	0xbfebc642	-1.8419878
141	0xbfc033a1	-1.5015756
142	0xbfd4555c	-1.658855
143	0xbfc7cceb	-1.5609411
144	0xbf874e9f	-1.0570868
145	0x3de2fb3b	0.11083075
146	0xbfd50de7	-1.6644868
147	0xbf95514e	-1.1665437
148	0xbf82ee8e	-1.0229051
149	0xbf2dc8aa	-0.67884314
150	0xbfa0c1b0	-1.2559109
151	0xbf925aab	-1.143392
152	0xbf80f052	-1.007334
153	0xbfb4c086	-1.4121253
154	0xbe47fd2e	-0.19530174
155	0xbfd201f1	-1.6406842
156	0xbec980c3	-0.3935605
157	0xbf269f75	-0.6508706
158	0xbf84513d	-1.0337292
159	0xbf81b6f7	-1.0133961
160	0xbf88cf4e	-1.0688264
161	0xbfaee3e6	-1.3663299
162	0xbf047419	-0.5173965
163	0xbe3bfb0d	-0.18357487
164	0x3e0c6ba9	0.13712944
165	0xbf311a0d	-0.69180375
166	0xbf4ce99e	-0.8004397
167	0x3f13c6e4	0.5772536
168	0xbf5369c6	-0.8258327
169	0xbef29b86	-0.4738428
170	0x3e863941	0.26215556
171	0xbfbed6d4	-1.490931
172	0xbe9cb492	-0.30606514
173	0xbfda400d	-1.7050797
174	0xbd2e95f2	-0.042623468
175	0xbebf2ab4	-0.37337267
176	0xbf377e0d	-0.71676713
177	0xbf58127a	-0.84403193
178	0xbfa81f29	-1.3134509
179	0xbfd1a88d	-1.6379563
180	0xbe640cc1	-0.2227049
181	0xbf9a473b	-1.2052988
182	0xbf780a8a	-0.9689108
183	0xbefca56b	-0.49344954
184	0xbfa53ec8	-1.2909784
185	0x3bd45618	0.0064799897
186	0xbf9d450b	-1.2286695
187	0xbf9bc649	-1.2169887
188	0xbfae6c6b	-1.3626837
189	0xbf941eb1	-1.1571866
190	0xbfaf1336	-1.3677738
191	0xbfd5a5e1	-1.6691247
192	0xbfafb604	-1.3727422
193	0xbf4d07f7	-0.8009028
194	0x3daeb89d	0.08531306
195	0xbf24e1b1	-0.6440688
196	0xbfa9fe5d	-1.328075
197	0xbf43001b	-0.76172036
198	0xbf35d488	-0.7102742
199	0xbf805d48	-1.0028467
200	0xbfde8a98	-1.7386045
201	0xbf16e60a	-0.5894476
202	0xbfbd1bc7	-1.4774102
203	0xbf709a65	-0.9398559
204	0xbd818245	-0.06323675
205	0xbfbca8b5	-1.4738985
206	0xbf26b991	-0.651269
207	0xbf3eadbc	-0.7448385
208	0xbddb1adf	-0.10698485
209	0xbfb0eb67	-1.3821839
210	0xbf31e3dd	-0.69488317
211	0xbf4650b5	-0.774669
212	0xbfef3a08	-1.8689585
213	0xbec8af4d	-0.39196244
214	0xbfa08970	-1.2541943
215	0xbfb0b57a	-1.3805382
216	0xbe446345	-0.19178493
217	0x3e92793a	0.28608114
218	0xbfc7e821	-1.5617715
219	0xbe54c5df	-0.20778607
220	0xbf3af0ad	-0.7302349
221	0xbe10e6cb	-0.1415054
222	0xbfc81cb6	-1.5633762
223	0xbf7941d1	-0.9736605
224	0xbfcfa5e5	-1.6222502
225	0xbfa384bb	-1.2774881
226	0xbf7e174d	-0.99254304
227	0xbec4f579	-0.3846853
228	0xbfa9f34f	-1.3277377
229	0xbf922f34	-1.1420655
230	0xbd45c891	-0.04828698
231	0xbefc563e	-0.49284548
232	0xbeb4aef3	-0.35289726
233	0xbff2fa62	-1.8982661
234	0xbfb1f597	-1.3903073
235	0xbfc1e478	-1.5147848
236	0xbf3e6d29	-0.74385315
237	0xbf863421	-1.0484658
238	0xbfd46160	-1.6592216
239	0xbfc9fce5	-1.5780302
240	0xbf6d7db7	-0.9276995
241	0xbfbc57b2	-1.4714262
242	0xbf418d7e	-0.75606525
243	0xbf80fda0	-1.00774
244	0xbf9dd6e9	-1.233121
245	0xbe80c77f	-0.25152203
246	0xbefb0e62	-0.4903441
247	0xbfed1c52	-1.8524268
248	0xbf974063	-1.1816524
249	0x3e16bc52	0.14720276
250	0xbf421c1a	-0.7582413
251	0xbfb94109	-1.4472972
252	0xbfbeafe7	-1.4897431
253	0xbf6625be	-0.8990134
254	0xbfe0f05a	-1.757335
255	0xbeb05dbd	-0.34446517

fc3.weight f4 [128, 256]
0	0x3d02675e	0.03183686
1	0x3e2acff3	0.16680889
2	0x3b7492fc	0.0037319055
3	0xbd895d0a	-0.06707199
4	0xbe0188dc	-0.12649864
5	0xbe25a59e	-0.16176459
6	0xbded38ce	-0.115831
7	0x3df02dcb	0.11727484
8	0x3e99433b	0.29934105
9	0xbe5d7d87	-0.21629916
10	0x3d039b34	0.032130435
11	0xbe45b641	-0.19307806
12	0xbd3965c9	-0.045263086
13	0x3ec6f03c	0.3885516
14	0x3d45f8f3	0.04833312
15	0xbd8a9dae	-0.06768356
16	0xbdaea153	-0.08526864
17	0x3e5fd1ba	0.21857348
18	0x3dd48e53	0.10378709
19	0x3e0c9092	0.13727024
20	0x3e2e4ed5	0.1702226
21	0xbdbadaa7	-0.09123736
22	0x3e120a1c	0.14261669
23	0xbe0d1418	-0.13777196
24	0xbd64bf2a	-0.05584637
25	0xbe2feefe	-0.17181012
26	0x3dcb8552	0.09937538
27	0x3e19a027	0.150025
28	0x3eb296f8	0.34880805
29	0xbe26f464	-0.16304165
30	0x3e9f8d54	0.31162512
31	0xbe26ed9b	-0.16301577
32	0x3eba6fb7	0.36413357
33	0x3e14f9e7	0.14548455
34	0x3eb79df5	0.358627
35	0x3e1c6072	0.15271166
36	0x3ead69d5	0.33869806
37	0xbdfffb78	-0.12499136
38	0x3e62e0cc	0.22156066
39	0x3eea1285	0.45717254
40	0xbe6af236	-0.22943959
41	0x3e3ae9ae	0.18253204
42	0x3e7c0786	0.24612245
43	0x3e64f7d9	0.22360171
44	0x3dca1e3c	0.09869048
45	0x3a61bf64	0.0008611588
46	0x3cb8da7c	0.022565119
47	0x3e0ceca9	0.13762154
48	0xbc07ee16	-0.00829651
49	0x3ec81168	0.3907578
50	0x3ddcce27	0.10781508
51	0x3e99b033	0.30017242
52	0x3eeeace8	0.46616292
53	0x3eb34bbb	0.35018715
54	0x3bdcf01a	0.0067424895
55	0x3e1e9781	0.15487482
56	0x3d8e0a71	0.06935585
57	0xbea178d7	-0.31537506
58	0x3ea6c4f8	0.3257215
59	0x3e84186a	0.25799876
60	0x3e69e93e	0.22842881
61	0x3e26e265	0.162973
62	0x3e354198	0.17700803
63	0x3e513114	0.20428878
64	0x3d78cea9	0.06074396
65	0x3d0c8df0	0.03431505
66	0xbe6f2786	-0.2335492
67	0x3e81f804	0.25384533
68	0x3e2a340d	0.16621418
69	0x3e67d1b7	0.22638594
70	0x3da24cee	0.079248294
71	0x3e015360	0.12629461
72	0x3e37a2ea	0.1793324
73	0x3e078c35	0.13237078
74	0x3d9c137f	0.07620906
75	0x3d08db84	0.03341247
76	0x3e049b51	0.12949874
77	0x3de4c453	0.111702584
78	0x3d2dfbae	0.04247635
79	0x3d23d46d	0.039997507
80	0x3de68269	0.112553425
81	0x3e8c5cb9	0.27414492
82	0x3e851c70	0.2599826
83	0x3dfba90c	0.122881025
84	0xbdd7e0eb	-0.105409466
85	0xbe36e1c3	-0.17859559
86	0x3e7dc195	0.24780877
87	0x3d146fe0	0.036239505
88	0x3dfaae4f	0.12240278
89	0x3e8d31c2	0.27577025
90	0x3e8a940e	0.27066082
91	0x3e0c3c4d	0.13694878
92	0x3d1415d5	0.036153633
93	0x3e2c016b	0.16797416
94	0x3daf5100	0.085603714
95	0x3ed630c1	0.4183407
96	0xbd2ccb93	-0.04218633
97	0x3c14bf26	0.009078776
98	0x3e303b06	0.17210016
99	0x3e3ba880	0.18325996
100	0x3dd18d7a	0.10232063
101	0xbcafe937	-0.02147351
102	0x3dbdd7d7	0.09269684
103	0x3e976c3b	0.2957476
104	0x3e0d18fa	0.13779059
105	0x3e195b63	0.14976268
106	0x3e739dbb	0.23790638
107	0xbe9b79fa	-0.30366498
108	0xbefb085e	-0.4902982
109	0x3d05e9c1	0.03269363
110	0x3d7b14e5	0.061299223
111	0x3ddae0e3	0.10687425
112	0x3d2ee291	0.04269654
113	0x3e08ab6d	0.13346644
114	0xbd0995da	-0.033590175
115	0x3e2e1f32	0.17004088
116	0xbe883b2b	-0.26607642
117	0x3e488849	0.19583239
118	0x3b26404e	0.0025367918
119	0x3dd80ed2	0.10549702
120	0xbe4e00de	-0.20117518
121	0x3d98b59c	0.07456514
122	0x3e629bbe	0.22129723
123	0x3e589ebc	0.21154302
124	0xbedf7d93	-0.43650493
125	0x3e3fadd8	0.1871866
126	0xbe350f5b	-0.17681639
127	0x3e945756	0.28972882
128	0xbe27c2a0	-0.16382837
129	0x3e0c39b5	0.13693888
130	0x3d411b9b	0.047145467
131	0x3e906812	0.282044
132	0xba0d47fe	-0.0005389451
133	0xbdf91bf2	-0.12163533
134	0x3eb1199b	0.34589848
135	0x3ea84de5	0.3287193
136	0x3de35416	0.111000225
137	0x3d3af817	0.045646753
138	0x3e40d18c	0.18829936
139	0x3dd120d0	0.102113366
140	0x3e91cd2e	0.28476852
141	0x3e9858d3	0.29755268
142	0x3e7e4652	0.24831513
143	0x3d6f3453	0.05839951
144	0x3dd43cfc	0.10363194
145	0xbe131584	-0.14363676
146	0x3e8128b4	0.25226367
147	0x3e7fe0dc	0.24988121
148	0xbdc9f04f	-0.09860288
149	0x3be95967	0.0071212533
150	0x3d15ef15	0.03660496
151	0x3e4796f5	0.1949118
152	0x3de91317	0.11380594
153	0x3c1d9c4e	0.0096197855
154	0x3dcdc41d	0.10047171
155	0x3e2f82e2	0.17139772
156	0x3e75f925	0.24020822
157	0x3d4f5d56	0.05062612
158	0x3e30cc47	0.17265426
159	0x3ddc1725	0.10746602
160	0xbe9a3812	-0.30120903
161	0x3e065fc4	0.13122469
162	0xbe40196d	-0.18759699
163	0x3e1e76d0	0.15475011
164	0xbe02b4ec	-0.12764329
165	0x3d8e5632	0.06950034
166	0x3d7110aa	0.058853783
167	0xbd0a1e0f	-0.033720072
168	0x3e859559	0.26090506
169	0x3e6d753e	0.23189256
170	0xbe123cb9	-0.14280976
171	0xbce27e61	-0.027648153
172	0xbe74dab1	-0.23911549
173	0xbd3af502	-0.045643814
174	0x3e56f2ba	0.2099103
175	0x3d8b734c	0.068091005
176	0xbe80ddd0	-0.2516923
177	0xbd2b3081	-0.041794304
178	0x3c70ee29	0.014705219
179	0x3dee0fa5	0.11624078
180	0x3e7c6ff9	0.24652089
181	0x3e5a4950	0.21317029
182	0x3d8b11ae	0.067904815
183	0xbda90084	-0.082520515
184	0x3e8c525a	0.2740658
185	0x3eb4539e	0.35220045
186	0x3e28cbcf	0.16483997
187	0x3e0284dd	0.12745996
188	0x3eab3c10	0.33444262
189	0x3e01f3e1	0.12690689
190	0x3e1504e0	0.14552641
191	0x3ea0b77e	0.31389993
192	0x3dd7f808	0.10545355
193	0xbe2afea1	-0.16698696
194	0xbc646c2c	-0.013941806
195	0x3de0c7bb	0.109755956
196	0x3db440fb	0.088014565
197	0xbde0b250	-0.109715104
198	0xbb437b47	-0.0029828118
199	0x3eff6eb2	0.4988914
200	0x3e5f4729	0.21804489
201	0xbde86951	-0.113482125
202	0x3e9d6d94	0.30747664
203	0x3e8a8e06	0.2706148
204	0x3e52fbf7	0.2060393
205	0x3e99a332	0.3000732
206	0x3d9348ec	0.07191643
207	0x3e8bc63c	0.27299678
208	0x3e7aa6e1	0.24477722
209	0x3ce0de98	0.027449891
210	0x3d0dfd53	0.034665417
211	0x3edda3bb	0.4328898
212	0x3c40c857	0.011766515
213	0x3e11bd1d	0.14232297
214	0x3d0bdd81	0.03414679
215	0x3e04dc88	0.12974751
216	0x3bee3113	0.0072690337
217	0xbd1109aa	-0.035409607
218	0x3dd3a228	0.10333663
219	0xbc40078d	-0.01172055
220	0xbe64cf31	-0.22344662
221	0x3e10d6a1	0.14144374
222	0x3e0083ca	0.12550274
223	0xbe3aacf1	-0.18230034
224	0x3ed98856	0.4248683
225	0xbdd1f334	-0.102514654
226	0x3bdd3d3f	0.006751686
227	0x3dc8f308	0.098119795
228	0x3da07462	0.07834698
229	0xbcf1fb6a	-0.029538829
230	0xbb624829	-0.0034527874
231	0x3e682837	0.22671591
232	0xbdddebf5	-0.10836021
233	0x3ec4fffe	0.38476557
234	0x3e2c42bd	0.16822334
235	0x3e8fdfc4	0.28100407
236	0xbe1d5d53	-0.15367632
237	0x3dfc75d7	0.12327164
238	0x3e51d600	0.20491791
239	0x3d9c61b6	0.076358244
240	0x3db70781	0.08936978
241	0x3e4b7cbd	0.19871803
242	0xbeb604b1	-0.35550454
243	0xbde5a689	-0.11213405
244	0x3ebf45a9	0.37357834
245	0x3dc6d165	0.097079076
246	0x3eb25814	0.34832823
247	0x3d0603dc	0.032718524
248	0x3e89e899	0.2693527
249	0x3dfa6add	0.12227414
250	0x3e6fa251	0.23401763
251	0x3e078bf3	0.1323698
252	0x3e82e5e9	0.25566033
253	0x3eb1accf	0.34702155
254	0x3dd516df	0.10404753
255	0x3e380de3	0.17974047

fc3.bias f4 [128]
0	0xbebb4e4e	-0.3658318
1	0xbe4c5618	-0.19954717
2	0xbe255379	-0.16145124
3	0xbe422fab	-0.18963496
4	0xbe95e774	-0.29278147
5	0xbe3239a5	-0.17404802
6	0xbeabb1c2	-0.33534056
7	0xbec07f93	-0.3759733
8	0xbdff7b94	-0.124747425
9	0xbeb250e7	-0.3482735
10	0xbed462d0	-0.41481638
11	0xbe8c40e6	-0.27393264
12	0xbe43c0c9	-0.1911651
13	0xbfebd685	-1.8424841
14	0xbe985ff4	-0.29760706
15	0xbe84c1d7	-0.25929138
16	0xbe515629	-0.20443024
17	0xbe24f017	-0.16107212
18	0xbeae7dde	-0.34080404
19	0xbe8ced62	-0.2752486
20	0xbef5ad4d	-0.4798378
21	0xbe97bcbe	-0.29636186
22	0xbed93fe4	-0.42431557
23	0xbefdf33c	-0.49599636
24	0x3fa4f164	1.2886167
25	0xbee283b0	-0.44241095
26	0xbe4c7be4	-0.19969136
27	0xbe5e7673	-0.21724872
28	0xbe4cae4d	-0.19988365
29	0xbe60e7f5	-0.21963485
30	0xbec13851	-0.37738279
31	0xbe2b1cde	-0.1671023
32	0xbebb9635	-0.36638036
33	0xbe9fc20d	-0.31202736
34	0xbe6e3fa7	-0.23266469
35	0xbe8c9f10	-0.27465105
36	0xbeee66b6	-0.46562737
37	0xbec1eb6b	-0.37874922
38	0xbe787ebd	-0.24267097
39	0xbe9da59b	-0.3079041
40	0xbe3101b3	-0.17285804
41	0xbee7f76a	-0.4530595
42	0xbe9d7965	-0.3075668
43	0xbea0eee2	-0.31432253
44	0xbee8a28a	-0.45436507
45	0xbf3a65e7	-0.7281174
46	0xbe61e32c	-0.22059315
47	0xbe559d41	-0.20860769
48	0xbe60035d	-0.21876283
49	0xbe403a4c	-0.18772238
50	0xbeb9e7d0	-0.3630967
51	0xbec6c4e0	-0.3882208
52	0xbe869d82	-0.26292044
53	0xbee21f65	-0.44164577
54	0xbeb5f955	-0.35541788
55	0xc039bddf	-2.9022138
56	0xbe4775f0	-0.19478583
57	0xbe90c01c	-0.28271568
58	0xbeb381ae	-0.35059875
59	0xbed75a0a	-0.42060882
60	0xbf0577d7	-0.52135986
61	0xbed68a9e	-0.41902632
62	0xbf02eb47	-0.51140255
63	0xbee331be	-0.44373888
64	0xbea473a9	-0.32119492
65	0xbea1552a	-0.31510288
66	0xbefee451	-0.49783567
67	0xbed844ca	-0.42239982
68	0xbe8f77e4	-0.28021157
69	0xbe85bc58	-0.26120257
70	0xbeb2920e	-0.34877056
71	0xbed38eec	-0.41319978
72	0x3f53a7db	0.82678
73	0xbed22da3	-0.41050443
74	0xbe8aa341	-0.27077678
75	0xbea2c30f	-0.31789443
76	0xbe95dd41	-0.29270366
77	0xbe25e0aa	-0.16198984
78	0xbed00e38	-0.40635848
79	0xbeeefbd3	-0.46676502
80	0xbe75aa39	-0.23990716
81	0xbe9c4f17	-0.3052909
82	0xbdf1e045	-0.11810354
83	0xbeb68d10	-0.35654497
84	0xbf6ff62e	-0.93735015
85	0xbecb4f84	-0.39709103
86	0xbebb7579	-0.36613062
87	0xbe2c6633	-0.16835861
88	0xbe941cbf	-0.28928182
89	0xbea8f50e	-0.32999462
90	0xbea8c00a	-0.32959014
91	0xbe7eabdd	-0.24870248
92	0xbeac5467	-0.33658144
93	0xbebcfe75	-0.36912885
94	0x3f6ca341	0.92436606
95	0xbe8f4a71	-0.27986482
96	0xbdbb8319	-0.09155864
97	0xbe80f6a3	-0.2518817
98	0xbe886b84	-0.26644528
99	0xbedca39e	-0.4309358
100	0xbed64746	-0.41851252
101	0xbf1f8c4e	-0.6232346
102	0xbe96a614	-0.29423583
103	0xbea685fc	-0.32524097
104	0xbe44eac9	-0.19230188
105	0xbed51871	-0.4162021
106	0xbee33110	-0.4437337
107	0xbec2b917	-0.38031837
108	0xbe437c66	-0.19090423
109	0xbea03f1e	-0.31298155
110	0xbec42ff8	-0.38317847
111	0xbec0af8f	-0.3763394
112	0xbecf40ff	-0.40479276
113	0xbea48987	-0.32136175
114	0xbeafab4a	-0.3431037
115	0xbe47042b	-0.19435184
116	0xbea692d5	-0.325339
117	0xbe9a8147	-0.30176756
118	0xbf07d361	-0.53056914
119	0xbea94a0e	-0.33064312
120	0xbe0170f4	-0.12640744
121	0x3d53ab84	0.051677242
122	0xbecab2c4	-0.39589512
123	0xbe6b3cd1	-0.22972418
124	0xbee43dbb	-0.44578347
125	0xbe4a94f3	-0.19783382
126	0xbecc0a9e	-0.3985185
127	0xbe8f4671	-0.2798343

fc4.weight f4 [1, 128]
0	0x3c918d18	0.017767474
1	0x3b8086fb	0.003922341
2	0xbd2b2c36	-0.04179021
3	0x3c0fee8e	0.008784903
4	0xbb2726b3	-0.0025505244
5	0x3c0834a4	0.008313332
6	0xba12d81c	-0.0005601661
7	0x3ad9c8d4	0.0016615638
8	0x3b1905bf	0.0023349372
9	0x3c8f0852	0.017460022
10	0xbcf60d02	-0.0300355
11	0x3c066fc7	0.008205361
12	0xba86fac6	-0.0010298125
13	0x3e66c2cb	0.22535245
14	0x3bf928c2	0.0076037357
15	0x3bed2e7c	0.0072382074
16	0xbb156a02	-0.0022798781
17	0xbcfe58ea	-0.031048257
18	0x3b8ca208	0.0042917766
19	0x3be837ac	0.0070867147
20	0x3cdaa20f	0.026688604
21	0x3bdc0788	0.006714765
22	0xbd206697	-0.039160337
23	0xbcd127cc	-0.025531672
24	0x3d403a62	0.04693068
25	0xbcbb6073	-0.022873139
26	0x3b310eb4	0.002701682
27	0x3c114f2c	0.008868974
28	0xb99a91d1	-0.0002948181
29	0x3b80ea48	0.0039341785
30	0x3c2cd288	0.010548241
31	0xbcda9918	-0.026684329
32	0x3d073914	0.03301342
33	0x3b0f0844	0.0021824995
34	0xbd888d24	-0.066675454
35	0xbc742470	-0.0149012655
36	0x3c7866c5	0.015161221
37	0x3c1c9372	0.009556638
38	0xbcf9ac68	-0.030477718
39	0xbac08025	-0.0014686628
40	0xbc067e39	-0.008208805
41	0xbc823675	-0.015895108
42	0x3bc09791	0.005877443
43	0x3b11edc5	0.0022266966
44	0x3cc404ab	0.023928007
45	0x3c3ecf07	0.011646039
46	0xb9c6ea40	-0.00037940033
47	0x3a44d9dd	0.0007509271
48	0xbb323773	-0.0027193695
49	0x3a9e33d5	0.001206989
50	0xbcd2adbb	-0.025717607
51	0xbb61c7d1	-0.0034451375
52	0x3c556826	0.013025319
53	0x3d2bca2f	0.041940864
54	0xbb7f1f06	-0.0038928404
55	0xbdd8919b	-0.10574647
56	0xbc8cac8f	-0.017172126
57	0x3b63f657	0.003478428
58	0xbc321e43	-0.010871473
59	0x3bfb2d49	0.0076653105
60	0xbcfae769	-0.030627923
61	0xbbaa3b45	-0.0051950538
62	0x3d2544e9	0.04034892
63	0xbbff5383	-0.007791938
64	0x3c0b46c3	0.008500758
65	0xbba3b2f8	-0.0049957
66	0xbc931efa	-0.017959107
67	0x39b11c09	0.0003378096
68	0xb92794f2	-0.00015981848
69	0xb8db521d	-0.000104580286
70	0x3c99c45d	0.018770391
71	0xbcf83818	-0.030300185
72	0x3cdf5292	0.027261052
73	0x3baabca5	0.0052104765
74	0x3c7daef6	0.0154836085
75	0xbc679fd1	-0.014137224
76	0x3a33606c	0.0006842676
77	0xbd073708	-0.033011466
78	0x3afbdd3f	0.0019215717
79	0xbcfb5738	-0.030681238
80	0x3cdd6345	0.027024874
81	0x3bfb56ea	0.007670273
82	0xbbb322e8	-0.0054668076
83	0x3cdc47e1	0.026889743
84	0xbcf60521	-0.030031743
85	0x3b21924b	0.0024653848
86	0x3bf4db03	0.0074723973
87	0x3c08d031	0.008350418
88	0xbc9cb1f4	-0.019127823
89	0x3ad47bf6	0.001621126
90	0x3c86ccb4	0.016455032
91	0xbc755851	-0.01497467
92	0xbb3c76c7	-0.002875732
93	0x3ca556f1	0.020183058
94	0x3ce38c4a	0.027776856
95	0x3925a676	0.00015797638
96	0x3adb0e06	0.0016712553
97	0xbd1a81ad	-0.037721325
98	0xbbb8aeca	-0.005636071
99	0x3c5cbf68	0.013473369
100	0x3a73fc11	0.0009307275
101	0xbbb90a37	-0.0056469697
102	0xbc287a25	-0.010283028
103	0xbbcf29a6	-0.0063221036
104	0x3cc708f6	0.024296265
105	0x394c94ad	0.00019510342
106	0xbd86c2f3	-0.06580152
107	0x3d6e8e7e	0.05824136
108	0xb9aee784	-0.0003336036
109	0xbbf1f570	-0.0073839948
110	0x3d16e40d	0.03683858
111	0x3c239d40	0.009986222
112	0x3b8cd37c	0.004297672
113	0x3c12e705	0.008966212
114	0x3d25aafd	0.04044627
115	0xbca39f6e	-0.019973483
116	0x3a55c80e	0.00081551156
117	0x3ce6cf21	0.028174939
118	0x3d32f976	0.043694936
119	0x3d12a7b3	0.03580446
120	0x3b898f21	0.0041979705
121	0x3c0a7d25	0.008452688
122	0xbd1a9c7a	-0.037746884
123	0xbcac5675	-0.02103732
124	0x3bf72e0d	0.0075433315
125	0xbd0d0daf	-0.034436878
126	0xbbea8baa	-0.0071577625
127	0x3c91f869	0.017818647
