p3_collab-compet/checkpoint_actor_1.pth (torch_old, 28465 bytes, 4 tensors)

fc1.weight f4 [256, 24]
000000 29 e8 0b be e6 76 33 3f 29 b3 a5 3d 9d 84 74 3e
       -0.13662781 0.701033 0.08090813 0.23878713
000010 12 8b 08 be d4 7e a3 bf 37 98 e9 3d 30 9d 62 3e
       -0.13334301 -1.277308 0.11405986 0.22130275
000020 25 0f 61 bf ee 15 0a 3e e0 6f fc 3d 16 7c 47 3e
       -0.87913734 0.13484928 0.12326026 0.19480929
000030 3a b8 a8 3d 0a 15 b9 bf 3e 9a ff 3b 43 28 12 3e
       0.082382634 -1.4459546 0.0078003695 0.14273171
000040 62 03 4e bf 17 0c 10 be 36 57 41 3e f0 70 ef 3d
       -0.8047391 -0.14067112 0.18880925 0.11691463
000050 c3 0a fd 3e 69 bb 74 bf 68 ae 0d 3e 0e ef ce 3d
       0.49422273 -0.95598465 0.13836062 0.1010419
000060 00 50 e0 bc be 18 c0 3c 3c b4 4c bd 00 c0 f8 3c
       -0.027381897 0.023449298 -0.049976572 0.03036499
000070 74 61 a6 3c c6 22 a5 bd 7e a4 9b bd f5 05 05 bc
       0.020310141 -0.08063273 -0.07599734 -0.008119096
000080 d6 6c a2 bc ae f6 ad 3c ff ec 22 3c 6e bf 43 bd
       -0.019827288 0.02123579 0.0099442 -0.047789983
000090 7e af 33 3d 17 68 79 bd 53 17 42 3b 16 20 87 bc
       0.043868534 -0.060890283 0.0029615953 -0.016494792
0000a0 4b 4d 35 3c cf 57 f8 3b 77 08 70 3c c3 c1 86 bd
       0.011065791 0.007578827 0.014650456 -0.06579926
0000b0 a0 9d 08 3d fa bc 94 bd c5 df 4e bb da 8d ee bc
       0.033353448 -0.07262607 -0.0031566483 -0.029120374
0000c0 4b de 60 bd 3c de b8 ba 57 a6 7d bd 76 ad cf 3b
       -0.054899495 -0.0014104317 -0.061926212 0.006337817
0000d0 72 9a e3 3c 1d e8 e9 bd 27 05 18 3b 49 1e 77 bd
       0.027783606 -0.11421225 0.002319643 -0.060331617
0000e0 c5 c2 bc 3c 58 92 54 bd b9 e0 f3 3b 79 62 79 bc
       0.023042092 -0.051897377 0.0074425605 -0.015221232
0000f0 09 dc 12 bb 47 bd e0 bb 15 cc 86 bd 50 ce 95 bd
       -0.0022408983 -0.006858501 -0.06581894 -0.073147416
000100 95 7e 3b bd 8e b2 3c bb ad d0 55 bc 4f 21 08 bd
       -0.045775015 -0.002879295 -0.01305024 -0.03323489
000110 d8 3d 87 bd 93 5f 02 bd a0 fc 05 bd 16 e8 11 bd
       -0.06603593 -0.031829428 -0.032711625 -0.035621725
000120 34 d7 5e bd 8c 89 a0 bc 8c 58 ff bc 50 54 49 3d
       -0.054404452 -0.019596837 -0.031170152 0.049152672
000130 42 16 5c bd 10 5b 37 3d ec e9 fc bc 06 5c 14 bd
       -0.053732164 0.04476458 -0.030873261 -0.036220573
000140 bc b7 eb 3c aa 05 03 3d 34 48 34 bd 2c 92 2f 3d
       0.028774135 0.031987824 -0.04401417 0.04286401
000150 84 53 5a bd ae 32 17 3d a0 14 f5 3c 1c b9 42 3d
       -0.053302303 0.036913566 0.029917061 0.047539815
000160 c0 0a 7e bb e0 1a 74 bb 80 85 eb bc c0 c9 dd bb
       -0.0038763732 -0.0037247464 -0.028750181 -0.0067684352
000170 a4 68 41 bd f2 16 66 bd 38 0e c4 bc 28 7d 39 3c
       -0.047218934 -0.056174226 -0.023932561 0.0113213435
000180 5b 75 3f bf 65 a1 89 3e c0 ae 39 be 12 89 9d be
       -0.74788445 0.26880947 -0.18133068 -0.3076864
000190 8c 61 69 be b8 73 c1 3f 72 31 5a be 04 08 9a be
       -0.22791117 1.511344 -0.21307924 -0.3008424
0001a0 8b e3 34 bf 16 55 a8 3e 29 ef c4 be 5f 56 82 be
       -0.70659703 0.32877415 -0.38463715 -0.2545652
0001b0 a0 67 2b be a2 df c8 3f 72 4c bd be fb c8 b0 be
       -0.16738749 1.5693247 -0.36972386 -0.34528336
0001c0 1a 49 cd be 60 ba 0c 3f 38 3a 17 be 0e 53 91 be
       -0.40094835 0.54971886 -0.14768302 -0.28383678
0001d0 20 85 ab be 05 10 9b 3f 92 cb 69 be 1e 0d 9c be
       -0.33500004 1.2114264 -0.22831562 -0.30478758
0001e0 da ac a9 3e 1e 0c b2 3e 35 39 9b bc 0b 4b e0 bc
       0.33139688 0.3477487 -0.018948177 -0.027379533
0001f0 dc 95 61 3f 54 f7 9e bf e4 f0 8d 3d 33 f9 32 bd
       0.8811929 -1.2419229 0.06930712 -0.043694686
000200 e9 a6 8f 3e 32 b4 2c 3f b5 e3 3a be a0 3c 65 3d
       0.2805703 0.67462456 -0.18250926 0.05596602
000210 63 8e bd 3f 6e 16 88 bf 3c e6 5d be 02 14 a9 3d
       1.4809078 -1.0631845 -0.21669859 0.08255769
000220 0e ba f7 3d a5 cf 3b 3f 51 e9 30 bd 4e ae 57 3d
       0.12096034 0.73363715 -0.043191258 0.052656464
000230 d7 81 d3 3f 6c 88 97 be 00 a5 7d 3d 4c 98 0b bd
       1.6523999 -0.2959627 0.061924934 -0.03408079
000240 02 5b 31 3f c7 9d 35 3f 7b 99 65 bd 07 e9 e7 be
       0.6927949 0.70943874 -0.056054574 -0.45294973
000250 c8 25 65 be 60 df 0a bf 11 65 17 be 70 f8 d4 be
       -0.22377694 -0.54247093 -0.14784648 -0.41595793
000260 07 b7 08 3f 8f 7c fd 3c 32 b0 b0 bd 44 92 31 bf
       0.5340428 0.030943183 -0.086273566 -0.6936381
000270 7c 61 bd be 6d c9 d4 3d 4a d8 98 bc 33 57 24 bf
       -0.36988437 0.103899814 -0.018657822 -0.64195555
000280 e7 25 61 3e ae 5c 06 bf 80 39 ba be 89 25 9f 3e
       0.21987115 -0.5248517 -0.36371994 0.31083325
000290 2a 71 2e bf 27 02 ad 3e 80 04 d4 be f7 5c 6b 3e
       -0.68141425 0.33790705 -0.41409683 0.22984682
0002a0 1a c8 71 bb 42 06 76 3c da c9 20 bd 17 3a 10 bc
       -0.0036892951 0.01501614 -0.039255 -0.008802912
0002b0 e4 f0 04 3c 69 7c a3 bd ff 8a b8 bd 70 cf 81 bd
       0.008114073 -0.07982714 -0.090108864 -0.06338394
0002c0 20 6d b5 3a 75 ca ae bd 8e ac b7 bb 92 72 7f bd
       0.0013841726 -0.08534709 -0.005605287 -0.062365122
0002d0 be 89 b7 3c f2 70 7f bc ef 15 18 3d fe f0 70 bd
       0.022404548 -0.015590893 0.037130293 -0.058823578
0002e0 5e d1 07 bb 3d 89 6c 3c 03 3e 25 bd 87 ca 37 3c
       -0.0020724158 0.014437017 -0.040342342 0.01121772
0002f0 8b 76 cf bc d1 51 77 bc f9 c7 ad 3c 22 68 18 bc
       -0.02532508 -0.01509519 0.021213518 -0.009302171
000300 b0 cb 8d bc a0 da 8b 3c d4 4f fe bc 80 34 10 3c
       -0.01730904 0.017072022 -0.031043924 0.0088015795
000310 b0 d0 18 3c 38 39 a0 bc 42 c9 31 bd 98 df 16 bc
       0.009327099 -0.019558534 -0.043404825 -0.009208582
000320 04 f7 e3 bc 98 df 7e bc c0 e1 cc 3b e0 28 40 bd
       -0.027827747 -0.015556239 0.0062524974 -0.04691398
000330 58 98 45 bc c0 85 97 bc d4 2b 57 bd b8 c0 75 bd
       -0.012060247 -0.018496394 -0.052532032 -0.059998244
000340 40 0c 01 bc 56 92 72 3d d8 f8 44 3d 98 77 6f bc
       -0.007876456 0.059221588 0.04808888 -0.014615916
000350 a4 45 11 3d f0 84 95 bc 8e e5 2a 3d 78 fd ba bc
       0.035466805 -0.018251866 0.041722827 -0.022825941
000360 0c 12 13 3f 3c 22 df be 39 53 a7 3d 2e d8 35 be
       0.5744941 -0.43580806 0.0817017 -0.17758247
000370 eb b1 93 be 3a 8a 8a 3f c8 fb 02 3e f1 b0 31 be
       -0.28846678 1.0823433 0.1279136 -0.17352654
000380 e5 30 56 3f a9 d8 43 be 9c 3d ab 3e d8 91 a0 bd
       0.8366836 -0.19125618 0.33445442 -0.078403175
000390 f3 b1 c6 be 94 62 f5 3e 1c d0 c9 3e 76 34 ea bd
       -0.3880764 0.47926772 0.39416587 -0.114357874
0003a0 4c d7 b4 3e 13 28 21 bd 53 f5 04 bd 0e 4b 47 3e
       0.35320508 -0.03934486 -0.032460522 0.19462225
0003b0 a8 72 0f be 5c 0e 7e be 29 26 1e 3c 42 b6 37 3e
       -0.14008582 -0.24810165 0.009652653 0.1794062
0003c0 54 71 63 bd 70 c1 5e bd 7e cf 37 bd b4 7a 97 bc
       -0.055528 -0.054383695 -0.044875614 -0.018491127
0003d0 82 dd 00 bd 86 c5 29 bd b2 b5 0d 3d 38 b3 0c 3c
       -0.031461246 -0.04144814 0.034597106 0.008587651
0003e0 f8 73 c7 bc c8 3a b4 3c 50 73 b7 3c e8 c4 4c bd
       -0.02434729 0.022000685 0.022393852 -0.049992472
0003f0 40 ef 8d bb a2 b7 74 bd d4 3e a0 3c 50 54 29 3d
       -0.0043314993 -0.05974544 0.019561209 0.041340172

fc1.bias f4 [256]
000000 49 56 5f 3f 9f 9f 29 be 0e 2e e2 3d 61 87 0b be
       0.87241036 -0.16564797 0.110439405 -0.13625862
000010 23 b8 7b be 31 a5 07 bf 23 87 15 3e 80 01 6b be
       -0.24581961 -0.5298644 0.14602332 -0.22949791
000020 1c 97 a7 bd c6 82 62 bc b0 9c 3e be 29 84 dc 3e
       -0.08183119 -0.013825124 -0.18614459 0.4306958
000030 20 91 c0 bd e2 dd 2e be b9 af fc bc 7c 26 a1 3a
       -0.094026804 -0.17076829 -0.03084551 0.0012294794
000040 73 12 1f 3e 2e 9d 29 be 92 e3 29 be 4a c5 8c bd
       0.15534382 -0.16563866 -0.16590717 -0.068735674
000050 5f 06 72 be b4 b3 f8 bd 60 31 9f bd a6 f6 91 bd
       -0.23635243 -0.12143651 -0.077730894 -0.071271226
000060 ec d2 80 3d 5e 1e 16 3c e3 04 f4 3e 99 5f 8b 3f
       0.0629023 0.009162514 0.47659978 1.0888549
000070 a2 08 35 be 7e 3c 00 bf a5 0d 37 be 43 c3 40 be
       -0.17679074 -0.50092304 -0.17876299 -0.18824486
000080 28 63 91 bd 31 53 22 3f f0 ad 95 3c cb e3 34 be
       -0.07098991 0.6340819 0.018271416 -0.17665021
000090 87 7d 3c be dc 8f 62 3f 68 2b 05 3f 11 fb e7 bd
       -0.1840726 0.8850076 0.5201936 -0.11327184
0000a0 f1 32 9f bd b8 87 ac be 09 1a d7 bd 37 56 39 3e
       -0.07773388 -0.33697295 -0.10503013 0.18099295
0000b0 a8 f1 53 3f c2 01 dc 3e 70 51 9f 3e 93 08 f5 3d
       0.82790613 0.4297009 0.3111682 0.11964526
0000c0 0f c5 97 3d e7 96 12 3d e9 12 f8 3e d1 e2 c7 3e
       0.07410633 0.035788443 0.48451927 0.39040235
0000d0 da a6 89 bd 44 34 fe bc 99 3a 39 3f 19 7c d8 3d
       -0.067212775 -0.031030782 0.7235504 0.10570545
0000e0 7c 8d 21 3d 3b 97 e6 bd 32 d3 9d bd cd 18 50 3b
       0.03944157 -0.11259314 -0.07706298 0.0031753064
0000f0 9a c5 0e be ec 8b 9a 3d 20 d0 0b be d8 5b 14 be
       -0.13942567 0.07546219 -0.13653612 -0.1448816
000100 78 0d 69 3f f5 a7 e8 bd 03 f0 50 be e4 35 37 3f
       0.91036177 -0.1136016 -0.20404057 0.71566606
000110 57 54 d6 bd 3a 53 9e bd 3d 16 c9 bd 8e af ef bd
       -0.10465305 -0.07730718 -0.09818695 -0.11703406
000120 c8 fa 2a be 42 01 b7 bd 5d f9 2f be 03 5b 1e bd
       -0.16697228 -0.08935787 -0.17184968 -0.038661014
000130 dc 59 45 3d 62 07 0c be 89 b7 48 be e2 e3 6d bf
       0.0481814 -0.13674691 -0.19601263 -0.92925847
000140 e4 be 06 be 2a 2e 21 3d cb 3b b9 be f4 0f 5f 3e
       -0.13158756 0.039350666 -0.3617843 0.2178343
000150 73 2d d7 bc ce d2 82 bd 5b 26 22 be 54 56 68 3e
       -0.026266789 -0.06387864 -0.15834944 0.22689182
000160 4a 42 36 3f 6d ec 40 3c b0 f5 d4 bd 84 1b 05 3f
       0.711949 0.011775118 -0.10398424 0.5199511
000170 4b 8c 46 be aa b1 32 3e 5d 42 7f 3e 03 4b 0a bd
       -0.19389455 0.17450586 0.2492766 -0.033762943
000180 bd e9 45 be a5 35 c9 bd 39 c5 06 3f c3 9e 89 bd
       -0.19327445 -0.09824685 0.5264469 -0.067197345
000190 c7 78 93 3d 91 19 69 3d b1 d7 46 be 33 05 ac 3c
       0.07200771 0.056909148 -0.19418217 0.020998573
0001a0 e2 70 92 b9 24 2f 3e 3f 34 92 85 3c 5e f2 d0 3d
       -0.00027931394 0.7429068 0.016305067 0.10202478
0001b0 67 97 da 3c c2 a8 10 be 91 22 22 be 97 6d ac bd
       0.026683522 -0.14126876 -0.15833499 -0.0841934
0001c0 1b b8 74 bc 5a 04 12 be bb a0 44 be d2 aa 72 bd
       -0.014936472 -0.14259472 -0.19201939 -0.05924494
0001d0 b8 e9 84 3b 6b b1 75 3d 95 5f da bd 04 e6 ba 3c
       0.0040561818 0.059983652 -0.10662762 0.022814758
0001e0 04 b5 28 bd 69 be 2d 3f 2d ab c8 bd bb 06 a1 3f
       -0.041188255 0.6786867 -0.09798274 1.2580179
0001f0 20 93 b6 bf 8c dc 58 bc a9 16 05 3e 69 83 d8 be
       -1.4263649 -0.013236176 0.12996925 -0.42287758
000200 28 48 1e 3d 78 cf 2e bd 70 3c 06 bf b8 36 4b be
       0.038643032 -0.042678326 -0.5243597 -0.19845092
000210 14 e2 84 bd ba 2d f6 bd e7 8a 19 3f b0 51 38 3f
       -0.064884335 -0.120204404 0.59977573 0.71999645
000220 2a ed 04 be 28 94 32 be 14 77 24 be 32 44 83 3d
       -0.12981096 -0.1743933 -0.1606105 0.064094916
000230 32 42 31 be 63 c6 ce 3e d0 2f e6 bd 9b ce 99 3e
       -0.17310408 0.40385732 -0.11239588 0.3004044
000240 a4 0e 7e 3c a2 5e 33 be f0 5a 8c 3e cf da 8d 3e
       0.01550642 -0.17516568 0.2741313 0.27706
000250 02 4c f2 3c 6f 5c db bd 21 4c 24 3e 39 85 07 be
       0.029577259 -0.1071099 0.16044666 -0.13234414
000260 3e 9c 6d 3f d5 6c 52 be bd d6 34 bf 36 ea 0f be
       0.9281653 -0.20549329 -0.70640165 -0.14054188
000270 c0 13 c6 bd 1f c0 93 bd 88 0e 50 be 10 05 c1 3b
       -0.09671736 -0.072143786 -0.20318043 0.005890496
000280 32 3b 1f 3d ee e8 27 3f ca 30 fa bd e7 0b bb bd
       0.038874812 0.655898 -0.12216337 -0.091331296
000290 cf 03 e9 bd 71 ee 40 be f1 67 fa 3c 28 bd 69 3d
       -0.113776796 -0.18840958 0.030567141 0.05706516
0002a0 a5 36 6b bd 0d f8 07 be 3b 58 0f 3c 15 9b 28 bf
       -0.05742516 -0.13278218 0.008749063 -0.65861636
0002b0 38 80 9e be 5c 8c 69 be 39 54 db 3d 9d 9f 44 3e
       -0.30957198 -0.22807449 0.107094236 0.19201513
0002c0 1d 90 9d bd 46 57 71 bd 44 96 46 3f 9c 4a 9c 3c
       -0.07693503 -0.05892112 0.7757304 0.019078545
0002d0 70 e3 95 3f 2a 11 fe 3d 59 ea d8 bd a2 c2 09 be
       1.1710033 0.124056175 -0.10591573 -0.13453153
0002e0 56 51 27 3f 61 a2 89 bb 29 5d 13 3f e4 0c ce bd
       0.65358484 -0.0042002653 0.57564026 -0.100610524
0002f0 80 90 5f 3d 70 82 1e 3f b4 a4 9b 3d 9f 0f 4a bd
       0.054581165 0.6191778 0.07599774 -0.049331304
000300 8d 7c b5 bd 51 8e 62 bd c7 27 dc 3d 4e 72 94 bd
       -0.08861647 -0.055311505 0.107497744 -0.072483644
000310 7f b7 4f be 11 b1 48 bd cd be 4e be d6 e0 2e be
       -0.20284842 -0.04899699 -0.20189972 -0.17077956
000320 3c 09 a2 be a8 91 03 be 29 b6 0e 3f d1 6b fb bd
       -0.3164767 -0.12848532 0.55746704 -0.12276424
000330 11 95 69 be 05 74 a1 bc 6c 58 22 3d 37 cd ae bb
       -0.2281077 -0.019708643 0.039635107 -0.005334522
000340 12 ab 16 3f 66 7f 53 bb e6 ef 2c be a2 2c fa 3e
       0.5885478 -0.003227198 -0.16888389 0.48862177
000350 ff b8 3c 3c 98 4e e7 bd 36 40 06 bd 24 f8 8d 3e
       0.011518716 -0.112942874 -0.03277608 0.2772838
000360 72 4f 82 bd b1 28 df bc 87 5c 10 3d b4 47 09 bd
       -0.06362809 -0.027241083 0.03524449 -0.033515647
000370 f8 33 a1 3e 80 fb 53 bd ce eb e7 3c 33 13 60 3f
       0.31484962 -0.05175352 0.028310683 0.87529296
000380 c1 06 ce bd 82 21 00 3f 47 ad 8c bc cf 92 37 be
       -0.10059882 0.5005113 -0.017172469 -0.17927097
000390 a6 2d 4d be ef 88 92 3f 70 bc c2 bd 56 b9 b9 be
       -0.20036945 1.1448039 -0.09508598 -0.36274213
0003a0 fb 10 0c 3f e6 6b 4d 3f 6c a1 f5 bd fb 72 8a bd
       0.5471341 0.80242765 -0.119936794 -0.06760212
0003b0 ce 1c a7 bd 2e 93 46 be 69 7f c9 bc 1c ca 6c 3d
       -0.08159791 -0.19392082 -0.024596887 0.057809934
0003c0 f2 6a 07 3f 28 0c ae bd 2a 59 04 be 5c 72 8e bd
       0.5289756 -0.08498412 -0.12924638 -0.06955406
0003d0 0f e8 bd bd 3b 4b 35 bf 92 fc 1c 3f e3 e5 64 3d
       -0.09272777 -0.7081792 0.6132289 0.0558833
0003e0 94 d9 3c 3c 33 83 76 bd 1f fc e4 bd ec 15 0c bd
       0.011526484 -0.060183715 -0.11180901 -0.034200594
0003f0 0d 67 e8 3d a8 21 d5 bc 8e 44 c1 bd cd 1c 88 bd
       0.113477804 -0.026017025 -0.09436904 -0.06646118

fc2.weight f4 [2, 256]
000000 a7 57 9f 3f a9 da 36 3d 36 9b 3d 3d 80 3e be b8
       1.2448624 0.044642124 0.0462906 -9.0715475e-05
000010 08 d6 04 c0 ff 18 93 3e f9 23 d2 3e f5 d2 6d 3d
       -2.0755634 0.28730008 0.4104307 0.058062512
000020 27 e4 eb ba 40 ac d9 bd 56 25 e6 ba ec ed d3 bf
       -0.0017997072 -0.10628557 -0.0017558734 -1.6556983
000030 34 25 55 3d ad c6 3e 3d 53 87 45 3d 71 8e 33 3d
       0.052037433 0.04657619 0.04822476 0.043837015
000040 28 87 1c 40 7d ab 3f 3d 3c f7 30 3a df cd 0c bb
       2.4457493 0.046794403 0.0006750708 -0.0021485013
000050 b1 78 2c 3e cf d9 33 3d cc 20 06 ba 02 52 b1 ba
       0.16842915 0.04390889 -0.00051165815 -0.0013528469
000060 29 26 3a 3d 91 6f 59 3d 3c 1c b2 bf 29 d3 7f 3f
       0.04544655 0.053084914 -1.3914866 0.9993158
000070 9c 43 36 3b 1b 16 1b c0 30 21 21 3b 00 5c 19 3a
       0.0027811294 -2.4232242 0.0024586432 0.0005850196
000080 40 33 18 39 00 71 c0 bf 12 6c fa ba 5c 78 49 3d
       0.00014514942 -1.5034485 -0.0019105694 0.04918705
000090 e1 02 c3 ba 34 0e 1a 3f 9a 98 45 3e 18 9a 95 b9
       -0.0014878177 0.6017792 0.19296494 -0.00028534303
0000a0 bf 43 43 be 12 2c 25 3e 44 ab a0 3a 12 8a 98 3d
       -0.19068812 0.16130093 0.0012258072 0.0744821
0000b0 9b 80 28 3f 18 c6 4f 3f 6d df bc bf f9 3d f9 3c
       0.65821236 0.8116164 -1.4755684 0.030425059
0000c0 71 a1 57 3d d1 46 8a be 8b 4c 3c 3f 7f 2d d5 bf
       0.052644197 -0.27007154 0.73554295 -1.6654509
0000d0 29 d0 16 3d 8f e9 6a 3d b0 a6 f9 3e a3 82 84 3e
       0.03681961 0.057351645 0.48759985 0.25880918
0000e0 a3 25 46 3d 00 26 46 3d 5d e6 3c 3d 28 02 58 3d
       0.048375737 0.048376083 0.04611813 0.05273643
0000f0 cc e6 6d ba 4e 7b 4a 3d 77 c9 4c 3d 36 d4 b6 ba
       -0.0009075224 0.049434 0.04999682 -0.0013948742
000100 27 53 82 c0 f0 29 5a 3d f0 58 22 3b fd 96 4d 3f
       -4.0726504 0.05326265 0.002477225 0.80308515
000110 50 82 39 3d 8b 5b cd ba 57 df d8 ba e8 59 6a 3a
       0.04529029 -0.0015667541 -0.0016546053 0.00089397887
000120 0e 38 2c 3d 43 3b 44 3b b6 67 81 3d 42 d5 41 3d
       0.042045645 0.002994255 0.063186094 0.04732252
000130 26 61 10 3d e4 95 19 3c 24 40 8a ba 65 6e 01 c0
       0.035248898 0.009374116 -0.001054768 -2.022363
000140 d2 f6 1d 3d 64 c7 4b 3d 20 ee 8d bc d9 51 0a 3f
       0.038565464 0.0497507 -0.01732546 0.5403114
000150 7f 78 3b 3d 2c 29 cc ba d4 42 08 bb 1c f6 b4 3f
       0.04576921 -0.0015576235 -0.0020791786 1.4137607
000160 db 1c aa 3e 8c c5 16 3d cd 51 46 3e 34 0c 41 3f
       0.3322514 0.03680949 0.19367142 0.75409245
000170 72 7f 38 3d f0 ba fe 3d 9a 35 be bf 7a 47 6b 3d
       0.045043416 0.12437999 -1.4860108 0.057441212
000180 7e f5 1e 3b 80 4e 71 3d 6e 25 09 40 78 7d 25 3d
       0.0024255211 0.058912754 2.1429095 0.04040286
000190 fb 5f 2a 3d 48 b8 3f 3d 9c d7 03 3a cc fd 09 3e
       0.04159544 0.046806604 0.0005029382 0.13475722
0001a0 6a ea 40 3d a8 70 f7 3f 80 31 93 3e 2e 4e cc 3d
       0.047098555 1.9331255 0.28748703 0.09975849
0001b0 fd b3 32 3d 0e b4 2b 3a b5 9e 2e bb 83 f4 5f 3d
       0.04362868 0.00065499626 -0.002664489 0.054676544
0001c0 92 c5 5b 3d 72 e3 b8 3d e9 09 16 3b 60 35 ff be
       0.053655215 0.09027757 0.002289409 -0.4984541
0001d0 06 71 02 3d 10 0d 0a 3c e5 65 0d bb b2 7c 29 3d
       0.03184607 0.008425966 -0.0021575626 0.041378684
0001e0 0f 3d 35 3d 3c 04 1e 3f ae e8 47 3d bd d3 f4 bd
       0.044247683 0.6172521 0.048805885 -0.11954448
0001f0 bf 38 4e c0 19 d9 4e 3d 13 55 03 3d 54 20 42 c0
       -3.2222135 0.05050001 0.032063555 -3.0332232
000200 1c 3b 32 3d b6 7e 48 3d eb ee 26 c0 80 1a 18 bb
       0.043513402 0.048948966 -2.6083324 -0.0023209155
000210 ba 49 c2 3d 0c e1 a8 ba 48 09 33 3f 37 3d ca 3e
       0.094867185 -0.0012884452 0.6993604 0.39499828
000220 61 c3 eb ba 0c 32 56 3a 7f 4f 0b bf 3e 04 3d 3d
       -0.0017987305 0.000817091 -0.54418176 0.046146624
000230 dc 14 2f 3d d3 73 b1 bf dd a8 59 3d 25 4d fa 3f
       0.042744502 -1.3863472 0.053139556 1.9554793
000240 1f a7 94 3d a4 a3 f1 3a 03 ef 78 3f ac 2c 92 3f
       0.07258438 0.001843561 0.972397 1.1419883
000250 a2 03 3a 3d 00 c0 28 3d 0f 8c 65 3d be 24 43 3d
       0.04541362 0.04119873 0.056041773 0.047642462
000260 19 e8 41 3f 49 3d 02 3b 35 59 d3 bd d6 1b 41 bb
       0.7574478 0.0019872955 -0.10319749 -0.0029466054
000270 83 74 62 3e 9e ab 3e 3d 10 14 99 39 9d 88 c1 bf
       0.22114758 0.046550386 0.00029197382 -1.5119816
000280 69 f8 4d 3d 11 39 cc 3f cb 9c 37 3d aa 78 7e 3d
       0.05028573 1.5954915 0.044827264 0.062126793
000290 c4 d2 61 3d 2a cb 80 ba 9f ea 44 3d 46 52 6f 3d
       0.055132642 -0.0009826173 0.048075315 0.05842807
0002a0 0e 2c 42 3d d7 3c 16 3b 8f ba 48 3d 49 ca b7 bf
       0.047405295 0.0022924447 0.04900604 -1.4358608
0002b0 cc d3 3b be b3 cf 6d 3d 9e 75 9a 3d 97 fb 80 3e
       -0.18342513 0.058059406 0.07541965 0.25191948
0002c0 e2 8a 5d 3d ba 69 15 bd 33 93 6d bf 0d 04 46 3d
       0.054087527 -0.03647778 -0.92802733 0.048343707
0002d0 b7 d9 df 3f ce 61 5c 3d d2 a4 4d 3e a0 dc 22 bb
       1.7488316 0.05380421 0.20082405 -0.002485074
0002e0 c8 fa 01 3f 4c d7 3e 3f 7a 52 5d 3f 33 2d 9e 3d
       0.50773287 0.74547267 0.86453974 0.07723465
0002f0 e4 83 24 3d 32 9b 87 3f 0b 0c 56 3d 97 8a 1c 3d
       0.040164843 1.0594237 0.05225758 0.038218107
000300 a3 7b 21 3d 50 a7 40 3d 98 be 48 3d 8c 0c 45 3d
       0.03942455 0.04703456 0.04900989 0.04810767
000310 b3 05 22 bb b6 ac 2a 3d 75 5e 8a bb be fc f2 3a
       -0.0024722635 0.041668616 -0.004222686 0.0018538458
000320 8b a8 af be 94 9a 5d 3a 1e d8 35 c0 80 a2 86 ba
       -0.34308276 0.0008453515 -2.8413157 -0.0010271817
000330 25 8c 81 3d b2 b7 42 3d 9e fa dd 3e 4a 70 64 3d
       0.063255586 0.047538467 0.43355268 0.05577115
000340 bf 33 12 3f 26 a7 43 3c bf c3 20 3d b9 92 2d bf
       0.5711021 0.011941707 0.039249178 -0.67802006
000350 7d 35 3f 3d b0 f4 b2 39 da 08 d4 3b ca f7 02 40
       0.04668187 0.00034133112 0.0064707818 2.0463738
000360 eb fe 51 3d 29 77 3a 3d 21 ae 48 3d a9 f4 fc 3d
       0.0512685 0.045523796 0.048994187 0.12351353
000370 43 0f 0a 3d 61 6d f3 ba e8 1f 35 3d 7a 2c 33 40
       0.03370596 -0.0018572026 0.04421988 2.7995896
000380 98 43 2a 3d cf 80 b2 3e 33 bb 3b 3d 71 32 1d 3d
       0.04156837 0.34863898 0.045832824 0.038378183
000390 b3 21 3b 3d da 66 8c 3f c1 b6 a9 b9 98 59 2f bf
       0.045686435 1.0968888 -0.00032370354 -0.68496084
0003a0 2a d7 a5 3f 84 6a 42 3f a1 11 64 3d ea cd 80 3d
       1.2956288 0.7594378 0.055680875 0.06289275
0003b0 ef 5d 20 bf 10 c7 a5 39 12 58 45 3d 97 37 0e bf
       -0.6264333 0.00031619566 0.048179694 -0.55553573
0003c0 6a fb 4e 3f 39 aa 74 bb c2 3a e3 ba 17 98 26 3d
       0.8085238 -0.0037332906 -0.0017336237 0.040672388
0003d0 7b 69 49 3a 0c 97 18 c0 e6 b4 c4 bf 69 f3 6f 3d
       0.00076832593 -2.3842192 -1.5367706 0.058581743
0003e0 b4 93 5a 3d 5e 4f 2b 3e c7 66 1d bb 86 d9 45 3d
       0.053363517 0.16729495 -0.002401756 0.04830315
0003f0 c4 2f c6 3c bc a0 3a 3a 9d 0d ad 3e ea 9e 3c 3d
       0.024192698 0.0007119288 0.3379945 0.04604999

fc2.bias f4 [2]
000000 6e c2 cd 3d 73 e8 df be
       0.1004685 -0.43732032
