p3_collab-compet/weights/checkpoint_critic_0.pth (torch_old, 450860 bytes, 7 tensors)

fcs1.weight f4 [256, 48]
00000000: 548e 15bf 08bd 4bba d2fd 143d dbd8 c93d
00000010: f078 4fbf b6b2 cbbe 8dae 903d 4364 b23c
00000020: e390 17be 6378 593e 002e bd3e 4ab6 79bc
00000030: 6f79 16bf bcd3 14bf 6dd7 d23e c08b cdbd
00000040: 17bd f5be e7a8 693e 44d7 00bf d402 703e
00000050: 8183 0fbf 2085 febe 2c68 e5be 9593 823e
00000060: 80bb e2be 42aa 6abe db86 f1be 4bd9 94bd
00000070: 135f 35be e0c7 b0be 2715 c7be c758 7ebd
00000080: e5cf b2be 3e6b fc3c 13c9 40be eb78 90be
00000090: 8a58 95be 181f 25bf e882 1abe 2634 97be
000000a0: d95c b5be a522 433e 74d0 d4bd 6cb4 b9be
000000b0: df7d c2be c0f5 1abf 4826 24bd 4521 bdbe
000000c0: 5a80 0d3f 1203 533f 92ca 4bbf 7b47 c6bf
000000d0: 4d28 0d3d 9a1b 54be eb53 34bf 1f01 c6bf
000000e0: 81f1 8abe a6c4 4d3e fe16 07bf 308c a9bf
000000f0: 62a7 a5bf efef abbd 359c 0ebf 113b afbf
00000100: a68e 2dbf 0f91 1bbf 6be6 253f 11e0 323f
00000110: 8009 4ac0 a567 02bd 9fb6 193f a66c 383f
00000120: 60cc 193e b293 cb3d 8421 063e 6b26 93be
00000130: 08a5 793d d098 37be 2194 e23d 762d afbe
00000140: 42a7 803d cc51 d6bd 9123 543d 6c4b 13be
00000150: 7938 253f 7a88 1fbe 22fe 163d f18f 22be
00000160: 5147 7a3c ab11 52be de63 4fbd e835 263d
00000170: 1ace a33f 0fcf aebb bf8a 78bd 5daa 2cbd
00000180: 59de 21bf 4718 dc3b 34ea 483e de0d 00bf
00000190: 4091 68be caae 353e 85b8 1b3e 0650 f3be
000001a0: 4836 19bf 7eee d7bc c573 b2be 7c0c 9bbe
000001b0: 8a02 a7be 86b1 f7bd 6b06 d3be d102 8abe
000001c0: fdca 2abf d635 c53c b74a ff3d 8cc0 193f
000001d0: 488b 44bf a203 1dbf 9b03 163e 691c 143f
000001e0: d842 f43b 9dd7 0bbf bebf 61be 5f83 0a3e
000001f0: 6f45 6ebe f120 563e e969 44be 253d 153e
00000200: 3e87 063e 3b6f 4ebe e070 53be b8eb d1bd
00000210: a01d 1dbe ed19 09be 77bb 20be 70fc 27be
00000220: 146d 3e3e 47a1 8cbd 4311 39bd 311f b5be
00000230: f343 c8bd 07b9 24bf 3b30 c1bc e94b 83be
00000240: f259 5a3e 8655 58be 4fd4 7a3e 5aff b6be
00000250: b510 863e 56bf 9dbe 96d0 923e 962a e9be
00000260: de36 993d 1e9d 36be 1edf b6be 7f49 e1be
00000270: 273f 1abe 08a7 66be db27 dbbe 3e72 b9be
00000280: c4d5 c2bd cbbe 75bd c8f0 9a3d 8bc4 9f3e
00000290: b3cf 0fbf 6f54 9dbe 5fcd 083e d033 823e
000002a0: 1fb6 03bf 6470 6bbf 766d a43c e0dd 67bd
000002b0: 85a4 3fbe 1282 81be c35a db3c ce7f 283a
000002c0: 894e 43bf c69c 31bf 7ae9 48bf b433 3abe
000002d0: dfea 56bd cbb2 77be 5ced 43bf ba9a 68be
000002e0: 215e 4abf 5cc3 003e 2d00 8cbe f946 f23e
000002f0: 8e16 533d 649f 80be a3cb 9cbe 0f48 c13e
00000300: 79ee 4abe b351 f13d 2ef4 10be e491 09be
00000310: 4725 5abe dabe 1bbf d68f c8bd ddf6 4bbe
00000320: 4271 10be 4b85 093e b044 ea3b 6222 adbe
00000330: ff53 31bc e194 1ebf 00b6 e3bd 69dc a8be
00000340: 212f 3abf 48ec 173e 19fb dbbe 6c06 d5bd
00000350: 23a5 59bd 9a61 d9bd 90bc d6be cfdb dcbd
00000360: ac1d 9abe 2286 b7be c8e8 b5bd b9ab 1cbe
00000370: e5e1 743c 13de 20bf 7cc7 e5bd 80de 58be
00000380: eb3c 36be 7c9a 023d 5e52 cebe c2f4 033e
00000390: c738 6dbd f665 0dbf 48c9 b4be 82c9 2c3e
000003a0: 1f1f 77bd 0d85 203f d99f a03d ea84 963e
000003b0: 07a1 1fbe 6cf0 2fbd 7cd8 353c 767e bb3e
000003c0: 7042 f8be 5eda 303f fe88 bb3d 7770 bebe
000003d0: c697 acbe 5e8f ca3e ae32 1f3e a9be c6be
000003e0: 094e 77be 665b 193f 7c26 a5be 38d8 25bf
000003f0: 9500 c8be d1e1 06be e2ac bfbe 2296 36bf
-0.584203 -0.00077720033 0.036374874 0.09855815 -0.8104391 -0.39784783 0.07064543 0.021776324
-0.14801364 0.2123733 0.36949158 -0.015241215 -0.5877904 -0.5813558 0.41179982 -0.10036421
-0.47995827 0.22818337 -0.5032847 0.23438579 -0.56060034 -0.4971094 -0.4480604 0.2550322
-0.44283676 -0.2291651 -0.471732 -0.07268008 -0.17712049 -0.34527493 -0.38883325 -0.062096383
-0.34924236 0.030812856 -0.18826704 -0.28217253 -0.29169112 -0.6450057 -0.15089 -0.29531974
-0.354224 0.19056185 -0.10391322 -0.36270463 -0.37986657 -0.60531235 -0.04007557 -0.36939445
0.55273974 0.8242656 -0.7960597 -1.5490564 0.034462262 -0.20713654 -0.7044055 -1.5469092
-0.27137378 0.20094547 -0.5276946 -1.3245907 -1.2941706 -0.08395373 -0.55707103 -1.3689901
-0.6779579 -0.60768217 0.64804715 0.6987315 -3.1568298 -0.031837124 0.6004428 0.72040784
0.15019369 0.0994028 0.13098723 -0.28740248 0.0609484 -0.17929387 0.110634096 -0.3421437
0.06281902 -0.1046482 0.05179173 -0.1438424 0.64539295 -0.15579405 0.036863454 -0.15875222
0.015275792 -0.20514552 -0.05063235 0.040578753 1.2797272 -0.005334742 -0.060679194 -0.04215466
-0.632299 0.0067167613 0.19620591 -0.5002116 -0.22711658 0.17742458 0.15207107 -0.4752199
-0.5984845 -0.02635884 -0.3485395 -0.30282962 -0.32619125 -0.12094407 -0.41215834 -0.26955274
-0.66715986 0.024073523 0.124654226 0.6005943 -0.76775026 -0.6133367 0.14649813 0.5785585
0.0074542575 -0.54625875 -0.220458 0.13526677 -0.23268674 0.20911004 -0.19181027 0.14574106
0.13137528 -0.20159619 -0.20648527 -0.10250038 -0.15343332 -0.13388796 -0.15696512 -0.16404891
0.18596298 -0.06866699 -0.045182478 -0.3537536 -0.09778585 -0.6434483 -0.023582568 -0.25643852
0.21323374 -0.21126375 0.24495052 -0.35741693 0.2618462 -0.3081004 0.28674763 -0.45540303
0.07481168 -0.17833373 -0.357171 -0.44001386 -0.15063153 -0.22524655 -0.42803845 -0.36219972
-0.09513429 -0.059996407 0.07565457 0.31204638 -0.561763 -0.3072848 0.13359593 0.25430155
-0.5144977 -0.9196837 0.020071726 -0.05660808 -0.18715103 -0.25294548 0.026776677 0.0006427736
-0.7629171 -0.6937984 -0.78481257 -0.18183786 -0.052470084 -0.24189298 -0.76534057 -0.22715273
-0.7904988 0.12574524 -0.27343884 0.47319773 0.05153518 -0.25121605 -0.30624112 0.3775029
-0.19817533 0.11783161 -0.14155647 -0.13434559 -0.21303283 -0.6083809 -0.097930595 -0.1991839
-0.14105704 0.13429753 0.0071493015 -0.33815295 -0.010823249 -0.6194592 -0.11118698 -0.3298066
-0.72728163 0.14836228 -0.4296501 -0.104016155 -0.053136002 -0.10614319 -0.41940737 -0.10784113
-0.30100763 -0.35844523 -0.0888229 -0.15299882 0.014946436 -0.6283886 -0.11219689 -0.21178627
-0.17796676 0.03188561 -0.40297216 0.12886336 -0.057915475 -0.55233705 -0.35309815 0.16873744
-0.060332414 0.6270302 0.078429885 0.2939828 -0.15588771 -0.042953894 0.011098977 0.3661992
-0.48488188 0.690832 0.091569886 -0.3719518 -0.33709544 0.39562505 0.15546677 -0.38817337
-0.24150862 0.5990509 -0.32255924 -0.6478305 -0.39062944 -0.1317208 -0.37436587 -0.71322834

fcs1.bias f4 [256]
00000000: 8f92 c1be 9eb7 933e 0ad6 a7be 1ce6 b9be
00000010: b1ce 08bf da0a 10bf d726 0d3f e8ff 0abe
00000020: 480a 14bf fca8 cabe 5313 eabe d140 18bf
00000030: c069 20bf 954c cfbe 3b01 47bf 80db 8b3e
00000040: 74a5 e1be e084 0fbf 0aec 32bf 465a c9be
00000050: 5cc1 19bf ec16 cabe c105 c7be d021 febe
00000060: 9c5a a0be 8197 26bf 7c43 fdbe bd9d c8be
00000070: afc4 29bd 579f 2cbf 0a40 00bf 891a 33bf
00000080: 8e6f 25bf 2837 a8be 596d 64bf a031 14bf
00000090: 6638 18bf c6f0 58bf ab74 0cbf 45cd 39bd
000000a0: 53c4 13bf 072e 44bf 08a4 bcbe d29b 273e
000000b0: 1020 95be 1be7 c4be 8534 ebbe cf71 a8be
000000c0: 1d2a 23bf 7d4e d3be c7f1 2ebf 932a 18bf
000000d0: ec01 0dbf ea17 06bf e5b0 08bf 0126 2abf
000000e0: 2ad8 cebe c54e 4b3f b382 74be 5cd4 cdbe
000000f0: 9dc0 10bf 1334 d33d b2e4 55bf e173 b7bd
00000100: e692 38bf 9efd 64be b5c0 febe 79c9 dbbe
00000110: 1b69 11be 6fb7 5c3e ba3c a5be e8c7 67bd
00000120: 302e 4abf aaa6 b5be 0ebd 02bf ffca 5cbf
00000130: 4ce4 f9be 8a2c 07be 4169 52be e28b 42bd
00000140: 79ed e4be 39c3 1abf 1f97 0bbf 0039 dcbe
00000150: 01cc 97be 2cb2 863f e747 34bf 2e02 343f
00000160: 808c 003f b2ac bfbe b0a7 81bf 712b 55bf
00000170: f2fb 0cbf fab9 2cbe 2c86 07bf f4f8 6ebf
00000180: 2511 36bf 0f20 f1bd cb87 04bf ef45 79be
00000190: 0160 34bf b450 10bf 5a03 0cbf ab46 69be
000001a0: 43ed 08bf 3715 43bf 6a3d 33bf be08 11bf
000001b0: 29e7 cfbe 32be a13b f81b 14bf 7c52 74bf
000001c0: e91c 10bf 698f 2abf c3d2 93be 2e75 00bf
000001d0: eb65 80be 2dd7 dfbd 2577 acbe 2f65 30bf
000001e0: 986e 0dbf a0a3 31bf a2b4 0bbf 1706 67be
000001f0: 27ab 46bf 38b3 2bbf 92e8 4abf 1e1f a8be
00000200: 1022 c4be 81e8 cbbd 33f5 93be e92d 1cbe
00000210: 589b f0be c8d2 bfbe 9d20 40bf 6439 b5bd
00000220: 02fc 67be 2dc0 3abe dd3d 4ebd db60 dcbe
00000230: 4333 18bf fbf9 a8be 74e8 b5be f2c3 26bf
00000240: d470 10bf 54c5 babe 5606 cc3a 420a 36bf
00000250: ad3b efbe 3d7e dfbe ff1d 72bf 31f2 3fbf
00000260: e917 e6be 82be 813e 11a7 f1be 90ac f7be
00000270: 5b88 c3be 4e66 65bf 361c fdbe acd4 5cbf
00000280: a677 083f bf98 4cbf 7a8f f5be 8fcf 1cbf
00000290: a13b 1cbf 26a0 61be dead 413f ea93 e33e
000002a0: 6896 80be c59c f7be 86ca 7dbf 142b 86be
000002b0: 2066 8bbe 964e 46bf a4c0 03bf 2ed6 13bf
000002c0: 7773 40bf 6d1b 273d c0e0 2cbf 01cd 0cbf
000002d0: bf9e 98be cadb 85be a51f 12bf 9e63 e23d
000002e0: 1751 883e 6b40 d8be b148 c8be 76d3 49bf
000002f0: c5ca 57bf bd98 ae3e af1f a5be 14de 64bf
00000300: d5d4 f6be 17a6 e0be 3d88 9bbe 4498 b1be
00000310: 6c2f 04bf 9a93 0abf 3482 23bf 552e 24bf
00000320: aeeb 65bf d52d 2dbf 8d5f e5be 356d 3fbf
00000330: ab92 3fbf 03ae 5abe e5c2 ea3e 47f5 2abf
00000340: ea4c 423f 771b 06be 0928 f1be ee1f 26bf
00000350: f894 5c3f 25ab 1cbf 7cc4 23bf fb33 09bf
00000360: c313 68bf 0092 14bf cb80 4abf 45b4 0abf
00000370: 83bf d5bd cb69 2cbf 10ed bdbe 819d 4ebf
00000380: 0eab 1fbf bbcd e1be babf d7be b889 f5be
00000390: 15a9 413c 53cc 17bf 0dd6 0dbf b67c a13d
000003a0: c5d0 55be 2de3 f9be 1330 00bf dd90 fabe
000003b0: fb66 5bbe 5b3b cbbe 97f5 1fbf 3b97 52bf
000003c0: 5a69 00bf 60d4 43bf d03c 943c 8675 0bbf
000003d0: 5a14 e0be 9d99 8fbf 2f02 86bd 1f5e f1be
000003e0: 4300 b4be 853d 33bf 1f68 f5be 3548 25bf
000003f0: 8b25 3a3e f3ed a7be 38a2 16bf bbd3 15bf
-0.37807128 0.28851026 -0.32780486 -0.36308372 -0.53440386 -0.5626656 0.5513739 -0.13574183
-0.5782819 -0.3958205 -0.45717868 -0.594739 -0.6266136 -0.40488115 -0.7773625 0.27315903
-0.44071543 -0.56062126 -0.6989142 -0.39326686 -0.6006067 -0.39470613 -0.38871577 -0.49635172
-0.3131913 -0.65074927 -0.4946555 -0.39182845 -0.041447338 -0.67430633 -0.50097716 -0.69962364
-0.64623344 -0.3285458 -0.8922935 -0.5788822 -0.5946106 -0.8474239 -0.5486552 -0.045361776
-0.5772144 -0.7663273 -0.36843896 0.16368034 -0.29126024 -0.3845757 -0.45938507 -0.3289933
-0.63736135 -0.4127082 -0.6833767 -0.59439963 -0.5508106 -0.5238024 -0.5339492 -0.6646424
-0.40399295 0.7941707 -0.23877983 -0.4020108 -0.56543905 0.10312667 -0.83552086 -0.08957649
-0.7209915 -0.22362372 -0.497564 -0.4292715 -0.14200251 0.2155435 -0.32272893 -0.05658713
-0.78976727 -0.35478717 -0.51069725 -0.8624725 -0.4880699 -0.13200584 -0.20547964 -0.047496684
-0.44712427 -0.60454136 -0.5452747 -0.43012238 -0.2964783 1.0523124 -0.70422214 0.70315826
0.50214386 -0.37436444 -1.0129299 -0.8326941 -0.5507194 -0.1686782 -0.52939105 -0.9334862
-0.7111991 -0.11773693 -0.51769704 -0.24343084 -0.7045899 -0.56373143 -0.54692614 -0.22780864
-0.5348703 -0.76204246 -0.70015585 -0.56653965 -0.4060605 0.004936003 -0.57855177 -0.9543836
-0.56294113 -0.66625077 -0.28871736 -0.501788 -0.25077757 -0.109297134 -0.3368465 -0.68904394
-0.5524688 -0.69390297 -0.545725 -0.22560917 -0.7760491 -0.6707034 -0.79261124 -0.3283624
-0.38307238 -0.09956456 -0.2889801 -0.15251888 -0.46993518 -0.374655 -0.75049764 -0.08848837
-0.22654727 -0.18237372 -0.050351966 -0.43042645 -0.5945322 -0.3300322 -0.3552891 -0.6514274
-0.5642216 -0.36478674 0.0015565853 -0.711094 -0.46725217 -0.43651 -0.9457702 -0.7497893
-0.44940117 0.25340658 -0.47197774 -0.48373842 -0.38189968 -0.8960923 -0.49435586 -0.8626201
0.5330757 -0.7992057 -0.47961026 -0.6125421 -0.61028486 -0.22033748 0.75655925 0.44448787
-0.2511475 -0.48361793 -0.9913715 -0.2620474 -0.27226353 -0.7746366 -0.5146582 -0.5774869
-0.75176185 0.04079764 -0.6753044 -0.5500031 -0.29808614 -0.26144248 -0.57079536 0.11054157
0.26624367 -0.42236647 -0.3911796 -0.7883829 -0.84293777 0.34100905 -0.32250735 -0.89401364
-0.48209253 -0.43876716 -0.3037738 -0.34686482 -0.5163486 -0.5413147 -0.6387055 -0.641332
-0.89812744 -0.6764806 -0.44799462 -0.7477601 -0.7483317 -0.21355443 0.45851818 -0.66780514
0.7589861 -0.13096415 -0.47100857 -0.6489247 0.8616481 -0.61198646 -0.63971686 -0.5359494
-0.90655154 -0.5803528 -0.7910277 -0.5418132 -0.104369186 -0.6734893 -0.37094927 -0.8070908
-0.62370384 -0.44102272 -0.42138463 -0.47956634 0.011820097 -0.5929615 -0.5540474 0.07885115
-0.2088042 -0.48806134 -0.50073355 -0.48938647 -0.21426003 -0.39693722 -0.62484115 -0.8226201
-0.50160754 -0.76495934 0.018095404 -0.544762 -0.43765527 -1.1218754 -0.06543385 -0.4714212
-0.3515645 -0.70015746 -0.47931 -0.64563304 0.18178384 -0.32798728 -0.58841276 -0.585262

fc2.weight f4 [256, 260]
00000000: 1502 ac3e f1a7 3f3f 5c2b a93e a2dd f93e
00000010: 23c1 923e cb43 b73d d6d6 48bf cec9 f63e
00000020: d863 0a3f 1166 983e 3674 de3e 3426 bb3e
00000030: 4009 c13e ac7e 2e3e 1345 0c3f 9d81 f0bd
00000040: 4a66 993e bbc7 c13e 5007 c33e 98b5 9c3e
00000050: 1d88 bf3e ac13 8f3e 5402 873e 232d f23d
00000060: 1111 b03e 5a80 b13e 54ef af3e 007d a13e
00000070: 3e21 183e 397c 903e f318 a23e a0e8 d83e
00000080: 7dcc a53e 15eb 923e f4da c03e 27f4 8e3e
00000090: b4db 873e 0050 8f3e 9158 6a3e 0091 213d
000000a0: 8fad d23e 7877 bb3e 275e 183e 2633 81bd
000000b0: 5e53 3e3e e1f6 bb3e d264 af3e 4ee2 a93e
000000c0: 5ac2 8a3e 13b5 903e 587e a73e be09 0a3f
000000d0: 7e12 403e fa1d ef3e 2de9 be3e ce2e a93e
000000e0: 1251 f73e 08ed 9fbe 1ef6 4e3e 1331 8b3e
000000f0: 12eb 243e a79b ccbd e589 9a3e d2e6 72bf
00000100: 09c3 d53e 0274 d23d f116 443e b033 2c3e
00000110: 2067 37be 5ef3 3b3d 270c b63e 8168 4a3f
00000120: 571b ea3e 4407 b83e 70fd 863e 5841 fe3e
00000130: 7afa ff3c 85a7 4f3e f77b b13d 5b54 a93e
00000140: 5099 a93e 035e 743e ef85 e03e 53bc d43e
00000150: c2ef 713e c47e 5ebf 63cb 943e 86fc 87be
00000160: cd6c aebe 2096 0c3e 46d1 f73e 5bba f33e
00000170: c291 443e 955f b93c c8f0 6a3e b3c8 0f3f
00000180: 0e5c 793e 64b1 37be 274b ed3e 93a7 963e
00000190: e432 e53e 38c6 593e 5cee 953e 5352 d33e
000001a0: cdd9 273e 5509 d13e 04e6 8b3e 3a45 083f
000001b0: 153e 8c3f 04d8 713f 3ad5 c73e c923 8f3e
000001c0: fecc 7d3e e0a3 0e3f 26e4 903e 3dd8 d93e
000001d0: 48ad de3e b04a 70be 00ac 9b3e b9d2 b23e
000001e0: 693d d43d 69e8 c23e 9274 7c3e 5e9a ed3d
000001f0: 9565 e73e 7dc6 ba3e a797 c93e 2d15 fd3d
00000200: 909e b73e b4e4 8cbf cdb2 083e 0ae7 923e
00000210: 8f32 ba3e 3005 6a3e f00a f43e 3ddd 773e
00000220: 0d33 2abc 4cc4 743e a4d9 7abe 6dd6 ae3e
00000230: f884 a03e 67d0 bc3e 4397 2d3e d663 b23e
00000240: 87cf 973e 1b00 4a3e 419d 11be e8e8 df3e
00000250: ecdd af3e 6963 7e3e 6dcc a33e 075a 9e3e
00000260: 843f 5c3f 2889 163e a173 033f 567c 603e
00000270: 421e b83e 20b5 063f 46ef 693e ad4c 003f
00000280: cb12 3d3f 1ad0 463e df87 9a3e 301c b23e
00000290: 7326 b73e 46be 833e f3a1 bebe 96de d1bd
000002a0: cd21 71be 68de ae3e 204c ec3e 7084 823e
000002b0: 4295 18bc 508c 9e3e 59aa fabc 624f 36be
000002c0: b0ae b23e 3813 3f3f 43c7 833e 6241 253e
000002d0: 5a5f 873e 54da 9c3e 459f 9f3e 75c2 523e
000002e0: 2719 ba3e cf27 a33e 4446 7c3e 1993 b23e
000002f0: 936e ce3e 0d0a 92bf de21 3fbd 1500 ac3e
00000300: c9de b63e 01e5 7a3e 38da 6a3e f65a 933e
00000310: 6bd7 323e 4921 803e 45d8 873e e4d6 b33e
00000320: 3e36 013f befd c13e bd69 1a3e 81c4 d53e
00000330: 14f8 883e e484 143e 3738 21be 031d 9f3e
00000340: 4cd4 1cbf 4421 bd3e 8fc8 253e b208 853e
00000350: 9733 2c3e 8a16 a93e 833b 893e 2c61 cc3e
00000360: 97d3 823e 0311 543e 72ef ff3e 256d 5e3e
00000370: 39e5 b1bd 8469 c13e 2db4 6f3e 4077 223f
00000380: ea77 973e 86af fd3e f871 c33e 554d 6e3e
00000390: 94ea cb3e 4462 d43e d230 1a3e 968d 163e
000003a0: 82a4 7d3e d3cb b43e b606 a53e 6eb4 943e
000003b0: e00e 383f 22f5 a43e eb63 bf3e abcf dd3e
000003c0: 7700 773e f0f0 e43e 1d0a 8abe ba3f ed3e
000003d0: a57b 5d3e 9613 243f 0ea3 5c3e 91eb 3a3e
000003e0: c31f dc3e dd9a 783e b91f 0b3f 7aab ea3e
000003f0: 511c 09bf 08e9 833e 2371 cd3e d173 b83e
0.33595338 0.74865633 0.33040893 0.48801905 0.28662977 0.08948477 -0.78452814 0.4820084
0.540586 0.2976537 0.43448037 0.36552584 0.3770237 0.17040509 0.547929 -0.11743472
0.29960853 0.37847695 0.38091516 0.30607295 0.37408534 0.27944696 0.26368964 0.118250154
0.3438802 0.34668237 0.3436228 0.3154068 0.14856431 0.28219774 0.3165966 0.4236498
0.32382575 0.28694978 0.37667048 0.27920648 0.26534808 0.27990723 0.22885348 0.039444923
0.4114804 0.36614585 0.14879666 -0.06308584 0.1858649 0.3671179 0.34256607 0.3318047
0.27101403 0.2826315 0.3271358 0.53921115 0.18757054 0.46702558 0.37287274 0.33043522
0.4830404 -0.31235528 0.20211074 0.27185878 0.16105297 -0.09990626 0.3018333 -0.94883454
0.41750363 0.10276033 0.19149376 0.16816592 -0.17910433 0.04588639 0.35556147 0.7906571
0.45723984 0.35943043 0.26365232 0.49659228 0.031247366 0.20278747 0.086662225 0.3307217
0.3312478 0.23863988 0.43852183 0.4154993 0.23626617 -0.8691218 0.29061422 -0.26559848
-0.34067383 0.13729143 0.4840185 0.47603115 0.19196227 0.022628585 0.22943413 0.5616562
0.24351522 -0.17938763 0.463464 0.29424724 0.4476539 0.2126702 0.29283416 0.41273746
0.16391678 0.40827432 0.27323925 0.5323063 1.0956446 0.9447024 0.39029866 0.2795699
0.2478523 0.55718803 0.28299063 0.4254779 0.43491578 -0.23465991 0.30404663 0.34926394
0.103632756 0.3806794 0.24653843 0.11601709 0.45194688 0.3647956 0.39373514 0.123575546
0.3586316 -1.1007295 0.13349457 0.28691894 0.36366698 0.22853541 0.47664595 0.2420549
-0.010388148 0.23903006 -0.24497086 0.3414797 0.31351447 0.36877748 0.16952233 0.34841794
0.29650518 0.19726603 -0.14220144 0.4373238 0.34349 0.2484261 0.31991902 0.3092806
0.8603442 0.14700758 0.5134831 0.2192243 0.35960585 0.52620125 0.22845182 0.50117
0.738568 0.19415322 0.30181786 0.3478713 0.35771522 0.25731105 -0.37232932 -0.10247533
-0.2354805 0.34154058 0.4615183 0.25491667 -0.00931293 0.30966425 -0.030598806 -0.1780372
0.348989 0.746387 0.25737962 0.16138223 0.26439935 0.3063532 0.311762 0.20581992
0.36347315 0.3186631 0.24636179 0.34877852 0.40318736 -1.1409317 -0.046663158 0.33593813
0.35716847 0.2450142 0.22934806 0.28780335 0.17464988 0.25025395 0.26532188 0.35124886
0.5047339 0.37888902 0.15079398 0.41751483 0.2675177 0.14503819 -0.157441 0.31076822
-0.6126144 0.36939442 0.16189788 0.25983196 0.16816555 0.33025008 0.26803216 0.39917886
0.25552055 0.20709614 0.4998737 0.21721323 -0.08686299 0.37775815 0.23408575 0.6346321
0.29583675 0.49547976 0.3817289 0.23271687 0.39827406 0.4148122 0.15057686 0.14702448
0.24769786 0.35311756 0.32231683 0.29043907 0.718977 0.32218271 0.3738092 0.433225
0.24121271 0.4471507 -0.2696084 0.46337682 0.21629198 0.64092386 0.21546575 0.18253924
0.42992982 0.24277826 0.5434528 0.4583395 -0.5355883 0.25763726 0.4012538 0.3602586

fc2.bias f4 [256]
00000000: 4f65 9abf 3217 45bf cffd 2fbf 240e b7be
00000010: 75d4 71bf e151 d5be 8480 46bf 322b 18bf
00000020: fcdd b7be 76a0 e8be 2423 88bf cea2 04bf
00000030: 6700 69bf 3037 4dbf f5cd c83c e882 a0bf
00000040: 02c5 74bf 24a0 a93d 30d3 a6bf b7b4 b9bf
00000050: 6922 5fbf f5f7 6bbf e9f6 71bf a6bb 03bf
00000060: e86e 5bbf b5e1 42bf 9891 1cbf cad5 63bd
00000070: c2d6 45bf 9284 24bf 9889 12bf edd3 15be
00000080: e489 07bf 88fe 80bf 171c 15bf c176 23bf
00000090: d9a8 36bf 8e2c b9bb eecf 4ebf bd18 45bf
000000a0: c237 413e b4dd 33bf c253 22bf 317a 8abf
000000b0: 0644 20bf ee64 ecbe 1833 67bf 0811 49bf
000000c0: 66e5 c4be e8b5 0cbf 1ab1 4bbf 266e 91bf
000000d0: 5ae1 56bf 53dd 4cbf 2987 63bf 699d 95bf
000000e0: 6e49 efbe db3b 90be 1045 16bf 7a3b e2be
000000f0: f667 57bf e834 3dbf d34d 18bf 027e 6abf
00000100: 54ef 90bf 361e 7dbf d990 5dbf 133e 69bf
00000110: 6b58 333d 4ad2 06bf c23f a3bf 0e2c 89be
00000120: f655 6ebf 2f93 debe 48aa 6bbf 7c12 9bbf
00000130: dfa4 f13d 89a2 62bf 72b7 62bf be83 02bf
00000140: 230d 53bf ee51 c0bf 4f2e b4bf e928 b8bf
00000150: e541 41bf 8c31 a93e 352d 49bf 435d 33bf
00000160: dd78 fbbe 2141 96bf 37c5 8ebf acde 3ebf
00000170: c708 33bf 678a 4dbf f357 61bf e050 f93e
00000180: a011 44be adf5 0dbf 327e a2bf c0a8 d8be
00000190: da83 e3be 7973 22bf e127 3cbf e1b8 8cbf
000001a0: 1240 81bf f2be 7bbd b904 65bf 9bb0 74bf
000001b0: 46c1 21bf 2c35 22bf dd17 febe 908e 96bf
000001c0: 23cb 3dbf ad72 fb3d 976a 6ebf 9b26 77bf
000001d0: c2eb 71bf 3534 50bf 4583 2bbf 231e 5abf
000001e0: a872 5f3e 4912 1bbf 1b18 32bf 1de6 0cbf
000001f0: 770d 48bf b8e7 81bf 166b a7be e368 5abe
00000200: 83d4 1fbf 864c 87bf 1e9b 43bf d5f6 32bf
00000210: 9a21 a2bf 812f 62bf e4bc a9be 5152 91bf
00000220: 00b4 96be b6f7 54bf 2a0e 7ebf 5d73 edbe
00000230: 0965 5bbe 9323 73bf ec2f 61bf 105c 89bf
00000240: 1bc9 56bf 13bd 45bf 5005 393d aabe 3fbf
00000250: ffdc b93e d88b 7cbf 8c95 89bf 13db 7dbf
00000260: b876 61bf 7360 0cbf 8e6b 75bf d690 4bbe
00000270: 0de9 94bf 2a5c 9dbf ec47 51bf b274 73bf
00000280: 4ad6 bebf 3f54 49bf 53a6 b6bf 90fa 81bf
00000290: 7252 5bbf b721 6abf 02c5 3fbc 1464 3fbf
000002a0: 62ce 84bf 8c83 10bf 85e1 40bf e023 13bf
000002b0: f43b 93bf 47f2 61bf 8f7b 12bf ffd2 89bf
000002c0: 3833 a9be ed30 54bf 5fc5 8abe 3c11 abbe
000002d0: a178 86be 66fd 00bf 7f54 b5bf 6940 27bf
000002e0: 1492 07bf ea8f 77bf 7de1 8ebf c484 78bf
000002f0: 85ae 86bf 5dec 95be ac23 8abf 0ee4 4bbf
00000300: 4435 2abd 74f3 dfbe 7387 7abf b3d8 3bbe
00000310: 733e bebe 477a 47bd 5146 7abe 025e 69bf
00000320: 4f27 7fbf 973c 5fbe 6290 70bf f850 57bf
00000330: c4b7 72bf 697f 3dbf e355 3abf 1fc3 5ebf
00000340: add9 cbbe c9cf 7fbe 927f 8dbf 9179 2fbf
00000350: 2776 9dbf 8031 f8be a331 aebe e075 9abe
00000360: 9e6a 3ebf 5695 9dbd dd51 05bf 36d2 3cbf
00000370: 42d4 25bf 0467 39bf 341f a2bf 455d 4bbf
00000380: 5085 76bf 5dcf 8ebf e10f afbf bb58 3bbf
00000390: 6587 0dbf c0ce 1abf 0539 30bf 719c 47bf
000003a0: 950c 04bf 60cd 92bf 0a5a 51bf c98c 6cbf
000003b0: 4f16 9ebe 262e 58bf 6ca2 99bf ec70 59bf
000003c0: 873d 9abf fdd5 bbbe 4542 88bf b545 6bbf
000003d0: bba3 4dbf 7976 043e 5f6f ad3d c331 a7bf
000003e0: d5c8 47bf 9c82 f1bd 8ded 5fbe e1e9 5abf
000003f0: 65c0 42bf a973 2bbf 88ac 66bf 39c9 6dbf
-1.2062167 -0.7698852 -0.68746656 -0.35752976 -0.9446481 -0.4166403 -0.7753985 -0.5944091
-0.35911548 -0.45434922 -1.0635724 -0.5181092 -0.9101624 -0.80162334 0.02451227 -1.253995
-0.9561311 0.082824975 -1.3033199 -1.4508275 -0.8716188 -0.9217523 -0.9451738 -0.51458204
-0.85716105 -0.7612565 -0.6115966 -0.055623807 -0.7728082 -0.64264786 -0.572412 -0.14631625
-0.5294478 -1.0077677 -0.58245987 -0.6385308 -0.7135139 -0.0056510633 -0.80786026 -0.7699087
0.18868926 -0.7026017 -0.63409054 -1.081854 -0.62603796 -0.46170753 -0.9031234 -0.7854161
-0.38456267 -0.54965067 -0.7956711 -1.136174 -0.8393761 -0.80025214 -0.88878113 -1.1688663
-0.4673571 -0.28170666 -0.5869913 -0.44186002 -0.84143007 -0.73908854 -0.5949375 -0.9159852
-1.1323037 -0.98874223 -0.86549145 -0.9111034 0.043785494 -0.52664626 -1.2753832 -0.26791424
-0.93099916 -0.43471667 -0.92056704 -1.2115016 0.11799025 -0.8852926 -0.88561165 -0.5098227
-0.8244192 -1.5025003 -1.4076632 -1.4387485 -0.7549117 0.33045614 -0.78584605 -0.7006418
-0.4911565 -1.1738626 -1.1153935 -0.7455852 -0.6993527 -0.8028931 -0.88024825 0.48694515
-0.19147348 -0.55452996 -1.2694762 -0.42316246 -0.44436532 -0.6345745 -0.7349835 -1.099392
-1.0097678 -0.061461397 -0.8946033 -0.9558198 -0.63185537 -0.63362384 -0.4962758 -1.1762257
-0.7413809 0.12277732 -0.93131393 -0.9654328 -0.9450036 -0.8132966 -0.66997176 -0.85202235
0.21821082 -0.60574776 -0.6956803 -0.55038625 -0.78145546 -1.014884 -0.32698888 -0.21329074
-0.6243364 -1.0570228 -0.76408565 -0.69907886 -1.2666504 -0.88353735 -0.33151925 -1.1353246
-0.29434204 -0.83190477 -0.9924036 -0.46377078 -0.2142526 -0.94976157 -0.8796375 -1.073122
-0.8390061 -0.7724163 0.045171082 -0.74900305 0.3630142 -0.98650885 -1.0748763 -0.99162406
-0.88071775 -0.5483467 -0.9586724 -0.1987947 -1.1633621 -1.2293751 -0.8175037 -0.9509994
-1.4909146 -0.78644174 -1.4269508 -1.0154591 -0.85672677 -0.91457695 -0.011704685 -0.7476208
-1.0375483 -0.56450725 -0.75344115 -0.57476616 -1.1502671 -0.8826031 -0.57219785 -1.0767516
-0.3304689 -0.82887155 -0.27103707 -0.33411586 -0.26263908 -0.50386655 -1.4166411 -0.6533266
-0.5295727 -0.9670397 -1.1162564 -0.97077584 -1.0522009 -0.29281893 -1.0792136 -0.7964486
-0.041554704 -0.43740427 -0.9786293 -0.18344383 -0.3715702 -0.048700597 -0.24440886 -0.9115907
-0.99669355 -0.21800457 -0.9397031 -0.84107924 -0.94811654 -0.7402254 -0.727873 -0.8701648
-0.3981451 -0.24981607 -1.1054556 -0.6854487 -1.2301682 -0.48475266 -0.34022245 -0.30168056
-0.74381435 -0.07694499 -0.5207804 -0.73758256 -0.64777005 -0.72422814 -1.2665772 -0.79439193
-0.9629717 -1.1157032 -1.3676721 -0.73182267 -0.5528472 -0.60471725 -0.68837005 -0.77973086
-0.515817 -1.1468925 -0.81778014 -0.9240232 -0.30876395 -0.84445417 -1.2002692 -0.8493793
-1.2050027 -0.36686698 -1.0645224 -0.9190324 -0.8032796 0.12935819 0.08468508 -1.3062061
-0.7804082 -0.1179249 -0.21867962 -0.8551312 -0.7607482 -0.6697336 -0.9010701 -0.92885166

fc3.weight f4 [128, 256]
00000000: 4d8c a63d 535a b03d db0f 04bc 9868 aabd
00000010: 6766 43bc b5e6 a8be 4928 063e 9a46 3b3e
00000020: 704e e5bb ac13 0e3b 6129 f3bd ed95 74be
00000030: 861b 4abe cb8c 30bc 0aa3 b9be 344e ddbc
00000040: 7a06 c43c 1cb2 22be 954c 623e 5084 733e
00000050: 03c4 f63d 6785 9b3d dc80 423e 8c27 01bf
00000060: 33e8 a13d 6a22 7b3e fa77 7a3d 404f 023e
00000070: 1c3e 97bc 4080 b5bc 408c 2bbe 5a54 403e
00000080: 80d9 443b de8c d6bd 46ac 773d 6ad2 cb3e
00000090: 72e0 493e 1c15 a9be b2af 23be 669a 8e3d
000000a0: bda3 2b3b 7fdd 15be 7c01 183d bb55 8e3c
000000b0: bc78 123e 54a4 9e3e 361a 1e3e a664 22bd
000000c0: 070d 84bd 919e 293e b3b3 203e cf61 6e3e
000000d0: 06c3 8a3d be7b a13d bfeb e93d 1b8b 5c3d
000000e0: 10b2 4439 e424 5a3e 2319 0c3c 9a5c df3d
000000f0: 1df5 063e 518b 263e 52fc 97bd dc79 103e
00000100: 2961 143e 49b6 be3d 662c c2bd 8ea1 2a3e
00000110: fa17 c13d 6fd7 5d3e 442d 843e 3097 e43d
00000120: 7740 103e ed6f 903e 5c09 db3c 9157 d4be
00000130: 6166 43bc 95cf 513d c078 e1be e926 873e
00000140: 2c78 593d 510d a33d e60c d5be 26d2 6c3e
00000150: ab6e 73bd ab11 3bbe 57fb 133e 345f 7e3d
00000160: 00b8 9abc 5ddc 3f3c ab25 c3bd 89d3 81be
00000170: a23d aabd c17b f43d 208b 0a3e 19bf 4dbd
00000180: 9c9d 32be 7d8b bbbd f81e 903e 0151 b53d
00000190: 0c2d 983c 0012 7d3e 075e 9e3d e2ea 983c
000001a0: 84d9 523e e7e6 7e3c 2a0a 5b3e ac07 88be
000001b0: b145 acbd d582 c53d 5071 3fbe 72a9 08bd
000001c0: 4afb eb3d 85ef 553e e98c 9c3d 845c c73d
000001d0: 9aab 263d 8331 dc3d c449 203e 7658 063e
000001e0: eb02 593d dcbc 053d 268f 053e 12d7 3e3e
000001f0: 9d56 27be 255b 3e3d 3826 3bbe f1b2 1abe
00000200: 96a0 c23d b3e3 8c3c bbe3 5c3e db44 1bbe
00000210: dad7 083e b05b 603d 5a79 583d 404c 163e
00000220: fd3d 88bd 7bff 78be 0c8e 503e e3f4 ab3d
00000230: 0b4d 003e f23a 5ebb cbc1 543e bf1c 493e
00000240: fe73 8a3e 763e 4e3e 59d5 0dbe 3a75 b03e
00000250: de24 253d 25e9 35be ff1f 403e 85f1 933d
00000260: 29f2 a03c 4f4c 0a3e c7e1 a5be 432e abbe
00000270: f48d 3cbc 2207 8a3e fc64 93bd 605c b53d
00000280: a1aa eabd e25e 513d 52a7 8fbd f162 eb3c
00000290: d52f bb3d 420c 283e 77be 0dbe d429 6dbc
000002a0: c354 fe3d b992 5c3e b524 253e 587c d2be
000002b0: 1e6d c03d 5469 493e f6c4 0b3e b629 6a3e
000002c0: 3d59 3fbd 88d7 8d3e 80cf 13be 4533 b33d
000002d0: 9f3c c8bd 804a 0c3e b38e 12be 7171 2fbd
000002e0: 209e 28bf 91e0 6c3d 0db1 68b9 b8f7 a13e
000002f0: db6b 363e 7013 1b3e dc3f 233e 8e97 04be
00000300: 6393 27be 46b4 c6bc 42cd e4bd d6cd 4dbe
00000310: 6b0b 083e 04ab 033e e539 04be 21bf a83d
00000320: 1b62 a4bc 1cff e73e ad29 283c 6e11 093d
00000330: 3589 e838 d4e2 4cbd 2442 043e b260 393e
00000340: a773 b13d 25f2 2abd 6ce6 e43d d47b 953c
00000350: 53b8 6f3e d898 99bc 1a9f ad3c c1af d93d
00000360: 572c 87bd 0cb1 8d3c d84c f83d 1f60 d13d
00000370: fc86 69bd d42a cb3d 7fa4 753e 8ec9 2a3e
00000380: 3122 263e 0232 27be 05e9 683e d94d c6bc
00000390: 91c7 603e b88c 42bd 695b ec3d e314 223d
000003a0: d4e6 0bbe cb67 6f3d a2b1 823d 7d8a 873e
000003b0: b734 413e 5482 633b 3843 edbc d5d8 493e
000003c0: e7f3 76be fff9 98be 08e8 6bbe 8bc4 c83d
000003d0: 80b0 9e3c de5a 743e 7a78 633e 959b 3cbc
000003e0: c7cd 113e 4c55 d23c 273c 5abd 12d9 013e
000003f0: 5ced f73d a7f7 193d e113 2a3e c45c 793d
0.08132229 0.08610978 -0.008060421 -0.08320731 -0.01192627 -0.32988515 0.13101305 0.18288651
-0.006997876 0.0021679206 -0.11873127 -0.23885317 -0.19737062 -0.010775755 -0.362572 -0.02701483
0.02392887 -0.15888256 0.22099526 0.23780942 0.12049105 0.07593804 0.18994468 -0.5045097
0.079056166 0.24524847 0.061149575 0.12725544 -0.018462233 -0.02215588 -0.1675272 0.18782178
0.0030036867 -0.10476087 0.060467027 0.3980897 0.19714525 -0.33023918 -0.15984991 0.06963043
0.0026190125 -0.14635275 0.03711079 0.017374864 0.14303869 0.30984747 0.15439686 -0.039646767
-0.06447797 0.16564395 0.1569355 0.23279499 0.06775479 0.0788493 0.11421918 0.0538436
0.0001875835 0.21303135 0.008550915 0.10906334 0.13179441 0.16264082 -0.07421173 0.14108986
0.14490189 0.09312112 -0.094811246 0.1666319 0.09428401 0.21664213 0.25815785 0.11161649
0.14087091 0.28210393 0.026737861 -0.41473058 -0.0119262645 0.051223356 -0.44037437 0.26396874
0.05309312 0.07961524 -0.41611403 0.2312704 -0.059431713 -0.18268459 0.14451347 0.06210251
-0.018886566 0.011710254 -0.09528669 -0.253567 -0.08312537 0.11937667 0.13529634 -0.050231073
-0.17442936 -0.09157465 0.28148627 0.08853341 0.018576168 0.24713898 0.07732778 0.018666688
0.20590788 0.015557981 0.21390596 -0.26568353 -0.0841173 0.09644095 -0.18695569 -0.03336472
0.11522539 0.2089215 0.07644064 0.09734443 0.040690996 0.10751631 0.1565314 0.13119683
0.0529813 0.032650813 0.13042888 0.1863673 -0.16341634 0.04647364 -0.18276298 -0.15107323
0.095032856 0.01719842 0.21571247 -0.15162985 0.13363591 0.05477494 0.052850105 0.14677525
-0.06652448 -0.24316208 0.20366687 0.08396318 0.1252939 -0.0033909646 0.20777051 0.19639872
0.2704162 0.20141014 -0.13850917 0.34464437 0.040318362 -0.17764719 0.18762206 0.072238006
0.019646721 0.13505672 -0.32398817 -0.33433732 -0.011508454 0.26958567 -0.071969956 0.0885551
-0.11458326 0.051115878 -0.07014336 0.028733702 0.091399826 0.16410926 -0.13842188 -0.014475305
0.12418511 0.21540345 0.16127284 -0.41110492 0.093958125 0.19669086 0.13649353 0.22867474
-0.046715964 0.277035 -0.14434624 0.08750013 -0.097771876 0.13700294 -0.14312248 -0.042832796
-0.6586628 0.05783135 -0.000221912 0.31634307 0.17814581 0.15144134 0.15942329 -0.12948439
-0.16364817 -0.024255883 -0.11171962 -0.20098051 0.13285606 0.12858206 -0.1291271 0.0823958
-0.020066312 0.4531182 0.0102638425 0.033463888 0.00011088179 -0.050021008 0.12915856 0.18103293
0.08664637 -0.041734833 0.11176762 0.018247522 0.23410158 -0.01874964 0.02119403 0.106292255
-0.06600254 0.017296337 0.12124032 0.10223412 -0.057013497 0.09920278 0.23988532 0.1667845
0.1622398 -0.1632767 0.2274514 -0.024207043 0.21951129 -0.04749748 0.115408726 0.0395707
-0.13662273 0.058448594 0.06381537 0.26472846 0.18867765 0.0034715133 -0.028962716 0.19711621
-0.24116479 -0.29878232 -0.23037732 0.098031126 0.019371271 0.23862788 0.22213927 -0.011511703
0.14238654 0.025675438 -0.053280022 0.12680462 0.121058196 0.037589695 0.16609146 0.060879484

fc3.bias f4 [128]
00000000: 5d96 c2be 01be 3dbe b639 dfbd f677 533d
00000010: 4b43 dabe f0b4 d6be 854f 9dbe 6ca4 bbbf
00000020: cbef 7cbe 01b1 54be 07d9 8bbe 5ddf 13be
00000030: 52aa b5bf 9901 8dbe 72a1 0abe 0cba 9abe
00000040: ee1b fbbd 8eae 85be 07ac b8be 109c 4cbe
00000050: b05e d9bd a9a4 32be f6f1 06bf 3bef 8dbe
00000060: 317c 773f 73de 423f 8e74 03bf 393e 82be
00000070: 2c5c b6be b138 8ebe a05a 25be 3e96 1fbe
00000080: dd76 5fbe 957f 5ebe 2781 483d 5377 a2be
00000090: faed 1bbe 31b7 8fbe a4c8 77bf 3908 b0bd
000000a0: a445 4bbe 902a dbbd 0d86 d0be f32d 51be
000000b0: 46ad a6be 80e0 8abe fb46 98be e69a 80be
000000c0: bee0 84bd 8e30 96be 8810 10be b533 56be
000000d0: f3f6 40be ee50 efbd b1e6 cfbd 115b 13be
000000e0: 72dc c0bf 5113 4cbe 22d0 8abe 84b7 15be
000000f0: f002 85be e192 49be 62f8 2cbf 3bfd 04be
00000100: e4d0 26be 939b 2abe cae4 e5bd b3c9 b0bd
00000110: 73b5 57bd 202f 6abe 881d 3abf b991 1fbe
00000120: 6889 7c3e fbf0 33be 4b8c 87bf c78a 50be
00000130: f406 7dbe 2597 b9be c777 1fbf d2c5 c2be
00000140: 7df7 3abe 1bf6 46be d3ce a5be 574f 8dbe
00000150: 4f4d 88be d73f 09be d5e3 52bd ccfe 88be
00000160: 0be7 07be b60f 0abe a7ec 9ebe f0d8 d9bf
00000170: 7c73 0ebe 3397 90be d2c3 c3be 70ef 92be
00000180: 830f eebe 9597 69be 53cc 8bbe 0cc8 e5bd
00000190: 888c b8be bb83 21bf fc4f 32be 71f7 41bf
000001a0: c805 c8bd de4b 87be f939 7fbe eba7 08be
000001b0: 3708 9abf 5711 ccbe 5fbf 8bbe 0036 20be
000001c0: 39b8 85be 2658 0ebf 66af 9ebe 27aa 83be
000001d0: 7ae0 6dbe 0041 51bf ef80 64be 3b25 a4be
000001e0: 4279 92be eb28 82be 95cd 02be f476 84be
000001f0: 61c2 49be 71dc cbbe e419 9abe 8385 94be
-0.38005343 -0.18529512 -0.10899679 0.051628076 -0.42629465 -0.4193492 -0.3072473 -1.4659553
-0.24700849 -0.20770647 -0.27314016 -0.14440675 -1.4192603 -0.2754028 -0.13538149 -0.30220068
-0.122611865 -0.26109737 -0.36068746 -0.19981408 -0.10613763 -0.17445625 -0.52712953 -0.2772158
0.96673876 0.7612068 -0.51349723 -0.25438097 -0.35617197 -0.27777627 -0.16147852 -0.15584657
-0.21822686 -0.21728356 0.048951294 -0.31731662 -0.152275 -0.2806945 -0.9679053 -0.08595318
-0.19850785 -0.107014775 -0.40727273 -0.20427684 -0.32554072 -0.27124405 -0.29741654 -0.25118178
-0.06488179 -0.2933392 -0.14068806 -0.20918162 -0.18844204 -0.11685358 -0.10151423 -0.14390208
-1.5067275 -0.19929244 -0.27111918 -0.14620787 -0.25978804 -0.19684936 -0.675665 -0.12987225
-0.16290623 -0.1666091 -0.11225279 -0.08632221 -0.052663278 -0.2286954 -0.7270131 -0.15582933
0.24661791 -0.17572396 -1.0589689 -0.2036544 -0.24709684 -0.36248127 -0.6229214 -0.3804155
-0.18258472 -0.1942982 -0.32384357 -0.27599594 -0.26621482 -0.13403259 -0.05148681 -0.26756895
-0.1327173 -0.13482556 -0.31039926 -1.7019329 -0.13911241 -0.28240356 -0.38235337 -0.286983
-0.4649621 -0.2281173 -0.27304325 -0.112197965 -0.36044717 -0.6309163 -0.17413324 -0.7576819
-0.09766728 -0.2642507 -0.24924459 -0.13345306 -1.2033757 -0.3985698 -0.27294442 -0.156456
-0.26117113 -0.55603254 -0.30993193 -0.25715753 -0.23230162 -0.8173981 -0.2231481 -0.32059655
-0.28608137 -0.25421843 -0.12773736 -0.25872004 -0.19703056 -0.3981662 -0.30097878 -0.2900811

fc4.weight f4 [1, 128]
00000000: 4c00 3bbb c435 bebb e292 013c e591 133d
00000010: 162b 8c3c eb04 dfba e6ab 373d 69da fc3c
00000020: 3d17 a0bb 62d5 ea3c 87b7 de3c 2261 c83b
00000030: 1136 19bd 0319 29bb 0c30 16bb 63ec 253c
00000040: cee3 41bb 1fa6 38bd 20f4 18b9 ac9e 133a
00000050: a25c 12bc dc5e 013c a946 45bc d1a8 ed3b
00000060: 5f64 483d cd6e 043d 2f23 c33d 3ddf 0abc
00000070: aa58 0bbb b3d9 8abc d723 fb3b e4b6 f539
00000080: 3c46 313c 372b cdba b556 46bb a28e b1bc
00000090: d5a2 61bb b60d c5bb 635f 683e 891a b03c
000000a0: 508f 65bd a710 af3b c8c4 4a3c a003 b0bb
000000b0: f36d 763c b4d0 3c3d ec3a c0bb edaf 4cbb
000000c0: e308 16bc cd57 4ebd 7869 03bb 3320 f9bb
000000d0: cdbf b03c 99e4 9e3b 8f23 adba c41b 76bb
000000e0: f2bf 32be 7a0b 423d fc6e 72bb 6e6d 9dbc
000000f0: a46a 0d3a abca 4b3b 6ba4 f5bc b454 6839
00000100: 2a6f 643c bfea b9bb 06c2 0fbc c53b 86bb
00000110: fa65 363c 89dc c33a 0666 2d3c 41d6 573c
00000120: c0ab 033c 8b9b df39 2393 55bc b2c6 1b3c
00000130: 65b4 1b3c fcfa f5bb 4fbb edbc 4075 d63a
00000140: 3f6e 48bc 6337 a7bb 9714 a13c 52aa 473d
00000150: 16dd dfba 6ba0 c93c 6749 13bb 92c4 6dbb
00000160: f04e a63b ca39 2ebb f0e8 d23b 78df 9bbd
00000170: 2642 9cba 86e6 2fbc 64d3 7dbc 1c2b c83b
00000180: 5560 673d 0cc1 b2ba 6bc9 2bbc ab4d e13a
00000190: d183 b4bb e939 343c f489 da3a cf08 6d3e
000001a0: 2852 5cbc 720f ac3d c97e cdb9 1fd4 0bbb
000001b0: d1af 233e 8d5c 553d 7d38 193a 9091 90bb
000001c0: 00f4 2cbc 9b87 df38 1a89 e5b9 1d46 ac3b
000001d0: 3bf4 1b3c e42b 5fbc f572 e7ba b137 c03a
000001e0: 6c34 4b3d 013a d5bc 8967 01bb 926b 3dbb
000001f0: 8c0b 63bb f133 8f3d 26e7 833d 9f9c 87ba
-0.0028534112 -0.005804749 0.007908555 0.036027808 0.017110389 -0.0017015015 0.04484167 0.030865865
-0.0048855827 0.028666202 0.027187122 0.0061150948 -0.037405077 -0.0025802262 -0.0022916822 0.01012716
-0.0029585245 -0.0450803 -0.00014586793 0.0005631249 -0.008933218 0.007896151 -0.0120407725 0.0072527905
0.048923846 0.03233223 0.09528195 -0.008476076 -0.0021262565 -0.01694951 0.0076641846 0.00046866306
0.010819968 -0.0015653138 -0.0030264084 -0.021674458 -0.003442933 -0.0060135974 0.22692637 0.021497028
-0.056044877 0.0053425613 0.012376018 -0.005371526 0.015040862 0.046097472 -0.005866399 -0.003123279
-0.009157392 -0.050376702 -0.0020051878 -0.0076027154 0.021575833 0.0048490283 -0.001320945 -0.003755317
-0.17456034 0.047374226 -0.0036992421 -0.01921722 0.0005394614 0.0031096141 -0.029985627 0.00022156799
0.013942519 -0.005673736 -0.008774286 -0.0040964806 0.011132712 0.0014943044 0.010583406 0.013173641
0.008036554 0.00042649763 -0.013035568 0.009507822 0.009503459 -0.0075067263 -0.02901998 0.0016361848
-0.012233316 -0.005103038 0.019663138 0.048746414 -0.0017079439 0.024612626 -0.002247417 -0.0036280495
0.005075328 -0.0026584738 0.0064364597 -0.07610983 -0.0011921569 -0.010736113 -0.015492294 0.0061086547
0.056488354 -0.0013637855 -0.0104850335 0.0017189285 -0.005508878 0.011000135 0.0016673193 0.23147891
-0.013447322 0.084013835 -0.0003919511 -0.002133615 0.15985037 0.052090216 0.0005844904 -0.0044118837
-0.010556221 0.00010658727 -0.00043780432 0.0052573816 0.009518678 -0.013621304 -0.0017658161 0.0014665035
0.04961054 -0.026028635 -0.001974555 -0.0028903228 -0.0034644334 0.06992329 0.064405724 -0.0010346359
