p3_collab-compet/weights/checkpoint_critic_1.pth (torch_old, 450860 bytes, 7 tensors)

fcs1.weight f4 [256, 48]
00000000: f642 babe c7aa 6ebd 6530 b5be c409 90bd
00000010: 2882 1dbf 6820 813e 7ba4 a3be 70a4 16be
00000020: 0836 153c 5ff5 a93e 3d97 2ebe 655e 95be
00000030: dd3b 00bf 3249 cebe 8545 03be adf3 c0be
00000040: cd0f 513e df49 053f 3b81 57be d0f1 9bbe
00000050: 7425 bb3e 3088 dbbf 17f4 1ebe b15f 91be
00000060: de2f 2fbf b678 433f 19a3 083e 0d80 a6bd
00000070: 611d b73e 310b 9c3e 0f86 5d3e 50d3 90bd
00000080: 2931 bdbe be95 8e3f 6132 c5bd 3889 febe
00000090: 8b5d 3e3e 42e0 eebe 004c 71bd 3ba2 02bf
000000a0: f75b 7a3d 9880 493f c3c4 24bf 312d 8abe
000000b0: 213d d5bf ad61 e9bf 316d 14bf 0d9a 8dbe
000000c0: 31df 47bf 1e1f 10bf eacf 8abf 7e15 1fbe
000000d0: ea21 f3be b278 2e3f 5729 7ebf 49e2 1cbe
000000e0: 1679 0bbf b763 fdbd 5da5 37bf 8430 a0be
000000f0: 6cb0 9cbe 5d93 7c3c b32a 3fbf aceb b6be
00000100: 8a67 c0be 14ec 71bd 822e dcbe 680a 03bf
00000110: 8178 84bb fa24 abbf 3a8e f4be 90fb fabe
00000120: 56c7 96bf 9c94 243f 239f 1fbf 8efd bc3e
00000130: 52b7 aebd 7199 353f 1fd5 24bf 3ef6 a03e
00000140: c1f4 a63d cdca 9c3f c1b7 833e f5c1 583c
00000150: 58bf 17be a71a 67bd 3b26 783e 591f dcba
00000160: f6ef ec3e e233 8e3f 3dc4 5b3d bb29 96be
00000170: fe44 87bf 86c0 a7bf 439c 323d 3685 c0be
00000180: 4cb4 e43c a4c5 1d3f 8127 20bd 95f7 65bb
00000190: fcbf 4d3f 6d91 3fbf ad77 aabd c90a b03c
000001a0: 7352 a1bf 9b93 b2bd 0284 b3be 86f2 19bf
000001b0: d04b dd3e 8eb2 5bbf 8a16 d4be b46d 11bf
000001c0: b698 8bbf e2cc c8bf 3212 cf3e 648f 56bf
000001d0: 104a 15bd 5041 aabf 7041 da3e 5333 5cbf
000001e0: f6fe 0d3f 3dd7 4c3f d573 f13e 3603 8bbe
000001f0: 28cf 41be b874 37bf 5d0f 003f 2da6 85be
00000200: 899d fcbf adc9 e93e 61d2 8fbf 2280 99be
00000210: 14a0 b33e ca02 5fbf da7b 89bf fb03 b9be
00000220: 131b f23e a198 963e 9189 c53f a710 973c
00000230: 70ab 173f f41b aebf 504d c83f 2d11 ed3d
00000240: 4623 c4be c887 3dbe 8149 5dbe 0d01 2dbd
00000250: b1e7 0abf b930 1a3f e47d 32be ef96 0fbe
00000260: 7183 8f3a cf5e 913e 82e0 43be 25d4 94be
00000270: 2dff dcbe 0d56 0e3d 1b39 86be aff9 59be
00000280: c982 dd3e 4e5c cf3e e606 f7bd 61d3 aebe
00000290: cbf0 033e f292 a0bf 265c 80bd f163 ccbe
000002a0: 7ec2 0ebf f1fd 8bbd 02a8 1bbe 4b1e 013e
000002b0: f5c7 c3bd 284f 283f 56ca 14be 35be 3b3e
000002c0: 67be 0dbe 8b8c c13e 6d05 8c3e 7535 babd
000002d0: 2155 cfbe d24d 943c fafd 953e b381 0bbe
000002e0: 613d 923c 210f 123e 1944 6abe cd89 eebe
000002f0: f2dd c4bf 7765 99bf 94ed 85be a0c4 0fbf
00000300: 073f cb3b 423b 8cbe 57fc 5dbe 62c1 8a3c
00000310: 4107 37bf ad7f 173f 3950 31be fc34 44bd
00000320: 5bc1 1e3d b353 e93d 2ebd 69be aeee 17bd
00000330: 16e7 00bf 420a 98bc b675 b1be 1f80 ebbc
00000340: 6a15 a63e e8a2 aa3e 640a dcbb f810 293e
00000350: b245 6fbc ac93 9ebf 0548 673b 4826 253e
00000360: 8201 593e a424 89be 5ac5 c23b 35a9 adbe
00000370: 77c8 193e 4760 123f 56c9 8ebc 5cc2 cbbe
00000380: 1b39 cebd 7098 94be 46f1 073d ea4f 0dbf
00000390: e869 68be f4e6 463d 621d aa3d b41a 03bf
000003a0: cca6 583d 6e06 0cbf 500b aebd c23c b0be
000003b0: 646d aebf 0e7d 96bf e4f9 1bbe fc42 8bbe
000003c0: dcc8 7ebe 7d2e a4be 0487 0c3e 9d68 7cbe
000003d0: d9cd 7dbf aa2e 303f 08f5 4d3e aa82 86be
000003e0: 3871 45be 0eaf 613d f03d 25bf d7f8 6cbe
000003f0: 4626 edbe 986d d2ba 0181 32bf 0ef8 97be
-0.36379212 -0.058268335 -0.35388485 -0.07033113 -0.6152673 0.25220037 -0.31961426 -0.14711165
0.00910712 0.33195016 -0.1704988 -0.2917358 -0.50091344 -0.4029022 -0.12819488 -0.3768591
0.20416184 0.52065843 -0.21045391 -0.30457926 0.36552012 -1.7150936 -0.155228 -0.2839332
-0.68432415 0.76356065 0.13343467 -0.081298925 0.35764602 0.30477288 0.2163317 -0.07071555
-0.3695157 1.1139448 -0.0962875 -0.49714065 0.18590371 -0.4665547 -0.05891037 -0.51028794
0.06112286 0.78711843 -0.64362735 -0.26987603 -1.665928 -1.8232933 -0.5797911 -0.27656594
-0.7807494 -0.5629748 -1.08447 -0.15535542 -0.47486812 0.68152916 -0.9928183 -0.15320696
-0.5448164 -0.12372535 -0.717367 -0.31287014 -0.3060335 0.0154159935 -0.7467453 -0.35726678
-0.37578994 -0.059063032 -0.43004233 -0.51187754 -0.0040426855 -1.3370659 -0.4776476 -0.49020052
-1.1779583 0.6428926 -0.623522 0.36912197 -0.08531059 0.7093726 -0.64387697 0.31437868
0.08152152 1.224939 0.2572613 0.013229837 -0.14819086 -0.056421902 0.24233334 -0.001679401
0.46276826 1.1109583 0.053653944 -0.29328713 -1.056793 -1.3105628 0.043606054 -0.37601632
0.027918003 0.616297 -0.039100174 -0.0035090197 0.8037107 -0.7483128 -0.083236076 0.021489518
-1.2603287 -0.0871956 -0.3506165 -0.60135686 0.43221903 -0.8581933 -0.41423446 -0.5680802
-1.0905979 -1.5687525 0.4044357 -0.83812547 -0.036447585 -1.3301182 0.4262805 -0.86015815
0.55467165 0.8001593 0.47158685 -0.27150887 -0.1892668 -0.71662474 0.5002344 -0.26103345
-1.9735576 0.4566168 -1.1236078 -0.2998057 0.35083067 -0.8711363 -1.0740921 -0.3613585
0.4728628 0.29413322 1.5432607 0.018440558 0.5924597 -1.3602281 1.5648594 0.11575542
-0.38308161 -0.18508828 -0.21610071 -0.04223733 -0.54259783 0.60230595 -0.17430836 -0.1402242
0.0010949207 0.28392646 -0.19128612 -0.29068103 -0.43163434 0.034750033 -0.26215443 -0.21286653
0.43263844 0.4050011 -0.12061863 -0.34145644 0.12884824 -1.2544844 -0.06267576 -0.3992
-0.5576552 -0.06835545 -0.15200809 0.12609212 -0.09559623 0.6574578 -0.1453031 0.18334277
-0.13842164 0.37802538 0.2734789 -0.09092227 -0.40494636 0.018103514 0.2929533 -0.13623695
0.017851533 0.14263584 -0.2287754 -0.4658951 -1.5380232 -1.198409 -0.2615782 -0.561594
0.006202582 -0.2738896 -0.21678291 0.016937915 -0.71495444 0.5917919 -0.17315759 -0.047902092
0.038758617 0.113929175 -0.22826073 -0.037092857 -0.5035261 -0.018559579 -0.3466012 -0.028747616
0.32438213 0.33327413 -0.006715106 0.1651038 -0.014604019 -1.2388816 0.003529073 0.16127884
0.21191981 -0.26785767 0.0059439363 -0.33918157 0.15017878 0.5717816 -0.017429989 -0.39796722
-0.10069486 -0.2902255 0.03318908 -0.55200064 -0.2269665 0.048560098 0.083063856 -0.5121262
0.052893445 -0.5469731 -0.084982514 -0.34421355 -1.3627133 -1.1756914 -0.15232044 -0.27199543
-0.2488131 -0.32066718 0.1372338 -0.24649282 -0.99142224 0.68821204 0.20113003 -0.26271564
-0.19281471 0.055098586 -0.64547634 -0.231418 -0.46318263 -0.001605439 -0.69728094 -0.29681438

fcs1.bias f4 [256]
00000000: 9686 86be 5ca7 97be 3ff4 e73e d608 f8be
00000010: a9b7 2dbf c4b0 f4be 2a57 72be 5b63 293e
00000020: 2846 6abe 2e71 acbe 0b7f e9be beb9 44be
00000030: 5ac0 16be db80 d1be 0c01 23bf 38ab 2abf
00000040: 9890 39bf d3b6 eabe 08a4 fd3e 4813 fd3a
00000050: 58cf 33bf 0d76 b1be 038b a0be 9acb 37bd
00000060: efcf febc 7777 3cbe de7f cebe 7a06 c7bd
00000070: 85fd 833e f57a f2be 6d5d 2ebf afac ccbe
00000080: 51d6 acbe ae4d a7be 1cc6 dcbe d05b b7be
00000090: 434b 873e 3b89 f0be 53ab 90be b6db 1fbf
000000a0: 9cf5 50bf 93fd 18bf 49d0 683d 2c45 93be
000000b0: ec11 44be 7f86 f8be 541d c3be 24ef 11bf
000000c0: 8fef aebe 0965 13bf 1abd b8be 1ee4 2fbf
000000d0: 25f9 45bf 1996 c3be a52c a6be bf6f 23bf
000000e0: 0911 a5be ef5b db3c 1c59 72be 6b57 96be
000000f0: 602e 3cbf ec5a 5dbe ef71 ffbe d088 62be
00000100: 6d58 1abf d67f 39bf 08ca 32be db21 0cbf
00000110: d0d4 e3be af90 babe 2b84 1cbf b05f a0be
00000120: 06c1 04bf 5311 65be e0c6 06bf 59d6 39bf
00000130: af60 51bf e38e 0abf 0286 813f d68b 873d
00000140: 4115 13be 98bf 2bbf 3a3f 3bbf 2a0f bdbe
00000150: 331f 5bbe 4c6b 183e 9c3e d5be 72db fbbc
00000160: 6d84 03bf f5cc a5be 23fa 6abe debf 01bf
00000170: 0aa7 813f 1f3c afbe 0654 bdbe e692 32bf
00000180: 3bbc f1be 4ff7 313d 8623 edbe cd41 533c
00000190: 76a0 3ebe 67ec 8dbe b973 a1bd f493 01bf
000001a0: ac10 40bf f945 dc3e 55eb 34bf 2931 40be
000001b0: 82fd 0fbe 6d7c 12bf 5b6a 2dbf 2648 1cbf
000001c0: 57b5 07bf 5d81 48be 0b4c 023e ed58 e8be
000001d0: fb52 5c3e db3a 263e f50b 2ebf 0785 fabe
000001e0: 7993 17bf 2ee4 22bf abf3 e5be fdd7 d8be
000001f0: 813a de3a fa8f cbbe 78c6 03be 9b37 42be
00000200: 740d 84be c698 40be b26f 01bf 97af 9bbe
00000210: f3a1 ecbd c446 09be eb62 f3be 436d 28be
00000220: 151a 113f 289a 03bf 83f7 b1be 7bc2 eebe
00000230: b59c 2fbf b763 02bf d3e2 86be 23e4 49bf
00000240: 455a 6f3d fa57 02bf 4004 f2be ed55 11bf
00000250: dfe8 41be 7867 c3be 377f 25bf be42 043f
00000260: 2103 0cbf c07c a0be c05c 19be 9fd2 a4be
00000270: 2bd5 51be 535c e8be 4173 f1be 3026 46bf
00000280: 54f7 19be db2b 60be b730 213f 156a 1dbf
00000290: 995c 39bf 2ec8 a6be 3eb3 84bd e408 6fbe
000002a0: e097 45bf f5ba a7be 6fdc a2bf 8e82 97be
000002b0: 9b4c 9b3e db84 0cbf 53d2 20bf 6de9 3cbf
000002c0: 10dc 78be 4589 36bf c6e1 ae3e b640 1abe
000002d0: 5125 80be d697 11bf 04d5 f6be 02c9 3b3f
000002e0: 5e3e 603d 1ee7 c5be 5c66 09bf 35b5 72be
000002f0: f130 2fbf e7a6 e1be a733 97be 2982 a3be
00000300: f542 e0be dca9 8fbe e5d0 e13a 862a 093f
00000310: 4933 3b3d 782b 6d3e cb8c ebbe 1271 0abf
00000320: 9677 2fbe 6480 c2be 69dd 2abf f4cd 37be
00000330: dda9 ecbe 6982 d4be 0ef6 36be 25c5 70be
00000340: 1420 f8be 0f91 1bbf d246 ba3e fcd8 cdbe
00000350: bc00 d03e 7c9f 54be f4db 84be 4464 af3e
00000360: 343e 2dbf eed1 69be d588 1ebf 6db3 fcbe
00000370: 620a febe 1eee 7dbe 64a7 1abf 739a bebe
00000380: ed6d dfbe 00e0 2bbf c675 6abc 7612 01bf
00000390: c92d ebbe ccf6 c0be 6d62 32bf 62d7 f93d
000003a0: 452e cebd 76da bdbe 20cc b9be 20f9 b4be
000003b0: dd2e bd3e cfc7 97be ef71 46bf 71f5 0fbf
000003c0: a0f5 3cbf 04c3 1ebf 5db2 a0be 7d81 00bf
000003d0: aa29 0abf a971 3cbf 457d 74be 090d ecbe
000003e0: 6d78 91bf 180f 2abf 62cf 0ebf 798c cbbe
000003f0: c5e9 713e 2f83 59be 872a 37bf 74a3 0bbf
-0.26274556 -0.29619873 0.45303532 -0.4844424 -0.6785837 -0.4779111 -0.23666063 0.16541807
-0.22878325 -0.336801 -0.4560474 -0.1921148 -0.14721814 -0.4091862 -0.6367347 -0.6666751
-0.7248626 -0.4584261 0.49539208 0.0019308114 -0.70238256 -0.34660378 -0.31356058 -0.044871904
-0.03110501 -0.18404947 -0.4033193 -0.09718032 0.25779358 -0.47359434 -0.68111306 -0.39975497
-0.3375726 -0.32676452 -0.43119895 -0.35812235 0.26424608 -0.469797 -0.2825571 -0.6244463
-0.8162477 -0.59761924 0.05683926 -0.2876371 -0.19147462 -0.48540112 -0.38108313 -0.57005525
-0.34167144 -0.5757604 -0.36081773 -0.68707454 -0.7733329 -0.38200453 -0.32455936 -0.63842386
-0.3223956 0.026777236 -0.23666805 -0.2936357 -0.7350826 -0.21616715 -0.49891612 -0.22122502
-0.6029118 -0.7246069 -0.17459881 -0.5473916 -0.444983 -0.3643851 -0.6113917 -0.31323004
-0.5185703 -0.2236989 -0.5264721 -0.72592694 -0.8178815 -0.5412428 1.0119021 0.066184685
-0.14363576 -0.67089224 -0.7314335 -0.36925632 -0.2139862 0.1488468 -0.4164933 -0.030744288
-0.5137394 -0.32382932 -0.22946982 -0.5068339 1.0129101 -0.34225556 -0.36978167 -0.697554
-0.4721392 0.043448742 -0.46316165 0.012894106 -0.18615898 -0.27719423 -0.078834005 -0.50616384
-0.7502544 0.43022135 -0.7067159 -0.18768753 -0.1406155 -0.5722111 -0.6774041 -0.6104759
-0.5301108 -0.19580598 0.1272432 -0.45380345 0.2151603 0.16233389 -0.67986995 -0.48929617
-0.592094 -0.63629425 -0.44912466 -0.42352286 0.0016954691 -0.39758283 -0.12868679 -0.18966524
-0.25791514 -0.18808278 -0.5056106 -0.30407402 -0.11554327 -0.13405901 -0.47536406 -0.1644793
0.56680423 -0.514071 -0.3475915 -0.46632752 -0.6859849 -0.509334 -0.26344928 -0.78863734
0.058435697 -0.5091549 -0.47268867 -0.5677174 -0.1893649 -0.38164878 -0.6464724 0.5166434
-0.54692274 -0.31345177 -0.14976788 -0.3219194 -0.20491473 -0.45382938 -0.47158244 -0.7740202
-0.15035754 -0.2189173 0.6296496 -0.61489993 -0.7240692 -0.325746 -0.064795 -0.23343235
-0.7718487 -0.32759824 -1.2723521 -0.29591793 0.30331883 -0.5489022 -0.6282093 -0.7379368
-0.24302697 -0.71303207 0.34156626 -0.15063748 -0.2502847 -0.5687231 -0.48209393 0.7335359
0.054746978 -0.3865289 -0.53671813 -0.23701937 -0.68434054 -0.4407265 -0.29531595 -0.31935242
-0.43801084 -0.2805928 0.0017228393 0.5358051 0.045703206 0.23161113 -0.46005854 -0.5407878
-0.17135462 -0.3798858 -0.66744095 -0.17949659 -0.46223345 -0.41505745 -0.178673 -0.23512705
-0.48461974 -0.60768217 0.36382157 -0.40204608 0.4062556 -0.20763963 -0.2594906 0.34256184
-0.6767304 -0.22833988 -0.6192754 -0.4935564 -0.49617296 -0.24797866 -0.6041167 -0.3722721
-0.43638554 -0.6713867 -0.014310306 -0.50418794 -0.4593337 -0.3768829 -0.69681436 0.12199284
-0.10067419 -0.37080735 -0.36288548 -0.35346317 0.36949816 -0.2964463 -0.775176 -0.5623389
-0.73812294 -0.6201632 -0.3138608 -0.50197583 -0.53969824 -0.7361093 -0.23875912 -0.46103695
-1.1364876 -0.6642928 -0.5578519 -0.3975561 0.23624332 -0.21241449 -0.71549267 -0.54546285

fc2.weight f4 [256, 260]
00000000: 0579 043f 3996 ab3e a5fd 5abc c3a0 253f
00000010: 4d8e f63e 8f1f 803f cb7a 983c ff59 bf3d
00000020: 139b 983e 8cd5 2a3e 1e11 043f 0d38 40bf
00000030: 78b2 bebe 7cbe bb3e a468 3e3f a169 333f
00000040: 50e1 1b3f 94d9 90bd 256c 34c0 05aa d93d
00000050: 15a7 9bbd 3349 b03d 62f8 333f c5b2 96bd
00000060: 65b0 77bd 4229 d63e 0a54 813e 6351 873e
00000070: 66cd 1bbf 86c4 a53e 5811 133f 60cc 863e
00000080: cea2 ed3e 56e1 c93e 04bd 073f 1d63 163f
00000090: 7ae2 7a3e 5894 fd3e 53a0 d73e 938c 733f
000000a0: 7fc4 5e3f 86c7 613f 3d0d d3be 0485 0d3f
000000b0: 346c 903e 008d 0c3f d29a 463f 9953 113f
000000c0: d066 3c3e b31d 4d3f e362 833d 6db3 683f
000000d0: 404e 113f e3aa b1bd 3edf 8d3d fa68 2d3f
000000e0: 2711 f73e 694e 3a3e 6503 e03d c89c 653f
000000f0: b4b0 403f cef8 8d3e f48c 3c3e 004f 75b9
00000100: 7b6b 233f 314d 0b3f 9c48 cd3e dffa 683e
00000110: aca1 603e acb6 243f 15ab 443f 0164 f33e
00000120: 66fd 253e 16e6 093f 179f 3b3e c7d2 413f
00000130: 0106 273f c561 613f cdf6 b6bf cc4a f63c
00000140: 5844 b63e f980 f73e 573b 4e3f 4e45 df3e
00000150: 9ada 473d 6dad 10be 2a0d 1e3e 77de 203c
00000160: 1595 633f 6bf3 873d d15b 87be c797 2e3f
00000170: f4a4 cabe d572 153f fdcc f03e d580 ce3e
00000180: 550a b43e 84fe 063f 364f 803e 73ce b93e
00000190: 6ae4 853e 410e b33d 9b86 debd d5c2 153f
000001a0: f93b 123f b91b 9fbf 240e f53e f329 ab3e
000001b0: eca9 503e 54dc 283e e8d6 313f da19 0f3f
000001c0: 6219 0b3f 3337 c23e c989 323f 330c 0a3e
000001d0: 3e88 1e3f 184d 353f 7bc3 4a3e 0458 c13e
000001e0: edfc 783f 7cb2 533f 2d4a b63e 2312 233e
000001f0: 734f b63e d791 2a3f d043 22bf b3b5 5abe
00000200: 3c91 303e 90cb 3e3e fa12 d13e c2db ec3e
00000210: cbba 563e f7f8 fc3e 10be 863e f5f2 38be
00000220: dbb3 9bbf 593c 383f 30ab 823e b005 513f
00000230: 3135 393f 33d8 2a3f 658e f63e 5fdd f13e
00000240: a628 953e ebdb 353f 58d0 663e 0102 e93c
00000250: 84cd 2a3f 9cd0 a03e cf55 003e 68df 233e
00000260: 9812 da3d 4ac3 b03e 56bd d13c 51b1 8e3e
00000270: cbeb 0d3f 4bef ba3e 6d19 ac3e e1f6 293f
00000280: 12fb c9be b7f1 8fbd 5c7a 1abf 18fb 103f
00000290: ecd4 333f d26b fb3e 6470 cf3e 8cc7 993e
000002a0: 8354 8a3f cbea ac3e fb64 31be 612c 193f
000002b0: 172f 263f a7ec 163f a173 c13e 0a82 d13e
000002c0: 444c 6abf 2e2d a03e 6933 2a3f b94d c93e
000002d0: b411 be3e 297d 033f 1cf4 183f 9642 6dbe
000002e0: f818 9d3e 449f 053f 5a1f 633f 23b4 f8be
000002f0: 4f6b ef3e e1d9 dc3d 04d8 49be 0f8e 3d3e
00000300: a20a 1b3f ac72 2b3d b068 34bd d7a6 50be
00000310: 5190 33be a656 b53e e5ee f73e a8fe 473f
00000320: 48d1 cc3e 65cd d63e ee11 9e3e 2a32 c93e
00000330: d446 053f dc70 633f d88d 21bf 3261 133f
00000340: 3805 0ebe 7f60 8d3f 7123 0dbc b553 e53e
00000350: 4b41 59bf db0d fd3d 6292 07be 465d b5be
00000360: cecf b73e 4a3d e33e 9713 163f bd60 123f
00000370: bd30 1a3f 42ff 503e 6807 303f 4245 feb9
00000380: 2780 dcbd f007 463f 90f3 583e 4c31 b93e
00000390: ec3d eb3e 7f3a 233f fb42 113f bb5f 133e
000003a0: 6e4a 0cbe 05a5 f33d 42af 2f3e d805 4a3d
000003b0: a71b aebe 9572 fe3e 2f6c 4a3f 2a7f a4bd
000003c0: 2ca3 e63e b8a8 eb3e 9c59 953e 2a6f 253f
000003d0: 7037 d53e 2158 c13e 146f bdbf 43bd 603e
000003e0: 3f61 f53e f756 573f 4478 4e3f 9b09 ffbc
000003f0: e0a8 103e 2227 ad3e 5a30 f53e e295 f43e
0.5174716 0.33513048 -0.013366138 0.6469843 0.48155442 1.0009631 0.01861324 0.09343337
0.29805812 0.16683024 0.5158862 -0.75085527 -0.37245536 0.36668766 0.7437842 0.7008305
0.60890675 -0.0707275 -2.8191006 0.10628132 -0.07600228 0.08607712 0.7030088 -0.07358316
-0.060470957 0.41828352 0.2525943 0.2642928 -0.6086029 0.32376498 0.5744834 0.263278
0.46413273 0.3942973 0.5302279 0.58744985 0.24500456 0.4952724 0.42114505 0.95136374
0.8701858 0.88195074 -0.41221038 0.5528109 0.28207552 0.5490265 0.7757999 0.56768185
0.18398595 0.8012344 0.064153455 0.9089878 0.56760025 -0.08675172 0.06927346 0.67738307
0.48255274 0.18193974 0.109381475 0.89692354 0.7526963 0.27728885 0.18413144 -0.0002339445
0.6383588 0.5441466 0.4009446 0.2275195 0.21936673 0.64341235 0.7682355 0.47537234
0.16209945 0.5386671 0.18322407 0.75712246 0.65243536 0.8803981 -1.4294068 0.030064963
0.35599017 0.48340586 0.80559295 0.43607563 0.04879246 -0.14128657 0.15434709 0.009818665
0.88899356 0.06638225 -0.26437238 0.68200344 -0.39578974 0.58378345 0.47031394 0.40332666
0.35164133 0.5273211 0.25060433 0.3629032 0.2615083 0.08742953 -0.10865518 0.58500415
0.5712276 -1.2430335 0.4786235 0.33430442 0.2037732 0.16490299 0.69468546 0.5589882
0.54335606 0.3793274 0.69741493 0.13481216 0.6192664 0.7082076 0.19801132 0.37762463
0.97260934 0.8269422 0.35603467 0.15924887 0.3560749 0.66628784 -0.63384724 -0.21358375
0.17242903 0.1863234 0.4083479 0.46261412 0.20969693 0.49408695 0.2631688 -0.18061431
-1.2164263 0.71967083 0.2552123 0.81649303 0.7234679 0.66736144 0.48155513 0.47239205
0.29132575 0.71038693 0.22540414 0.028443338 0.6671984 0.31409156 0.12532733 0.16003191
0.10648078 0.34523994 0.025602978 0.27869657 0.55437917 0.3651069 0.33613148 0.6639233
-0.39449364 -0.07028525 -0.60342956 0.5663314 0.7024677 0.49105698 0.40515435 0.30035055
1.0807041 0.33772883 -0.17323677 0.5983334 0.64915603 0.5895485 0.3778353 0.40919524
-0.9152262 0.3128447 0.66484696 0.3931711 0.3712288 0.51362854 0.5974748 -0.23169932
0.30683112 0.52196145 0.88719714 -0.48574933 0.46761557 0.107837446 -0.1971131 0.18511222
0.605631 0.041857406 -0.04404515 -0.20376144 -0.17535521 0.3541767 0.4842445 0.7812295
0.4000342 0.4195358 0.30873054 0.39296085 0.520612 0.88844085 -0.6310706 0.57570183
-0.13869178 1.1045073 -0.008614407 0.44790426 -0.84865254 0.12356158 -0.13239434 -0.35422724
0.3590073 0.44382697 0.5862364 0.5717886 0.6023062 0.20409873 0.687613 -0.00048498256
-0.107666306 0.7735586 0.21186662 0.36170423 0.4594568 0.6376113 0.5674283 0.14391987
-0.13700268 0.11896709 0.171567 0.04932198 -0.34005472 0.49696794 0.79071325 -0.08032067
0.45046365 0.4602716 0.2916993 0.6462275 0.41643858 0.3776255 -1.4799523 0.21947198
0.47925755 0.8411707 0.8065226 -0.03113251 0.1412692 0.33818918 0.47888452 0.47770602

fc2.bias f4 [256]
00000000: 170a 98bf 429c bdbf 1103 1ebf 0de9 2e3f
00000010: efef cebf 96d8 5cbf 28ac 42bb 0ad1 33bf
00000020: c9c0 cabe 4362 8cbf 0161 b3be 4e78 1cbf
00000030: 4b20 36bf 5d98 90bf f90d 84be d9a0 76be
00000040: 1110 41bf 9d3a 1ebf ef60 b6bf 2f96 bdbd
00000050: b142 d4bf 1b8f 13bf 54ff ffbe 4280 0dbf
00000060: 7611 51bf 0e31 3bbf a0ee 43bf 36fa 2fbf
00000070: 1368 e6bf 4f88 50bf acee 05c0 c0f4 06c0
00000080: 7041 89bf de9a 28bf 02dd 4dbe 75ae 60bf
00000090: 78fe 52bf 4517 89be a245 23be cb60 c6bf
000000a0: 0aee 42bf dfd3 e73c c89b 3dbf 6a00 4dbf
000000b0: 5f83 d8bf ed7d 89bf 061a 2ebf a78f 2dbf
000000c0: ec9a 62bf af42 1ebf 062f ccbe f3fb 15bf
000000d0: 1f3c d9bf 811f 22bf a005 adbf 0742 6ebf
000000e0: 120e 5abe 73cf b7bf 05f2 62bf e3ca 56bf
000000f0: 11a9 41bf f092 97bf 8e19 18bf cf77 e6bf
00000100: 0dae c0bf 4cf8 35bf ab7b 033e 5c3b 2c3d
00000110: 6861 f33d e080 60bf c8f0 b7bf c782 91bf
00000120: c8f4 00bf aa6c 94bf 5ba7 f4be f842 22bf
00000130: 4a2d 3fbf 0459 9dbe 8f77 92bf eea2 d0be
00000140: 686e 873d cb55 0b3e 3167 ddbf 648e 03c0
00000150: e1de 003f 129f 3abf eab4 003e 6178 e0bf
00000160: cb76 4abf 2f28 41bf 5945 ffbf b31e 26bf
00000170: d15c 85bf 81a5 703e 4914 a7bf 75f2 21bf
00000180: 2e68 b8be f7c9 e2bf b0f0 f6bf 067b 17bf
00000190: 56b3 20be 6eed 68bf eb90 1cbf 4023 873f
000001a0: d9ce 83bc 48b3 9cbf 2bd7 69bf 25cd edbe
000001b0: 0980 abbf 84a8 32bf 1aff 96bf ceb9 3dbf
000001c0: 890c 2ebf ec55 38be bfbd 5abf 8eae 84bf
000001d0: a189 99be 574c 90bf d80f 6dbf 075e edbe
000001e0: 8f11 8c3d 59e6 cfbf 566f 043d 7adb b1be
000001f0: b521 85bf f028 27bf 89e8 41bf e4f0 6bbe
00000200: 8f45 c4bf 1de5 ebbf d785 a53d f281 17be
00000210: 05c8 87bf 7163 84bf cb22 90be 6ae0 5a3f
00000220: 31f5 0cc0 b55b 94bf 4c51 633d 8421 58be
00000230: d934 07c0 a70a b13d 537c 9cbf 8c8c a7bf
00000240: f8b3 83bf 1a7c b9bf 654a b0bf 5fa1 3d3f
00000250: 59b3 b2be 7d11 80bf 2e8b bfbf 7c8a 28bf
00000260: a3c1 13bf 9537 64bf 306d 8f3e cb62 23bf
00000270: dbce ed3d e063 2fbf 9bbd abbf 1056 94bf
00000280: c68b 2fbe ed2e 4ebf 6229 21bf 923d 5ebf
00000290: a1b9 eabf 6de8 3fbf 9ccf 95bf f0cf 8dbf
000002a0: 6bfd 61be 2033 11bf 5664 c73e d5b9 edbf
000002b0: 6f31 ccbf f212 99bf 1f9f fdbf 0856 87bd
000002c0: 9a22 2ebf d33f 0ec0 12dc b2bf b65c 61bf
000002d0: 5caf 9abd 48c4 8a3e f21e 9abf 76a1 3cbf
000002e0: 9a0a 893e 69f9 8dbd b19f 75be 5fef d2bf
000002f0: b8ba 93bf 2d6b 47bf 6714 75bf c584 c1bf
00000300: ef82 26bf ad35 52be 8f2a f0be 6acd c3bf
00000310: 395f c83d f681 bfbd 58bc 56bf eba5 d3be
00000320: 46de 96bf 6807 e9bf c9d1 46bf 8784 afbe
00000330: 718a 3dbf ccd1 87be 4bd7 edbe 9dcf ddbe
00000340: 7f34 83bf 6923 1abf 81ff 3a3f d585 76bf
00000350: e853 38bf a8de 9fbf cf6a 07bf a4a0 61bf
00000360: a56a cabe 2812 20bf f11b eb3d 8e72 8dbf
00000370: eadd 87be f130 b0bf 2ff2 a2bf 97b5 9cbf
00000380: c0a9 d7bf 290d 9dbc 92cc 31bf f797 1cbf
00000390: 4889 94bf 1351 56bf a680 30bd 7a3e 66bf
000003a0: d818 d1be 67a0 d7bf dfc2 79bf 77e0 27bf
000003b0: b556 26bf 5c54 30bf 3ca0 b3bf 9243 95bf
000003c0: 94cc 10bf 2770 aebf 01b6 81bf aa9f 7dbf
000003d0: 9105 11be 7afb 4fbf 6413 b8bf abbb 52bf
000003e0: 9fdd dbbe ea0b 50bf abc8 2ebf 6366 653e
000003f0: 5c83 39bf 1647 afbf f516 b0bf a5e5 11bf
-1.1878079 -1.4813311 -0.6172343 0.6832436 -1.6166972 -0.86267984 -0.0029704664 -0.70240843
-0.39600208 -1.0967487 -0.35034946 -0.6112107 -0.71143025 -1.1296498 -0.2579191 -0.24084796
-0.7541514 -0.61808187 -1.4248332 -0.09257161 -1.6582853 -0.57640237 -0.49999487 -0.5527383
-0.8166727 -0.73121727 -0.7653599 -0.68741167 -1.8000511 -0.8145799 -2.0926924 -2.1086884
-1.0723095 -0.6586131 -0.20103839 -0.877662 -0.8241954 -0.26775566 -0.15944532 -1.5498289
-0.7614447 0.02829927 -0.7406583 -0.80078757 -1.6915091 -1.0741554 -0.6800846 -0.6779732
-0.8851764 -0.618205 -0.39879626 -0.5858757 -1.6971473 -0.6332932 -1.3517342 -0.930695
-0.2129443 -1.4360183 -0.8865054 -0.8390333 -0.756486 -1.1841717 -0.59413993 -1.8005313
-1.5053116 -0.71081996 0.12840144 0.042048797 0.11883813 -0.8769665 -1.4370356 -1.1368035
-0.50373507 -1.1595662 -0.47783932 -0.63383436 -0.7467848 -0.30731976 -1.1442736 -0.40749305
0.06612855 0.13606946 -1.7297117 -2.0555658 0.50340086 -0.7289897 0.12569013 -1.7536737
-0.79087514 -0.7545194 -1.9943038 -0.64890593 -1.041895 0.23500635 -1.3053066 -0.63260585
-0.36016983 -1.7717885 -1.9292202 -0.59172094 -0.15693411 -0.9098729 -0.6115863 1.0557632
-0.016089844 -1.2242212 -0.91343945 -0.46445575 -1.3398448 -0.69788384 -1.1796601 -0.7411164
-0.6798788 -0.18001527 -0.8544578 -1.036577 -0.29987815 -1.1273297 -0.926023 -0.463608
0.068392865 -1.6242172 0.03233274 -0.3473776 -1.0400912 -0.6529684 -0.75745445 -0.23041111
-1.5333728 -1.8429295 0.080821685 -0.14795664 -1.0607916 -1.0342847 -0.28151545 0.8549868
-2.2024653 -1.1590487 0.055497453 -0.21106535 -2.1126006 0.0864461 -1.2225441 -1.3089767
-1.0289297 -1.4490998 -1.3772703 0.7407436 -0.34902456 -1.0005337 -1.4964349 -0.6583631
-0.5771734 -0.8914731 0.2801299 -0.6382262 0.1161172 -0.6851177 -1.3417238 -1.1588764
-0.17143163 -0.80540353 -0.6295377 -0.868127 -1.83379 -0.7496403 -1.1703982 -1.1079082
-0.22069328 -0.56718636 0.38943738 -1.8572336 -1.5952586 -1.1958907 -1.9814185 -0.06608206
-0.6802155 -2.2226455 -1.397341 -0.8803209 -0.075529784 0.27102876 -1.2040694 -0.7368387
0.267659 -0.06932337 -0.23986699 -1.64793 -1.1541357 -0.7789791 -0.95734257 -1.5118643
-0.6504354 -0.20528288 -0.4690747 -1.5297062 0.09783787 -0.0935096 -0.8388114 -0.41337523
-1.1786582 -1.8205385 -0.77663857 -0.34280798 -0.7403937 -0.2652725 -0.46453318 -0.4332246
-1.0250396 -0.6021028 0.7304612 -0.9629796 -0.7200303 -1.2489824 -0.5289735 -0.88135743
-0.39534488 -0.62527704 0.11479939 -1.1050584 -0.26536494 -1.3764936 -1.2730159 -1.2242917
-1.6848679 -0.019171314 -0.69452775 -0.6116938 -1.1604395 -0.8371746 -0.04309144 -0.8993908
-0.40839267 -1.6845826 -0.97562975 -0.6557688 -0.64976054 -0.6887872 -1.4033275 -1.1661246
-0.5656216 -1.3627976 -1.0133668 -0.99071753 -0.1416228 -0.812431 -1.4380918 -0.8231761
-0.4294252 -0.8126818 -0.68274945 0.22402339 -0.72466063 -1.3693569 -1.3757006 -0.56991035

fc3.weight f4 [128, 256]
00000000: 3512 433e 5861 043e 2095 d9bd 204c c7bd
00000010: 3e2a c0bb 41ef 343d cb59 293b 2cc2 02be
00000020: f30e 88be 88c6 ea3d c628 d83c c173 67be
00000030: ddba 1a3e 382e 3b3e 134f f5bd fc54 07be
00000040: f5ed 5d3e 2bcc 9dbd 3be2 1f3e d634 fc3e
00000050: d6db 2f3e 0df4 2eba 6809 d73d 1370 b03c
00000060: 1e8d 7e3e e035 0b3e 9e23 323e 9589 0a3e
00000070: a083 9abe 3d19 7c3e 0ec4 8a3e 6fe2 ad3d
00000080: a51d a23e 9211 303e fd90 443d 4384 5c3e
00000090: 49e9 c13e 6cf1 f53b 7091 b7bc a053 773e
000000a0: f58f 2d3e 910e 70be 7b82 6bbd 7d98 e73c
000000b0: bbfa 463e 660e 21be c8aa d33d b341 de3d
000000c0: 1a2e 723e 12f5 0b3e ed1d 6ebe f9bd b03e
000000d0: 0f1e 5f3e 6f7a 3ebd 4de4 233e 0cd5 2b3e
000000e0: a1bc 5fbd dd6f a53e a652 8c3d 7d72 d13d
000000f0: dda6 9d3e 2f3f 09be 6e11 dc3e 6635 503e
00000100: 9f84 5bbc cc5c 7a3e 63ae b63c 7e1a b93b
00000110: cdc8 833c ef80 dfbc 8938 8abd 9a2a b93d
00000120: bb73 d83d db0e 643e e2c6 3abe bed1 183e
00000130: 7595 56be 8300 643d a2c8 1b3e b38a 3e3e
00000140: 0c47 133c 1477 bfbe 45d2 403d 0554 be3e
00000150: 5071 de3d 3bc6 9d3c 3857 b03d fd6d 7f3e
00000160: f887 423d bef5 9f3e ac5b fc3d 8e74 cbbb
00000170: 6031 71bd b3be 5bbe cc8c 733e 2a76 423f
00000180: aa08 a7bb ddbe 463e 44b5 623d 09b0 693e
00000190: ba24 003e ccae 5cbe 2863 f63d 6a7a 6dbe
000001a0: 6cba 20bd 8ced 91be c0c5 743e 3e85 24be
000001b0: 1b14 df3d 305f acbc 63f3 f0bb 55ab 53bc
000001c0: 378d 0b3e fb32 e53d df83 253e 1f0a 1fbd
000001d0: 13e4 08bc 042d f33d 3aad d9bd cb1d 9a3e
000001e0: f614 6e3d 024e 82be 1ed3 0e3e a5a7 d53e
000001f0: 61e9 09be 3691 88bd 59af 87bd bc80 41be
00000200: 1808 d83e 1c44 6f3e a545 7cbe fa82 983d
00000210: 0005 fa3c 6f49 7a3e bc17 883e 091f 18be
00000220: 231f aa3d 0f00 dfbc 15bb d6bd fe87 2f3e
00000230: 7fe3 d13d 37ca 1ebd 9622 003e 79ef 2bbe
00000240: f631 313e ffad bc3d faeb da3d 4eeb ff3d
00000250: f557 fb3d 6069 a43d 04ac 393e fc76 63bd
00000260: a1ba 25bd 8420 4b3d 2ca8 783e 967d 82be
00000270: 5495 df3d dff1 663e 1142 6f3e 3c6b 673e
00000280: dfe0 133e 5c2e a9bc 9abb 023e c349 8ebd
00000290: 80c1 0dbd a457 a8be 1de2 0e3e d828 02be
000002a0: 9884 8b3d 6259 0dbf f521 7b3e dabc 313e
000002b0: 052a 033e 4a82 63be e6aa b53e a1fe dd3e
000002c0: dae3 0d3d f23d d33d 18ea 283c cee6 1bbe
000002d0: e32b 35bd 83d2 a33c 46ce a33e 252f 8a3d
000002e0: eaf4 af3e eb21 16bd 4925 1c3e 1b50 8e3e
000002f0: 6371 ca3b d186 de3d 9c39 00be 1f42 033f
00000300: d512 cb3e 1e34 433e 928b 6a3d 354d 453d
00000310: 69c6 a13b ad8d 0e3e 6d65 093e ceda b93c
00000320: f358 583e df7a 593e a079 283e e66b 133e
00000330: f4f0 0bbe 4699 2d3d 7e9b 2d3d e071 833d
00000340: 5689 05be a537 d5bd 6e63 f93e 4b3f 533d
00000350: d877 c5bd fba2 143d 028c 29be 365f e83d
00000360: ccb6 d7bd 0793 203e 400c 95be e990 af3e
00000370: 4796 19bc d7b6 d039 fb04 5e3e b712 c73d
00000380: cc15 8cbc 9cf5 063d c2dc b5bc 81d3 073c
00000390: e695 053e db13 113e 403f 1abd 3ac4 b93d
000003a0: 24a6 cc3d 5bf0 6a3e 350c 1f3e 3828 95bd
000003b0: 6817 dcbc bd2a b73d 68b0 ec3d 2787 203e
000003c0: 34fd 283e 882c 24bd 081e 963e 7bc5 bdbd
000003d0: 5d22 88bc 480a 7f3e 0369 bebd 13fa 2ebe
000003e0: 6b1f c83d d915 453d 707e 8f3e 34ca 683e
000003f0: 25b9 13bd 5ef2 953c 893f ac3d 9381 a93d
0.19049914 0.12927759 -0.106241465 -0.097313166 -0.0058644107 0.044173483 0.0025840874 -0.12769383
-0.26573905 0.11463648 0.02638663 -0.2260275 0.15110345 0.1827935 -0.11977973 -0.13216013
0.21672805 -0.077049576 0.15613644 0.4925906 0.17173705 -0.00066739396 0.10499841 0.021537816
0.2485852 0.1359477 0.173964 0.13529046 -0.30178547 0.24619003 0.27102703 0.084904544
0.31663242 0.17194203 0.047989834 0.21534829 0.37873295 0.0075055864 -0.022408217 0.24152994
0.16949446 -0.23443057 -0.057497483 0.028270954 0.19431584 -0.15728149 0.10335308 0.10852375
0.23650399 0.13667706 -0.23253603 0.34519938 0.2178881 -0.04650348 0.16005059 0.1678049
-0.05462325 0.32311907 0.068517014 0.10226915 0.3079137 -0.13403009 0.42982048 0.2033287
-0.013398319 0.24449462 0.022299951 0.00564891 0.01608696 -0.02728316 -0.067490645 0.09041329
0.10568949 0.22271292 -0.1823993 0.1492376 -0.20955451 0.05566455 0.15213254 0.18607597
0.008989107 -0.37395537 0.04707553 0.37173477 0.108614564 0.019259563 0.08610386 0.24944301
0.04749295 0.31242174 0.123221725 -0.0062089628 -0.05888498 -0.21459465 0.23784178 0.75961554
-0.0050974684 0.19408746 0.05534865 0.22821058 0.1251401 -0.21551055 0.12030631 -0.23191229
-0.039240286 -0.28501546 0.2390356 -0.16066453 0.10892507 -0.021041483 -0.0073532327 -0.012919267
0.13628088 0.111913644 0.16163586 -0.03882801 -0.008355158 0.118738204 -0.106287435 0.30100855
0.05812546 -0.2545014 0.13947722 0.41729465 -0.13467933 -0.06668322 -0.06625242 -0.18896765
0.42193675 0.23365825 -0.24635942 0.07446857 0.030519962 0.24442075 0.26580608 -0.14855589
0.0830672 -0.027221708 -0.10484902 0.1714172 0.102484696 -0.038767066 0.12513193 -0.1679057
0.17304215 0.092128746 0.1068954 0.12496053 0.12272636 0.08027911 0.18132025 -0.055533394
-0.040461186 0.049591556 0.24282902 -0.2548644 0.10917154 0.22553204 0.23365046 0.225995
0.1444125 -0.020651989 0.12766877 -0.06947663 -0.034608364 -0.32879364 0.13953443 -0.12710893
0.068123996 -0.5521451 0.24524672 0.17357197 0.12808998 -0.2221767 0.35481948 0.4335833
0.034641124 0.103145495 0.010309719 -0.15224764 -0.044231307 0.01999784 0.31993312 0.06747273
0.34366542 -0.03665344 0.15248598 0.2779549 0.0061780675 0.10865558 -0.12521976 0.5127277
0.39662805 0.1906285 0.05726201 0.048169333 0.0049369824 0.13921233 0.13417597 0.022687342
0.21127681 0.21238278 0.16452646 0.14396629 -0.13666135 0.0423825 0.042384617 0.06418204
-0.13040671 -0.10411004 0.4870867 0.051574033 -0.09641999 0.036288243 -0.16557315 0.11346285
-0.105329126 0.15681086 -0.29110909 0.34290245 -0.009374208 0.00039809078 0.21681587 0.097203664
-0.017100237 0.032949075 -0.022199992 0.008290173 0.13045463 0.1416773 -0.037657976 0.0907063
0.09992626 0.22943251 0.15532 -0.07283062 -0.02686663 0.089436986 0.11557084 0.15676557
0.1650284 -0.04008153 0.29319787 -0.09266182 -0.016617948 0.24906266 -0.09297373 -0.17087583
0.097716175 0.04811654 0.28026152 0.22733384 -0.03606524 0.018304046 0.08410556 0.082766674

fc3.bias f4 [128]
00000000: d29c ccbe a5b7 c6be 8a25 d13c 6360 a1be
00000010: cb1d 1ebf 3294 1bbe b5ea 02bf 08c4 c8be
00000020: 94f7 42be 89ad 92be 0d7c a2be d19e bcbe
00000030: e63a debe 1a68 cbbe 7b09 b1be 755a dabf
00000040: 7260 bbbf 0afa 98be 221e 28bf a5d7 e0be
00000050: 7312 b4be d7bd b7be 4469 95be 3d4c dbbe
00000060: fd66 7cbe cd10 bcbe 6fe7 fdbe 56d5 cabe
00000070: 3477 0cbf fd05 a4be 41a3 82be 2abd 9ebe
00000080: 5374 fabe 8a73 f5be db8c dcbe d880 82be
00000090: 4157 08bf 9581 0ebf 8a17 65be 56d0 c9be
000000a0: 1169 2bbe 64ea 0dbf 6963 74be a7f5 a1bd
000000b0: 8fc2 a2be 90d8 98be 78c2 c3be 202d 99be
000000c0: 6869 d2be e646 3bbe 68c8 7dbe 128d 05bf
000000d0: 7f70 9bbe 24ab 8dbe 24d8 593f 13b6 08bf
000000e0: 162a f0bf 6749 eebe 8319 b1be 019c c7be
000000f0: 7df7 dcbe a109 b8be 544f aebe dfde 30be
00000100: 8fcd 8bbd bbec 8bbe d071 46be 7513 afbe
00000110: 3289 2cbd d1fb ecbe 6f72 abbe d26a 82be
00000120: cc15 bdbe c1e2 a3bd 8114 9dbe 3aca e6be
00000130: 521a 7dbe 6a09 6bbe 1f90 b8be a7fa bbbe
00000140: 1642 cebe fc67 cdbe 298f d8be d551 acbe
00000150: a7e2 c4bd 84cc 95be b60a bbbe 39c5 07be
00000160: d93d 84be d6a7 babe 75c1 debe 4155 ebbe
00000170: 4ef7 a9be f7fe 73be b9ef 97be 8af6 d3be
00000180: d55b 9abe 6372 6dbe 206f 13bf 3707 4dbe
00000190: 5233 cfbe 45b6 43bf ae54 c3be c53f e8be
000001a0: 9b54 e6be 5b2f 80be 93f8 c0be 6ef3 83be
000001b0: 1416 b3be a175 ebbe 2fb8 0dbf 35ea 8e3f
000001c0: 2850 12bf b468 eabe 2272 a3be 6601 0fbf
000001d0: e88b dfbe e003 68bf 5dc1 a9be 1c34 edbe
000001e0: 41c5 9fbe 4fc3 86be 74de 08be 771b a4be
000001f0: 895b 8fbe faac fdbe 3260 cdbe 6513 f7be
-0.39963394 -0.38811985 0.025530595 -0.3151885 -0.6176421 -0.15193251 -0.51139385 -0.3921206
-0.19039756 -0.28648022 -0.31735268 -0.36839917 -0.4340431 -0.3972786 -0.34577546 -1.7058855
-1.4638808 -0.29878265 -0.6567098 -0.43914524 -0.35170326 -0.35887024 -0.29181874 -0.42831603
-0.24648662 -0.36731568 -0.49590632 -0.39615887 -0.5486939 -0.3203582 -0.25515178 -0.31003696
-0.48916873 -0.47939712 -0.43076214 -0.25488925 -0.5325814 -0.55666476 -0.2237226 -0.3941676
-0.16739298 -0.55435777 -0.23866047 -0.079081826 -0.3178906 -0.29852724 -0.38234305 -0.2991724
-0.41096044 -0.18288764 -0.2478348 -0.5216838 -0.30359265 -0.27669632 0.8509543 -0.53402823
-1.8762844 -0.46540377 -0.34589776 -0.3898621 -0.4315757 -0.35944846 -0.34044898 -0.17272519
-0.068263166 -0.2732905 -0.19379354 -0.34194532 -0.042123027 -0.4628587 -0.33485743 -0.25472122
-0.36930692 -0.08002234 -0.30679706 -0.45076162 -0.24717072 -0.2295281 -0.36047456 -0.3671467
-0.40284795 -0.40118396 -0.42296723 -0.33656183 -0.09613543 -0.29257596 -0.3653161 -0.13258828
-0.25828436 -0.36456174 -0.4350697 -0.4596348 -0.3319649 -0.2382773 -0.2967508 -0.41399032
-0.30148187 -0.23188166 -0.5759144 -0.20022283 -0.40468842 -0.76449996 -0.38150543 -0.45361152
-0.44986424 -0.2503613 -0.37689647 -0.2577166 -0.34977782 -0.4598818 -0.55359167 1.1165224
-0.5715356 -0.45783007 -0.31923014 -0.5586151 -0.43661427 -0.9063091 -0.33155337 -0.4632882
-0.3120518 -0.26320884 -0.13366109 -0.32052204 -0.27999523 -0.49546033 -0.40112454 -0.48256984

fc4.weight f4 [1, 128]
00000000: 7335 fcbb 44ab e83b 89ed 5ebb 0532 d6bc
00000010: 5988 3d3a 60ef 8dbc 06db c23d 7a4a b9bc
00000020: 7055 f7ba 1e2e d8bb 893a 74bd 73e8 923b
00000030: 71ae dabc 7902 9abb 1041 733b 27aa 083e
00000040: 8ca2 003e 26d3 2f3c 9cc8 15bd 93f7 e63d
00000050: 6992 473a bc2c 08bc cfce b1bc 7d9c 863d
00000060: d372 393b 36f5 253a 1f81 733b 34b8 cabc
00000070: a771 e7bc 27c1 82bb 47e2 15bb 4776 953b
00000080: f861 6b3d bcfc 8abb d8a5 80bd 14eb be3a
00000090: 4ce4 be3d 3c35 a83b 0921 94bc 8584 3abc
000000a0: 6512 c1bb 1461 a0bb fc94 113c f26e b0b9
000000b0: 21c5 7a3a 7d5b 8c3c 79e1 e73a 9df9 153b
000000c0: dc7e 023c 7c8e 803b 3381 6c3c 1808 48bc
000000d0: e0ff a23b bb3a b23d 05f7 583d 994d 2b3d
000000e0: 9a00 51bd bdf3 ad3a 87c8 a9ba 408e f6ba
000000f0: f7e8 90ba dec5 a83c 0a0a 51bc 8551 5cbc
00000100: 0694 d9bb 2eca a8bc b90c 013b 9ae7 b1bc
00000110: 6193 2bbb 4eb0 a43d 99ec 11bb 2543 7c3b
00000120: 3358 b1bc 32b0 843b 67ce df37 f904 0b3c
00000130: 60bc 1dbb 9a14 d1bc 668a ebb9 f9b3 d83a
00000140: 3158 6c3c 10d4 a63d a8b5 68bc 5f8f 2ebb
00000150: 5932 633c 7478 1bbc 5ace 5d3c b8ea ceba
00000160: 7b4f 76bc da5b 2ebc 1c8c 7c3d 0fa4 87bc
00000170: d78a 363c f9fb f3bb 3601 a83b ad82 5fba
00000180: 5f69 c43b c933 b63b 1db5 b53a 4d2d d7bc
00000190: 3d56 913c 3e4d 76bb 3124 9cbc da69 473b
000001a0: 498c e4bc 6b5d 4bbc 112f 5bbd b28a 16bc
000001b0: 7ecd 77bb d328 0ebd 63dd d538 1547 303d
000001c0: c129 433c 9ecd 913d 1f21 9cbb 777f 78bd
000001d0: 25ce 433a ee21 0fbb e633 963a 0a9a b0ba
000001e0: 604c 883b 1780 57ba a349 ec3b a8cc e1bc
000001f0: a292 773d 3b85 53bc 4f7e 76bd 55d7 623d
-0.0076968013 0.0071004946 -0.0034016094 -0.026146898 0.0007230095 -0.017326057 0.09514432 -0.022618521
-0.0018870067 -0.0065972945 -0.059626136 0.0044832765 -0.026694508 -0.004700002 0.0037117638 0.13346158
0.12562007 0.010731494 -0.03656827 0.1127769 0.00076130644 -0.008311447 -0.02170506 0.065728165
0.00282972 0.000633079 0.003715582 -0.024746038 -0.028252436 -0.0039903107 -0.0022870468 0.004561219
0.057466477 -0.004241554 -0.06281632 0.0014565908 0.09320888 0.005133299 -0.018082159 -0.011384134
-0.0058920854 -0.004894385 0.008885618 -0.00033651997 0.00095661177 0.017133469 0.0017691097 0.0022884377
0.007964816 0.0039232355 0.0144351 -0.012208961 0.0049743503 0.08702608 0.05296995 0.04182205
-0.051025964 0.0013271492 -0.0012953439 -0.0018810704 -0.0011055757 0.020602163 -0.012758741 -0.01344717
-0.00663996 -0.02060422 0.0019691421 -0.021716882 -0.0026180374 0.0804144 -0.0022266267 0.003849217
-0.021648502 0.0040493244 2.6679785e-05 0.008485072 -0.002406858 -0.025522519 -0.00044925808 0.0016533128
0.014425323 0.081459165 -0.0142034665 -0.0026635749 0.013866984 -0.0094891675 0.013537968 -0.0015786504
-0.015033598 -0.010642016 0.061657056 -0.016557721 0.0111415 -0.007445809 0.0051270975 -0.0008526247
0.0059940065 0.0055603725 0.001386318 -0.026266718 0.017741317 -0.003758266 -0.019060226 0.0030428083
-0.027898924 -0.012412409 -0.053511683 -0.009188341 -0.0037811692 -0.0347069 0.00010197868 0.04303654
0.01191181 0.071192965 -0.0047646905 -0.060668435 0.00074693776 -0.0021840292 0.0011459559 -0.0013473642
0.0041594952 -0.0008220686 0.0072109266 -0.027563408 0.060442574 -0.012910183 -0.06017905 0.055381138
