p3_collab-compet/weights/checkpoint_actor_1.pth (torch_old, 28465 bytes, 4 tensors)

fc1.weight f4 [256, 24]
-0.058051944 0.006933807 -0.019977719 -0.018408151 -0.10339128 -0.027362505 0.013173199 -0.035891693
0.06962038 -0.041179094 0.07155613 0.0053350567 -0.048213415 -0.13952759 -0.043902457 -0.046745475
-0.016734837 -0.062404413 0.033621054 -0.03023684 -0.06629464 -0.10153886 -0.016825547 -0.04610955
-0.06626248 -0.0018708841 -0.037029848 0.0060006143 -0.024060888 -0.12783994 -0.06305065 -0.03248366
0.004177808 0.045950536 0.026012804 -0.07020312 0.014776288 -0.17803556 0.019030217 -0.038908087
0.044852454 0.020250954 0.031393178 -0.09600743 -0.003349946 -0.15134446 0.013585984 -0.059328735
-0.074286744 -0.011439377 -0.051445927 0.0061999513 -0.0013795989 -0.12632605 0.012799801 -0.060469773
0.064209044 -0.010782776 0.04162989 -0.020469958 -0.01419266 -0.07703595 -0.031631786 -0.078396596
0.004148892 0.02868475 0.013180404 -0.050247513 -0.08575899 -0.08212321 -0.006481025 -0.05263442
-0.054404452 -0.019596837 -0.031170152 0.049152672 -0.053732164 0.04476458 -0.030873261 -0.036220573
0.028774135 0.031987824 -0.04401417 0.04286401 -0.053302303 0.036913566 0.029917061 0.047539815
-0.0038763732 -0.0037247464 -0.028750181 -0.0067684352 -0.047218934 -0.056174226 -0.023932561 0.0113213435
0.06290124 0.16103594 -0.009503834 0.18647696 -0.48126385 -0.96559775 -0.041253578 0.19332074
0.2375149 0.2886816 -0.06295317 0.4688849 0.0717564 -1.1767327 -0.048039433 0.37816894
-0.08295706 0.052954458 0.14775015 0.13390087 0.58684266 -0.31384486 0.067118846 0.1129518
-0.0012336005 0.022692762 -0.041961808 -0.074909925 -0.020819036 -0.056230403 0.046294287 -0.091224864
0.021650732 0.041699987 -0.005639247 -0.084711105 0.025244486 -0.19179231 -0.03982626 -0.058117162
-0.005153145 -0.04409431 -0.040258646 -0.00027206863 -0.002990269 -0.08906842 0.06485508 -0.08700891
-0.12607847 -0.042721767 0.007348016 -0.06374931 -0.028785707 -0.08157907 -0.08444402 -0.026756352
-0.034182128 -0.07982585 -0.012512588 -0.044532176 -0.034360148 -0.16590387 0.055100836 0.007151315
0.052455235 -0.024393156 0.062254988 -0.023411315 -0.09966839 -0.08508459 0.011879074 -0.10439554
0.4876417 0.29752126 -0.42695716 -0.16839479 0.46747294 -1.2375846 -0.47781062 -0.22297609
-0.27641305 -0.39701188 -0.2642024 0.19471349 -0.20100261 0.053265113 -0.22146662 0.19825515
-0.32313684 -0.041867375 -0.18520075 0.18188989 -0.2546871 0.27682787 -0.123644 0.16137017
-0.01730904 0.017072022 -0.031043924 0.0088015795 0.009327099 -0.019558534 -0.043404825 -0.009208582
-0.027827747 -0.015556239 0.0062524974 -0.04691398 -0.012060247 -0.018496394 -0.052532032 -0.059998244
-0.007876456 0.059221588 0.04808888 -0.014615916 0.035466805 -0.018251866 0.041722827 -0.022825941
0.2868436 0.0012961747 -0.017785346 -0.03583509 0.28034186 0.779054 0.02842754 -0.03178042
0.005052014 -0.14070986 0.113772094 -0.18071362 -0.9118729 1.0589186 0.17348471 -0.2166679
-0.14587961 -0.18587373 0.038272414 0.0029769312 -1.7859551 0.71022475 0.08038362 -0.0122388
-0.055528 -0.054383695 -0.044875614 -0.018491127 -0.031461246 -0.04144814 0.034597106 0.008587651
-0.02434729 0.022000685 0.022393852 -0.049992472 -0.0043314993 -0.05974544 0.019561209 0.041340172
00000000: e0c7 6dbd fd34 e33b 50a8 a3bc b1cc 96bc
00000010: cfbe d3bd 5527 e0bc 67d4 573c 2b03 13bd
00000020: 2195 8e3d 69ab 28bd 058c 923d b3d1 ae3b
00000030: 6e7b 45bd 52e0 0ebe 10d3 33bd 2f78 3fbd
00000040: 7f17 89bc c59b 7fbd 3bb6 093d 40b3 f7bc
00000050: 7cc5 87bd 9bf3 cfbd bbd5 89bc 5edd 3cbd
00000060: a0b4 87bd 7438 f5ba 9cac 17bd cda0 c43b
00000070: 571b c5bc 79e8 02be b320 81bd 960d 05bd
00000080: fee5 883b a136 3c3d ce18 d53c a7c6 8fbd
00000090: 3e18 723c f44e 36be 42e5 9b3c 165e 1fbd
000000a0: 35b7 373d 54e5 a53c 2296 003d 8b9f c4bd
000000b0: c58a 5bbb 0bfa 1abe bf97 5e3c b002 73bd
000000c0: a623 98bd 3a6c 3bbc f7b8 52bd f628 cb3b
000000d0: a8d3 b4ba 9e5b 01be 42b6 513c 27af 77bd
000000e0: 0880 833d 3eaa 30bc 1b84 2a3d 9db0 a7bc
000000f0: 5588 68bc 06c5 9dbd 5590 01bd 658e a0bd
00000100: 6ef3 873b 48fc ea3c 9ff2 573c 56d0 4dbd
00000110: 69a2 afbd 3730 a8bd c75e d4bb 3197 57bd
00000120: 34d7 5ebd 8c89 a0bc 8c58 ffbc 5054 493d
00000130: 4216 5cbd 105b 373d ece9 fcbc 065c 14bd
00000140: bcb7 eb3c aa05 033d 3448 34bd 2c92 2f3d
00000150: 8453 5abd ae32 173d a014 f53c 1cb9 423d
00000160: c00a 7ebb e01a 74bb 8085 ebbc c0c9 ddbb
00000170: a468 41bd f216 66bd 380e c4bc 287d 393c
00000180: 5ed2 803d 9be6 243e f8b5 1bbc d1f3 3e3e
00000190: 3768 f6be 6a31 77bf 83f9 28bd dff5 453e
000001a0: 1b37 733e 13ce 933e 97ed 80bd ae11 f03e
000001b0: 05f5 923d 2d9f 96bf ffc4 44bd 5c9f c13e
000001c0: 64e5 a9bd c6e6 583d d14b 173e 4f1d 093e
000001d0: 523b 163f 46b0 a0be 9b75 893d 4653 e73d
000001e0: c4b0 a1ba 2ce6 b93c 25e0 2bbd 606a 99bd
000001f0: af8c aabc da51 66bd 149f 3d3d 1ad4 babd
00000200: e05c b13c 9bcd 2a3d 6fc9 b8bb 047d adbd
00000210: 86cd ce3c 3465 44be dc20 23bd 430c 6ebd
00000220: b7db a8bb 3c9c 34bd 40e6 24bd 6fa4 8eb9
00000230: 64f8 43bb 8169 b6bd bdd2 843d ba31 b2bd
00000240: b71a 01be 05fd 2ebd a0c7 f03b 008f 82bd
00000250: 01d0 ebbc ed12 a7bd fdf0 acbd 2330 dbbc
00000260: 8f02 0cbd bc7b a3bd 9901 4dbc 5f67 36bd
00000270: 3abd 0cbd b4e2 29be 6ab1 613d 9455 ea3b
00000280: 4ddb 563d 28d4 c7bc 16ff 7e3d 16c9 bfbc
00000290: f11e ccbd d440 aebd 73a0 423c 54cd d5bd
000002a0: 2cac f93e b554 983e 219a dabe af6f 2cbe
000002b0: 9d58 ef3e 2c69 9ebf 98a3 f4be d853 64be
000002c0: 0386 8dbe 2445 cbbe 8945 87be f962 473e
000002d0: a1d3 4dbe 852c 5a3d 25c8 62be 6603 4b3e
000002e0: 3172 a5be 207d 2bbd 44a5 3dbe 5841 3a3e
000002f0: 5966 82be 62bc 8d3e 1139 fdbd 393e 253e
00000300: b0cb 8dbc a0da 8b3c d44f febc 8034 103c
00000310: b0d0 183c 3839 a0bc 42c9 31bd 98df 16bc
00000320: 04f7 e3bc 98df 7ebc c0e1 cc3b e028 40bd
00000330: 5898 45bc c085 97bc d42b 57bd b8c0 75bd
00000340: 400c 01bc 5692 723d d8f8 443d 9877 6fbc
00000350: a445 113d f084 95bc 8ee5 2a3d 78fd babc
00000360: 2add 923e 68e4 a93a 93b2 91bc d1c7 12bd
00000370: f888 8f3e 1570 473f dfe0 e83c 302c 02bd
00000380: 5d8b a53b 3f16 10be 5801 e93d fe0c 39be
00000390: 8170 69bf a58a 873f faa5 313e 31de 5dbe
000003a0: 7761 15be af55 3ebe 89c3 1c3d 9e18 433b
000003b0: 2d9a e4bf 4ad1 353f 2ba0 a43d 3f85 48bc
000003c0: 5471 63bd 70c1 5ebd 7ecf 37bd b47a 97bc
000003d0: 82dd 00bd 86c5 29bd b2b5 0d3d 38b3 0c3c
000003e0: f873 c7bc c83a b43c 5073 b73c e8c4 4cbd
000003f0: 40ef 8dbb a2b7 74bd d43e a03c 5054 293d

fc1.bias f4 [256]
0.076579265 -0.1993658 0.09459241 -0.13625862 0.5872779 0.095966965 0.018223295 -0.6403
-0.08183119 0.08957858 -0.18614459 0.03741065 -0.097643584 -1.1810431 -0.06375319 0.5248382
0.34759414 -0.1613041 -0.16590717 -0.068735674 0.63810986 -0.12536569 -0.077730894 -0.071271226
0.07131218 -0.0031386667 0.100829564 0.07533393 -0.17686693 0.0015983159 -0.17876299 -0.18824486
-0.07098991 -0.30805585 0.018271416 -0.19667672 -0.1840726 0.36780828 0.1326348 -0.11327184
0.06869875 0.032507516 -0.10503013 0.039622862 -0.010351944 -0.08201533 -0.069527045 0.10461043
0.043824073 0.029032439 0.02639745 0.0686922 -0.07637149 -0.026805462 0.10780939 0.0874791
0.022237496 -0.12627797 -0.06697603 -0.005086976 -0.13098606 -1.0098166 -0.22319558 -0.1448816
0.67058367 -0.1363494 -0.20404057 0.08848793 -0.11358763 -0.07730718 -0.10323848 -0.117090546
-0.16464639 -0.09139565 -0.15525232 -0.076172106 0.037842713 -0.5035372 -0.19601263 0.044258814
-0.15978777 0.03326598 -0.07292403 0.01953932 -0.05618796 -0.06387864 -0.15834944 0.11206043
0.06582257 -0.013319489 0.45065844 0.15009679 -0.21639925 0.08569048 0.13979158 -0.037628952
-0.19327445 -0.11382754 0.0002001632 0.3853466 0.07600158 0.48260581 -0.19418217 0.0025892316
-0.012995041 0.07558447 -0.023663012 0.100255944 -0.0034723717 -0.15183267 -0.15833499 -0.10622297
-0.04137164 -0.14076768 -0.36128658 0.109637596 0.00012987513 -0.52002877 -0.10480945 0.02661437
0.5186733 0.04785661 -0.089528024 0.76535434 -0.01973186 -0.028671673 0.08880517 -0.046991657
0.038497835 -0.0577417 0.70732623 -0.19845092 0.12554719 -0.120204404 0.2726482 0.023195213
-0.12981096 -0.1743933 0.030028582 0.038463358 -0.1745528 0.06345738 -0.11633349 0.13962506
0.0124990605 -0.17516568 -0.017140796 -0.08245157 0.04079069 -0.10077724 0.15325867 -0.15707172
0.11972762 -0.20667827 0.10433438 -0.14054188 -0.3881421 0.4058544 -0.20318043 0.10321314
0.52536523 0.07129972 -0.11708388 -0.08619341 -0.118508905 -0.18840958 0.0073136 0.024799298
-0.05998739 -0.13341816 -0.018595356 0.020354213 -0.014134972 -0.20887996 1.1739805 0.5586516
0.31482002 -1.0007285 -0.4048182 -0.0032991515 0.11010095 0.09333033 0.064680345 -0.13453153
0.090319194 0.033885747 -0.28391528 -0.12203545 0.055021457 0.09620962 0.052785292 -0.052488986
-0.08803043 -0.0549608 0.08069501 -0.30043775 -0.20284842 -0.04326215 -0.19413687 -0.52092046
0.19063844 -0.12848532 0.4990571 -0.12276424 -0.21908428 0.13972035 0.6564337 -0.02346296
0.041229818 -0.012508837 -0.16159374 0.103873774 -0.0023658539 -0.112942874 -0.036916945 0.016463576
-0.07994532 -0.023207612 0.007368219 0.021845639 0.05029229 -0.05175352 0.14068376 0.65231365
-0.10322221 -0.028209167 -0.019525193 -0.19508055 -0.20579533 0.0990308 -0.10718022 0.08592934
0.732637 0.06988624 -0.06563474 -0.09746223 0.406636 -0.19392082 -0.026114557 0.100226626
0.030054543 0.103311405 -0.12924638 -0.06658453 -0.10361577 0.33412036 0.041614138 0.009614407
-0.008464771 -0.03246433 -0.108631514 -0.06162683 0.6199746 -0.026017025 0.03857161 -0.069223955
00000000: 97d5 9c3d 8c26 4cbe aab9 c13d 6187 0bbe
00000010: d857 163f 548a c43d 0549 953c b3ea 23bf
00000020: 1c97 a7bd f974 b73d b09c 3ebe e93b 193d
00000030: 5cf9 c7bd 6c2c 97bf 0891 82bd cc5b 063f
00000040: dcf7 b13e e72c 25be 92e3 29be 4ac5 8cbd
00000050: 2b5b 233f dd5f 00be 6031 9fbd a6f6 91bd
00000060: 1f0c 923d 17b2 4dbb bb7f ce3d ad48 9a3d
00000070: 9b1c 35be 957e d13a a50d 37be 43c3 40be
00000080: 2863 91bd 7fb9 9dbe f0ad 953c 9f65 49be
00000090: 877d 3cbe 5e51 bc3e 6bd1 073e 11fb e7bd
000000a0: eeb1 8c3d 9a26 053d 091a d7bd 954b 223d
000000b0: 339b 29bc a7f7 a7bd 3264 8ebd fe3d d63d
000000c0: df80 333d 70d5 ed3c 773f d83c 7fae 8c3d
000000d0: a868 9cbd 2197 dbbc 2bcb dc3d 3e28 b33d
000000e0: 692b b63c 034f 01be bb2a 89bd a6b0 a6bb
000000f0: 3621 06be ac41 81bf 628d 64be d85b 14be
00000100: 5fab 2b3f 2d9f 0bbe 03f0 50be 2939 b53d
00000110: a2a0 e8bd 3a53 9ebd b26e d3bd 2bcd efbd
00000120: 1099 28be a42d bbbd 77fa 1ebe 1f00 9cbd
00000130: f600 1b3d d0e7 00bf 89b7 48be bb48 353d
00000140: 689f 23be e941 083d 3259 95bd ed10 a03c
00000150: 5925 66bd ced2 82bd 5b26 22be f07f e53d
00000160: fccd 863d fc39 5abc b4bc e63e f9b2 193e
00000170: c497 5dbe 7e7e af3d 8625 0f3e d120 1abd
00000180: bde9 45be 6a1e e9bd e6e2 5139 264c c53e
00000190: b7a6 9b3d 1c18 f73e b1d7 46be 19b0 293b
000001a0: 27e9 54bc 08cc 9a3d efd8 c1bc fd52 cd3d
000001b0: bb90 63bb 067a 1bbe 9122 22be 6e8b d9bd
000001c0: 4f75 29bd 6725 10be 8efa b8be ad89 e03d
000001d0: 172f 0839 9b20 05bf 56a6 d6bd 6106 da3c
000001e0: c6c7 043f 4b05 443d 785a b7bd 43ee 433f
000001f0: b6a4 a1bc dbe0 eabc 7cdf b53d 537a 40bd
00000200: e8af 1d3d 9082 6cbd 5513 353f b836 4bbe
00000210: 718f 003e ba2d f6bd 8b98 8b3e e303 be3c
00000220: 2aed 04be 2894 32be 80fe f53c c18b 1d3d
00000230: f8bd 32be f1f5 813d 4140 eebd dff9 0e3e
00000240: dcc8 4c3c a25e 33be db6a 8cbc 5edc a8bd
00000250: 2314 273d 4c64 cebd d7ef 1c3e 69d7 20be
00000260: c133 f53d 78a3 53be 43ad d53d 36ea 0fbe
00000270: 90ba c6be 26cc cf3e 880e 50be 6961 d33d
00000280: 567e 063f 9605 923d acc9 efbd 2c86 b0bd
00000290: ccb4 f2bd 71ee 40be eca6 ef3b e627 cb3c
000002a0: 56b5 75bd c59e 08be 4a55 98bc e1bd a63c
000002b0: 5f96 67bc a1e4 55be fe44 963f cb03 0f3f
000002c0: 1730 a13e df17 80bf 5544 cfbe 9436 58bb
000002d0: 9b7c e13d f923 bf3d 2177 843d a2c2 09be
000002e0: 45f9 b83d c8cb 0a3d 585d 91be b9ed f9bd
000002f0: 2e5e 613d 8d09 c53d 6435 583d b1fe 56bd
00000300: 4c49 b4bd 931e 61bd 6d43 a53d fad2 99be
00000310: 7fb7 4fbe a733 31bd d1cb 46be 0b5b 05bf
00000320: b936 433e a891 03be 6a84 ff3e d16b fbbd
00000330: a157 60be da12 0f3e 0a0c 283f 6535 c0bc
00000340: 99e0 283d ddf1 4cbc d478 25be c6bb d43d
00000350: 710c 1bbb 984e e7bd 3936 17bd 9fde 863c
00000360: 5fba a3bd e41d bebc 1a71 f13b a0f5 b23c
00000370: 4aff 4d3d 80fb 53bd 670f 103e 07fe 263f
00000380: 2b66 d3bd e916 e7bc 4cf3 9fbc 32c3 47be
00000390: 03bc 52be a9d0 ca3d 4e81 dbbd b9fb af3d
000003a0: 198e 3b3f 8420 8f3d 826b 86bd 479a c7bd
000003b0: 9832 d03e 2e93 46be 32ee d5bc 9e43 cd3d
000003c0: f234 f63c ee94 d33d 2a59 04be 785d 88bd
000003d0: 8134 d4bd d311 ab3e 9673 2a3d bf85 1d3c
000003e0: d3af 0abc 51f9 04bd 337a debd 6a6c 7cbd
000003f0: a8b6 1e3f a821 d5bc 44fd 1d3d 4ac5 8dbd

fc2.weight f4 [2, 256]
-0.041925233 -0.031893734 -0.01517565 -9.0715475e-05 2.1079247 -0.0033935467 0.03518973 -0.02273749
-0.0017997072 -0.70733863 -0.0017558734 -0.02719441 -0.04023453 -0.9909578 -0.017096855 0.43433934
-1.912673 -0.031354237 0.0006750708 -0.0021485013 0.72769755 -0.021778446 -0.00051165815 -0.0013528469
-0.016057491 -0.04771704 -0.012358821 -0.02872354 0.0027811294 0.0041667353 0.0024586432 0.0005850196
0.00014514942 -0.5636599 -0.0019105694 -0.02860864 -0.0014878177 -0.019918438 1.4499195 -0.00028534303
-0.021778889 -0.020273399 0.0012258072 -0.008718089 0.009371695 -0.026085073 -0.026271472 0.0018154494
-0.031404838 -0.011897675 -0.040038418 0.0066178143 -0.015108902 -0.009865508 -0.0012792908 -0.04565834
-0.03198324 -0.0018297277 -0.037348144 0.0080834925 -0.00093824684 -5.5186834 -0.4847183 -0.0013948742
0.70848167 -0.0067685153 0.002477225 0.025946947 -0.006894468 -0.0015667541 -0.0041753305 0.00059135415
-0.012725385 -0.00038609127 -0.005990352 -0.0031868045 -0.0522022 -0.5600675 -0.001054768 -0.03491773
0.007572102 -0.042362217 -0.03862561 -0.045036506 -0.0059904056 -0.0015576235 -0.0020791786 -0.02856248
-0.013073991 -0.0126180835 1.2370824 -0.035407268 -0.016396949 -0.01578175 -0.036218368 -0.48669714
0.0024255211 -0.010497249 -0.018695459 1.632051 -0.05007228 1.992972 0.0005029382 -0.030075882
0.006515643 0.009702707 -0.021716805 -0.054855842 0.018364321 -0.023638781 -0.002664489 -0.026525734
-0.008766937 -0.03246926 -0.3690384 -0.013409014 -0.053938717 -0.45369697 -0.0035431536 -0.01389137
-3.1377726 -0.023494788 -0.020170068 -1.5177284 -0.03852077 -0.02853419 -0.02395984 -0.010437112
-0.04277495 -0.023876918 0.92762566 -0.0023209155 -0.01482186 -0.0012884452 -1.4636523 -0.045895852
-0.0017987305 0.000817091 -0.051517453 0.02254505 -0.009584407 -0.00052566174 -0.034819495 -0.052821852
0.010959315 0.001843561 -0.024158282 -0.034921534 0.016055888 -0.040014416 -0.008370537 -0.0063687554
-0.041836694 0.014365984 -0.029289886 -0.0029466054 -0.27024946 2.3459177 0.00029197382 -0.00968055
1.3275077 -0.029859342 -0.007543643 -0.057328846 -0.0246567 -0.0009826173 -0.026735155 0.029331645
0.016037133 -0.0009380159 -0.037521336 0.010707918 0.007121289 -0.009319055 -1.5211247 2.7944198
1.764248 -4.5563927 -0.36520052 0.023815278 0.015707277 -0.001022699 -0.037478175 -0.002485074
0.010454838 -0.027435144 -0.08260605 -0.016912749 -0.056647275 -0.045338344 -0.03094907 -0.022314286
-0.008754744 -0.02976284 -0.041738495 -0.25823453 -0.0024722635 -0.011460058 -0.005326929 0.29101244
0.99003285 0.0008453515 1.9286692 -0.0010271817 -0.036035787 -0.56317216 0.9599494 -0.04959452
0.0022753295 0.0054326514 -0.03290961 -0.021690233 -0.015891839 0.00034133112 -0.02052421 -0.0020223963
-0.034934986 -0.023088507 0.028695129 0.0009970765 -0.007898223 -0.0018572026 -2.7148914 -0.40669236
-0.0070965863 -0.02125129 -0.009029343 0.0046824603 -0.019067472 -0.016830806 -0.025702517 -0.0124846855
2.4754846 -0.025099328 -0.047080692 0.0049870317 1.6644678 0.00031619566 -2.6391945 0.00020785759
-0.025408337 2.743 -0.0017336237 -0.036640376 0.017621694 2.6215346 -0.031662486 -0.048666865
-0.0024050653 -0.014000001 -0.002397523 -0.033795662 1.2143443 0.0007119288 -0.041369904 -0.045188185
00000000: cbb9 2bbd 01a3 02bd 4aa3 78bc 803e beb8
00000010: 3de8 0640 4466 5ebb 1b23 103d f943 babc
00000020: 27e4 ebba 2514 35bf 5625 e6ba d0c6 debc
00000030: f6cc 24bd 69af 7dbf b40e 8cbc ba61 de3e
00000040: 78d2 f4bf 4d6d 00bd 3cf7 303a dfcd 0cbb
00000050: 634a 3a3f b668 b2bc cc20 06ba 0252 b1ba
00000060: 008b 83bc f172 43bd a77c 4abc a14d ebbc
00000070: 9c43 363b 1c89 883b 3021 213b 005c 193a
00000080: 4033 1839 044c 10bf 126c faba ab5c eabc
00000090: e102 c3ba fe2b a3bc f696 b93f 189a 95b9
000000a0: a469 b2bc 6614 a6bc 44ab a03a 51d6 0ebc
000000b0: bd8b 193c 5db0 d5bc 4537 d7bc 60f4 ed3a
000000c0: 5ca2 00bd 77ee 42bc 53ff 23bd 40da d83b
000000d0: 548b 77bc f1a2 21bc e0ad a7ba 3d04 3bbd
000000e0: dc00 03bd 79d3 efba 5efa 18bd a070 043c
000000f0: aef4 75ba 0e99 b0c0 ff2c f8be 36d4 b6ba
00000100: 0e5f 353f 6cca ddbb f058 223b b18e d43c
00000110: fdea e1bb 8b5b cdba 36d1 88bb 1b05 1b3a
00000120: 227e 50bc 4b6c cab9 b74a c4bb b5d9 50bb
00000130: f9d1 55bd 9560 0fbf 2440 8aba e505 0fbd
00000140: 651f f83b 0184 2dbd e335 1ebd 3378 38bd
00000150: 2a4b c4bb 2c29 ccba d442 08bb ddfb e9bc
00000160: 4b34 56bc 14bc 4ebc b758 9e3f 3607 11bd
00000170: e552 86bc bb48 81bc b659 14bd 5e30 f9be
00000180: 7ef5 1e3b a7fc 2bbc 3827 99bc 0ce7 d03f
00000190: 9718 4dbd b519 ff3f 9cd7 033a b261 f6bc
000001a0: 2d81 d53b 1af8 1e3c 71e7 b1bc 85b0 60bd
000001b0: c670 963c 1ea6 c1bc b59e 2ebb 7f4c d9bc
000001c0: 33a3 0fbc 7dfe 04bd 9af2 bcbe 7bb1 5bbc
000001d0: d8ee 5cbd f84a e8be 4134 68bb a198 63bc
000001e0: 44d1 48c0 2478 c0bc b33b a5bc ed44 c2bf
000001f0: f4c7 1dbd 89c0 e9bc 6d47 c4bc 6c00 2bbc
00000200: c934 2fbd 8799 c3bc e078 6d3f 801a 18bb
00000210: 63d7 72bc 0ce1 a8ba f558 bbbf 4afd 3bbd
00000220: 61c3 ebba 0c32 563a f703 53bd 66b0 b83c
00000230: eb07 1dbc 90cc 09ba e39e 0ebd ba5b 58bd
00000240: b38e 333c a4a3 f13a 97e7 c5bc e209 0fbd
00000250: a387 833c 28e6 23bd 9424 09bc feb0 d0bb
00000260: f45c 2bbd 4e5f 6b3c 58f1 efbc d61b 41bb
00000270: 235e 8abe 8423 1640 1014 9939 2b9b 1ebc
00000280: c6eb a93f 949b f4bc aa30 f7bb a7d1 6abd
00000290: d9fc c9bc 2acb 80ba af03 dbbc eb48 f03c
000002a0: 4e60 833c 2ee5 75ba f9af 19bd 4370 2f3c
000002b0: b459 e93b f3ae 18bc 37b4 c2bf c6d7 3240
000002c0: e1d2 e13f f8cd 91c0 90fb babe 4218 c33c
000002d0: 8cac 803c 160c 86ba b782 19bd a0dc 22bb
000002e0: c54a 2b3c abbf e0bc 5c2d a9bd 9b8c 8abc
000002f0: f906 68bd b3b4 39bd e788 fdbc 73cc b6bc
00000300: 0f70 0fbc 33d1 f3bc fcf5 2abd 5137 84be
00000310: b305 22bb f8c2 3bbc 858d aebb 95ff 943e
00000320: cb72 7d3f 949a 5d3a a2de f63f 80a2 86ba
00000330: 439a 13bd 0d2c 10bf 3ebf 753f a023 4bbd
00000340: b21d 153b 6204 b23b 3acc 06bd b7af b1bc
00000350: 9a2f 82bc b0f4 b239 6322 a8bc 2e8a 04bb
00000360: fd17 0fbd 1c24 bdbc 0c12 eb3c 56b0 823a
00000370: 8c67 01bc 616d f3ba c8c0 2dc0 fb39 d0be
00000380: 7b8a e8bb 2f17 aebc cfef 13bc 536f 993b
00000390: 6333 9cbc c2e0 89bc 168e d2bc 918c 4cbc
000003a0: 576e 1e40 1b9d cdbc afd7 40bd 416a a33b
000003b0: 480d d53f 10c7 a539 90e8 28c0 59f4 5939
000003c0: 2525 d0bc 508d 2f40 c23a e3ba 3814 16bd
000003d0: 5f5b 903c 39c7 2740 86b0 01bd e856 47bd
000003e0: 4d9e 1dbb 4360 65bc c31f 1dbb 526d 0abd
000003f0: a26f 9b3f bca0 3a3a 7d73 29bd 3f17 39bd

fc2.bias f4 [2]
-0.25156623 -0.9810954
00000000: 4acd 80be 1129 7bbf
