p3_collab-compet/weights/checkpoint_actor_0.pth (torch_old, 28465 bytes, 4 tensors)

fc1.weight f4 [256, 24]
0	0xbe671120	-0.22565126
1	0x3ecfa5e4	0.40556252
2	0xbd0cd3c2	-0.034381635
3	0x3e74977a	0.23885909
4	0xbf8ed31b	-1.1158174
5	0x3d27480e	0.0408402
6	0xbaa1332c	-0.0012298576
7	0x3e62b034	0.22137529
8	0xbdff629e	-0.124699816
9	0x3f3a75ae	0.72835815
10	0x3c3c5b2b	0.0114963455
11	0x3ecd39a0	0.40083027
12	0x3e9b3bed	0.30319157
13	0xbf5511f5	-0.83230525
14	0xbdd4e9cc	-0.10396156
15	0x3eb28f32	0.34874874
16	0xbf1ce99b	-0.61293954
17	0x3df67bde	0.120353445
18	0x3e28dd5e	0.16490695
19	0x3e0930af	0.13397478
20	0x3f8e447f	1.1114653
21	0xbe7761d5	-0.24158414
22	0x3dea6aa9	0.11446125
23	0x3df1dfaf	0.118102424
24	0x3dc8c9e9	0.09804136
25	0xbd70d484	-0.05879642
26	0xbc3e8acc	-0.011629771
27	0xbd863278	-0.06552595
28	0xbe9ff99c	-0.31245124
29	0xbd4c9c44	-0.049953714
30	0xbd1a3778	-0.037650555
31	0xbdd50312	-0.10400976
32	0x3da712e8	0.08157903
33	0xbdc0fdeb	-0.09423431
34	0x3c9c7ab8	0.019101486
35	0xbdabe7f5	-0.08393852
36	0xbe72baad	-0.23704024
37	0x3ca4e40b	0.02012827
38	0x3c468dee	0.0121188
39	0xbd57a08c	-0.052643344
40	0x3d920e27	0.071316056
41	0xbd8e3d27	-0.06945258
42	0x3c0b58a5	0.008505021
43	0xba9c5671	-0.0011927617
44	0xbe500379	-0.20313825
45	0xbcf71e96	-0.030165952
46	0xbc1867d1	-0.0093020955
47	0x3d115a46	0.035486482
48	0x3d3faf28	0.0467979
49	0x3d92cf20	0.07168412
50	0x3c351649	0.0110526765
51	0xbd728e93	-0.059218
52	0x3ef1d715	0.47234407
53	0x3f0136ff	0.5047454
54	0x3d9a3655	0.07529894
55	0xbe00e7c0	-0.12588406
56	0xbe8d10ef	-0.27551982
57	0xbf019cd0	-0.506299
58	0x3be35387	0.0069374475
59	0xbe4c4685	-0.19948776
60	0xbf1af3d4	-0.605283
61	0x3fb12b72	1.3841383
62	0xbd87d4dd	-0.06632397
63	0xbe83cbf4	-0.2574154
64	0xbd6303a1	-0.055423383
65	0xbe51f2ab	-0.20502727
66	0x3d8a2763	0.06745794
67	0xbd08a03a	-0.03335593
68	0xbf9e3282	-1.2359164
69	0x3f793de5	0.9736007
70	0x3d43c636	0.04779645
71	0xbd1266e9	-0.035742674
72	0xbd5ed734	-0.054404452
73	0xbca0898c	-0.019596837
74	0xbcff588c	-0.031170152
75	0x3d495450	0.049152672
76	0xbd5c1642	-0.053732164
77	0x3d375b10	0.04476458
78	0xbcfce9ec	-0.030873261
79	0xbd145c06	-0.036220573
80	0x3cebb7bc	0.028774135
81	0x3d0305aa	0.031987824
82	0xbd344834	-0.04401417
83	0x3d2f922c	0.04286401
84	0xbd5a5384	-0.053302303
85	0x3d1732ae	0.036913566
86	0x3cf514a0	0.029917061
87	0x3d42b91c	0.047539815
88	0xbb7e0ac0	-0.0038763732
89	0xbb741ae0	-0.0037247464
90	0xbceb8580	-0.028750181
91	0xbbddc9c0	-0.0067684352
92	0xbd4168a4	-0.047218934
93	0xbd6616f2	-0.056174226
94	0xbcc40e38	-0.023932561
95	0x3c397d28	0.0113213435
96	0x3d3c8e35	0.046034057
97	0x3dd49295	0.10379521
98	0xbd89f300	-0.06735802
99	0xbe41ddca	-0.18932262
100	0xbf214bc5	-0.6300624
101	0xbd82681d	-0.06367514
102	0xbdcaf8d5	-0.09910742
103	0xbe3adb85	-0.18247803
104	0xbe9cc4f1	-0.30619004
105	0xbee3daf5	-0.44502988
106	0xbe3738cd	-0.17892762
107	0xbe3dcbf9	-0.1853484
108	0xbec7dd52	-0.39036041
109	0x3f0d1dc0	0.5512352
110	0xbe27f349	-0.164014
111	0xbe8d5847	-0.27606413
112	0xbe77f966	-0.24216232
113	0xbe53da33	-0.20688705
114	0xbdfa0722	-0.12208392
115	0xbda33a2c	-0.0797008
116	0xbe83b656	-0.2572505
117	0x3ec6145b	0.38687405
118	0xbe4f9425	-0.20271356
119	0xbdce218e	-0.10064994
120	0x3e960caf	0.29306552
121	0xbdbd8da9	-0.09255535
122	0x3daaaf69	0.08334238
123	0x3cac8de1	0.021063747
124	0xbe909777	-0.28240559
125	0x3f3a0e5e	0.7267817
126	0x3e2fb7c2	0.17159942
127	0x3b9b985d	0.0047483877
128	0x3e6f42ab	0.23365276
129	0xbeee7992	-0.46577126
130	0x3e848926	0.25885886
131	0xbe2bb7d4	-0.16769344
132	0xbfbadd73	-1.4598831
133	0x3f736013	0.9506847
134	0x3e6610c6	0.22467336
135	0xbe107d3f	-0.14110278
136	0x3e6cb33f	0.23115252
137	0xbe1932f1	-0.14960839
138	0xbdd1f588	-0.102519095
139	0x3e5fcf9e	0.21856543
140	0xbffa783f	-1.9567946
141	0x3e567ac8	0.20945275
142	0x3b2a1d4d	0.0025957406
143	0x3e06fe24	0.13182884
144	0xbde93b20	-0.1138823
145	0xbc6821b9	-0.014168196
146	0xbc3a8931	-0.011385248
147	0xbd5f9f57	-0.054595318
148	0x3cd9bfd2	0.026580725
149	0xbc10dc77	-0.008841625
150	0xbdd34e89	-0.10317714
151	0xbc9032bc	-0.017602317
152	0xbdcb23cb	-0.09918936
153	0xbdce3d44	-0.10070279
154	0xbd7195ed	-0.05898087
155	0xbd221998	-0.03957519
156	0xbb82c896	-0.003991197
157	0xbd039a57	-0.03212961
158	0x3c0d6e7e	0.0086323
159	0x3c466276	0.012108436
160	0xbc9066bd	-0.017627114
161	0xbcc1688c	-0.023609422
162	0x3c40f90a	0.011778126
163	0xbcb25050	-0.021766812
164	0xbd788be4	-0.060680285
165	0xbc3c356d	-0.011487347
166	0xbd1e188d	-0.038597632
167	0xbdd26f5c	-0.10275146
168	0x3c4e5644	0.0125938095
169	0x3d1ab9ce	0.037774853
170	0xbc9c8241	-0.019105079
171	0x3c61cf7f	0.013782381
172	0x3cab130b	0.020883104
173	0xbd1cf6bf	-0.038321253
174	0xbd8f469e	-0.06995891
175	0xbd271c86	-0.040798686
176	0x3c7dce44	0.015491072
177	0xbd7e4e22	-0.062086232
178	0x3c30d8e3	0.010793897
179	0xbd2078d7	-0.03917774
180	0x3d0f3a6c	0.034967825
181	0x3cd17968	0.025570586
182	0x3d5b41b6	0.053529464
183	0xbd11f743	-0.035636198
184	0x3c7f2179	0.015571945
185	0x3d4c7f34	0.049925998
186	0xbccb648f	-0.024828224
187	0x3d0f1e93	0.034941267
188	0xbc1083c9	-0.0088204825
189	0x3bec3b13	0.0072091906
190	0x3d166fcf	0.036727723
191	0x3c6c4725	0.014421259
192	0xbc8de954	-0.017323174
193	0x3c8b8ab4	0.017033912
194	0xbcfe4fd4	-0.031043924
195	0x3c0fe0c1	0.008781613
196	0x3c182499	0.009286069
197	0xbca04c26	-0.01956756
198	0xbd31c942	-0.043404825
199	0xbc173357	-0.009228549
200	0xbce3f92b	-0.027828773
201	0xbc7f612e	-0.015587134
202	0x3bcce1c0	0.0062524974
203	0xbd403ac2	-0.046931036
204	0xbc464560	-0.012101501
205	0xbc978fd1	-0.018501194
206	0xbd572bd4	-0.052532032
207	0xbd75d29a	-0.0600153
208	0xbc0149d5	-0.007891138
209	0x3d727cab	0.059200924
210	0x3d44c480	0.04803896
211	0xbc6fb35b	-0.014630164
212	0x3d111ad0	0.03542596
213	0xbc958db8	-0.018256053
214	0x3d2ab136	0.041672908
215	0xbcbb1b58	-0.022840187
216	0x3eb4b58d	0.35294762
217	0xbdc37625	-0.09544019
218	0x3d1e92ee	0.03871434
219	0xbcd5e260	-0.02610892
220	0xbda541e0	-0.08069205
221	0x3f1a5e69	0.6030031
222	0x3dadedb2	0.084926024
223	0xbcb4a9b8	-0.022053584
224	0x3e158dd4	0.14604884
225	0xbf0d5038	-0.5520053
226	0x3dfb9a03	0.12285235
227	0xbe3e1b06	-0.18564996
228	0xbf96f4cf	-1.179346
229	0x3f8c1462	1.094372
230	0x3e3af235	0.18256457
231	0xbe62ec5c	-0.22160476
232	0x3db53cea	0.08849509
233	0xbead9437	-0.3390214
234	0x3a0ea0aa	0.0005440811
235	0x3da786b5	0.0817999
236	0xbfcd8dc3	-1.6058887
237	0x3f1dbbac	0.6161449
238	0x3d2eb801	0.04265595
239	0x3d885d8c	0.06658468
240	0xbd637154	-0.055528
241	0xbd5ec170	-0.054383695
242	0xbd37cf7e	-0.044875614
243	0xbc977ab4	-0.018491127
244	0xbd00dd82	-0.031461246
245	0xbd29c586	-0.04144814
246	0x3d0db5b2	0.034597106
247	0x3c0cb338	0.008587651
248	0xbcc773f8	-0.02434729
249	0x3cb43ac8	0.022000685
250	0x3cb77350	0.022393852
251	0xbd4cc4e8	-0.049992472
252	0xbb8def40	-0.0043314993
253	0xbd74b7a2	-0.05974544
254	0x3ca03ed4	0.019561209
255	0x3d295450	0.041340172

fc1.bias f4 [256]
0	0x3f269ac4	0.65079904
1	0xbe600212	-0.2187579
2	0xbbe72ea2	-0.0070551196
3	0xbe0b8761	-0.13625862
4	0xbdd59ff9	-0.10430903
5	0x3e0bd878	0.13656795
6	0x3cb784b2	0.022402141
7	0xbe55b830	-0.20871043
8	0xbda7b15b	-0.08188125
9	0x3e74cb61	0.23905708
10	0xbe3e9cb0	-0.18614459
11	0x3ddf69f7	0.10908883
12	0xbdbf1e05	-0.09331898
13	0xbe2a895d	-0.16653962
14	0xbe81337c	-0.25234592
15	0x3c414b94	0.011797804
16	0xbdeb55a5	-0.11490945
17	0xbe114007	-0.1418458
18	0xbe29e392	-0.16590717
19	0xbd8cc54a	-0.068735674
20	0xbe30525e	-0.1721892
21	0x3f3cf00e	0.73803794
22	0xbd9f3160	-0.077730894
23	0xbd91f6a6	-0.071271226
24	0x3eb9d291	0.36293462
25	0xbe5a3a42	-0.21311286
26	0xbcb26bd5	-0.021779934
27	0xbe08bd46	-0.13353452
28	0xbcbf4e95	-0.0233529
29	0x3ca09bdf	0.019605575
30	0xbe370da5	-0.17876299
31	0xbe40c343	-0.18824486
32	0xbd916328	-0.07098991
33	0x3e146b88	0.14494145
34	0x3c95adf0	0.018271416
35	0xbe2a7351	-0.16645552
36	0xbe3c7d87	-0.1840726
37	0x3ddb980a	0.107223585
38	0x3ea177d8	0.31536746
39	0xbde7fb11	-0.11327184
40	0xbd434a61	-0.047678355
41	0x3e0520be	0.13000771
42	0xbdd71a09	-0.10503013
43	0xbeb67ff6	-0.356445
44	0x3d728409	0.05920795
45	0xbd8b9e3e	-0.06817292
46	0xbe9cf630	-0.30656576
47	0xbdbed171	-0.093172915
48	0xbe2cab5d	-0.16862245
49	0xbe59432e	-0.21217033
50	0xbe5843e9	-0.21119656
51	0xbd41a006	-0.04727175
52	0xbf2fb137	-0.68629783
53	0xbd02ebec	-0.031963274
54	0x3e8f14f1	0.27945665
55	0xbd8e087a	-0.069352105
56	0x3d03a5a3	0.032140385
57	0xbe092119	-0.13391532
58	0xbdaa5e3d	-0.08318756
59	0xbcb67538	-0.022272691
60	0xbe02927b	-0.1275119
61	0x3e05d2f6	0.13068756
62	0xbe078876	-0.1323565
63	0xbe145bd8	-0.1448816
64	0xbe4fa207	-0.20276652
65	0xbea82089	-0.32837322
66	0xbe50f003	-0.20404057
67	0xbe18c9ee	-0.1492078
68	0xbdc5eec8	-0.096646845
69	0xbd9e533a	-0.07730718
70	0xbdd721f9	-0.10504527
71	0xbdeef8bc	-0.11668536
72	0xbe2beb76	-0.1678904
73	0xbdcb312a	-0.09921487
74	0xbe1f563b	-0.15560238
75	0xbe259e39	-0.16173638
76	0x3d234b61	0.03986681
77	0xbe192228	-0.14954436
78	0xbe48b789	-0.19601263
79	0x3e426dcb	0.18987195
80	0xbdf7a459	-0.12091894
81	0xbe466963	-0.1937614
82	0xbe81e210	-0.25367785
83	0xbf186ee8	-0.5954423
84	0xbc654310	-0.01399304
85	0xbd82d2ce	-0.06387864
86	0xbe22265b	-0.15834944
87	0xbdf36f5c	-0.118864745
88	0xbeb1c167	-0.34717867
89	0xbe674e34	-0.22588426
90	0xbf00415b	-0.50099725
91	0xbc925bf4	-0.017866112
92	0xbe390cc1	-0.18071271
93	0x3d0b98f9	0.034081433
94	0xbdf11504	-0.117715865
95	0xbd0f6aba	-0.03501389
96	0xbe45e9bd	-0.19327445
97	0xbe8eb575	-0.27872816
98	0xbdf6c18d	-0.12048636
99	0xbf496319	-0.78666836
100	0x3e811f17	0.25219032
101	0xbe550c0b	-0.20805375
102	0xbe46d7b1	-0.19418217
103	0xbf0293f1	-0.5100699
104	0xbe541d5a	-0.20714322
105	0x3db9f5e1	0.09080101
106	0xbc19d410	-0.009388939
107	0x3dd91858	0.10600346
108	0x3d85a6dc	0.065259665
109	0xbe123ee8	-0.1428181
110	0xbe222291	-0.15833499
111	0xbec4ec74	-0.3846165
112	0xbf2a885e	-0.6661433
113	0xbe00f97f	-0.12595175
114	0xbec81c40	-0.39084053
115	0xbd57df25	-0.05270304
116	0xbbe8f9f3	-0.0071098744
117	0xbbd6c0cd	-0.0065537454
118	0xbe0121e3	-0.12610583
119	0x3f88c848	1.0686121
120	0xbd1ebb5c	-0.0387529
121	0x3e02da81	0.12778665
122	0xbddf1d6a	-0.10894282
123	0x3e9a677d	0.3015708
124	0x3e2f09c5	0.1709357
125	0x3d5bf4e9	0.05370036
126	0x3e2b9f23	0.16759925
127	0xbeedeb1c	-0.46468437
128	0xbeb051b9	-0.3443735
129	0xbe8b446e	-0.27200645
130	0x3d72e392	0.05929906
131	0xbe4b36b8	-0.19845092
132	0xbd8a227d	-0.06744859
133	0xbdf62dba	-0.120204404
134	0x3ec2033f	0.37893102
135	0xbd62c32b	-0.055361908
136	0xbe07a396	-0.13245997
137	0xbe329428	-0.1743933
138	0xbed01d10	-0.40647173
139	0xbe2ded59	-0.16985072
140	0xbe186d91	-0.14885546
141	0xbd3fd209	-0.046831165
142	0xbf00ec09	-0.5036016
143	0xbb81e4d4	-0.003964046
144	0xbf0581a2	-0.5215093
145	0xbe335ea2	-0.17516568
146	0xbde05637	-0.10953944
147	0xbec79913	-0.38983974
148	0x3dc79837	0.097458296
149	0xbdb09c07	-0.0862351
150	0x3d72e1c3	0.059297334
151	0xbe034c47	-0.12822066
152	0xbca18d1f	-0.019720612
153	0xbf7b213f	-0.98097605
154	0xbd3c6c92	-0.04600198
155	0xbe0fea36	-0.14054188
156	0xbf0b0d3a	-0.5431706
157	0xbc298730	-0.010347173
158	0xbe500e88	-0.20318043
159	0xbdca4b0f	-0.098775975
160	0xbe7cf253	-0.24701814
161	0xbea383b2	-0.31936413
162	0xbdf7ef5d	-0.12106202
163	0xbde3b364	-0.111182004
164	0xbf382565	-0.7193206
165	0xbe40ee71	-0.18840958
166	0x3ccf2174	0.025284506
167	0x3d5701b0	0.052491844
168	0xbd0f69b2	-0.03501291
169	0xbe07fe44	-0.13280588
170	0x3d9ab0d8	0.075532615
171	0xbdc5d396	-0.096594974
172	0x3e44c5b0	0.19216037
173	0x3eae578f	0.34051177
174	0xbe205bdd	-0.15660043
175	0x3df863d9	0.121284194
176	0xbd981997	-0.07426756
177	0xbf3c66b7	-0.7359423
178	0x3dbaca3a	0.09120603
179	0x3c816053	0.015793001
180	0x3f460fd5	0.7736791
181	0x3e2f56e4	0.1712299
182	0xbe6e5ebd	-0.23278327
183	0xbe09c2a2	-0.13453153
184	0x3f405a21	0.75137526
185	0xbe1a5fae	-0.15075561
186	0x3c961470	0.018320292
187	0xbe993863	-0.29925832
188	0x3f0ea621	0.5572224
189	0xbe5e679c	-0.21719211
190	0xbed7ce5b	-0.42149624
191	0xbcdff370	-0.02733776
192	0xbd8b8e19	-0.06814212
193	0xbd4a3b87	-0.049373176
194	0x3d963a2c	0.07335314
195	0xbd2386a2	-0.039923318
196	0xbe4fb77f	-0.20284842
197	0x3b94b1c6	0.004537794
198	0xbe51d049	-0.2048961
199	0xbea7b48e	-0.3275494
200	0x3d703292	0.058641978
201	0xbe0391a8	-0.12848532
202	0xbe0d215f	-0.13782261
203	0xbdfb6bd1	-0.12276424
204	0xbe585aab	-0.21128337
205	0xbed7f86d	-0.4218172
206	0x3e91eec8	0.28502488
207	0xbe4eb4fa	-0.20186225
208	0xbf03f5b0	-0.51546764
209	0xbc83fe11	-0.01611236
210	0xbe2ddc52	-0.16978577
211	0x3e1d9dce	0.15392229
212	0xbe5b98a7	-0.21444951
213	0xbde74e98	-0.112942874
214	0x3dae238c	0.08502874
215	0x3f2b35e7	0.66879123
216	0xbd65e043	-0.056122076
217	0xbc97988b	-0.018505355
218	0x3c9fdb60	0.019513786
219	0x3c1ef33f	0.009701549
220	0x3e5550e9	0.20831646
221	0xbd53fb80	-0.05175352
222	0xbcb619bb	-0.022229066
223	0xbe928b7f	-0.28622052
224	0xbdb629f4	-0.08894721
225	0x3db146fa	0.08656116
226	0xbf180da7	-0.5939583
227	0xbe5f5421	-0.21809436
228	0xbe9b4ac9	-0.30330494
229	0xbca7685d	-0.020435506
230	0xbdc72c30	-0.09725225
231	0xbe93f0d1	-0.28894666
232	0xbe881503	-0.2657853
233	0xbcdc4ad6	-0.026891153
234	0xbf14dbb4	-0.5814774
235	0xbda26c79	-0.07930846
236	0xbdef06d6	-0.11671226
237	0xbe46932e	-0.19392082
238	0x3e024b2e	0.12723991
239	0xbc9d6c38	-0.019216642
240	0x3d03dbb1	0.032191936
241	0xbd9d849d	-0.076913096
242	0xbe04592a	-0.12924638
243	0xbdae9352	-0.08524193
244	0xbd947ec3	-0.072507404
245	0xbe610592	-0.21974781
246	0xbecd28c8	-0.40070176
247	0xbe27a28d	-0.16370602
248	0xbe33349c	-0.17500538
249	0x3db77482	0.08957769
250	0xbf230d5a	-0.6369225
251	0xbd205099	-0.039139364
252	0x3f41f9dd	0.75771886
253	0xbcd521a8	-0.026017025
254	0xbec790c8	-0.38977647
255	0xbe664894	-0.22488624

fc2.weight f4 [2, 256]
0	0x3e96aa75	0.29426923
1	0x3d7d014e	0.061768822
2	0xc000fc65	-2.015405
3	0xb8be3e80	-9.0715475e-05
4	0xbe7ef438	-0.2489785
5	0xbfbd69b8	-1.4797888
6	0x3cb6e41f	0.022325573
7	0xbb6ac7c8	-0.0035824645
8	0xbaeb665e	-0.0017959585
9	0xbfcc67ab	-1.5969137
10	0xbae62556	-0.0017558734
11	0xbfc2ca88	-1.5218058
12	0xb7a734a2	-1.993246e-05
13	0xb9d062b3	-0.00039746388
14	0xbda38cf6	-0.079858705
15	0x39d454e1	0.0004049903
16	0xbd8b9698	-0.06815833
17	0xb9b448b6	-0.0003438645
18	0x3a30f73c	0.0006750708
19	0xbb0ccddf	-0.0021485013
20	0xbf1200c2	-0.57032406
21	0x3f9c3eea	1.22067
22	0xba0620cc	-0.00051165815
23	0xbab15202	-0.0013528469
24	0xbd8131e8	-0.06308347
25	0x3d098bc9	0.033580575
26	0x3dad0d51	0.084498055
27	0xbd8f82ee	-0.07007395
28	0x3e7cae32	0.24675825
29	0x3d7def17	0.061995592
30	0x3b212130	0.0024586432
31	0x3a195c00	0.0005850196
32	0x39183340	0.00014514942
33	0x3d106be4	0.035259143
34	0xbafa6c12	-0.0019105694
35	0x3a7ad36b	0.0009568247
36	0xbac302e1	-0.0014878177
37	0xbfd289ec	-1.644834
38	0x3f8becf1	1.0931684
39	0xb9959a18	-0.00028534303
40	0x3dbfc414	0.09363571
41	0xbfb49b77	-1.4109944
42	0x3aa0ab44	0.0012258072
43	0xbed4fce3	-0.41599187
44	0xbdbe7227	-0.092991166
45	0xbac309f4	-0.0014880286
46	0xbd43f27d	-0.047838677
47	0xbd2c53f6	-0.04207226
48	0xbd47d481	-0.048786644
49	0xbe8b6b23	-0.27230176
50	0xbd01cce5	-0.031689543
51	0x3dbf2285	0.09332756
52	0xbfeee62d	-1.8663994
53	0x3c1e7444	0.009671275
54	0x3f50c36a	0.8154818
55	0x3cf85570	0.030314177
56	0x3b8e41e4	0.004341351
57	0x3a5a8c1c	0.0008336918
58	0x3ad212f7	0.001602738
59	0xc00416b5	-2.063886
60	0xba75c55b	-0.00093754166
61	0xbfbff9ad	-1.499807
62	0xbfa2cbad	-1.2718407
63	0xbab6d436	-0.0013948742
64	0xbe697be2	-0.22801164
65	0x3d9d4876	0.076798365
66	0x3b2258f0	0.002477225
67	0xbd158b33	-0.036509704
68	0xbb4c593a	-0.0031181113
69	0xbacd5b8b	-0.0015667541
70	0x3ac75c01	0.0015209914
71	0x3a6a59ec	0.0008939791
72	0x3c3ed298	0.011646889
73	0xbad460e5	-0.0016203193
74	0xbbacf349	-0.0052780253
75	0x3f28a80b	0.65881413
76	0xbb82cb6b	-0.0039915345
77	0xba633959	-0.0008667908
78	0xba8a4024	-0.001054768
79	0x3ed2eb80	0.41195297
80	0x3ca6b52e	0.020350065
81	0xbf50e4bf	-0.8159904
82	0xbe48fb53	-0.19627123
83	0xbece6f46	-0.4031927
84	0x3b55a245	0.003259794
85	0xbacc292c	-0.0015576235
86	0xbb0842d4	-0.0020791786
87	0xbe816fcb	-0.25280604
88	0xbe1a56b3	-0.15072136
89	0xbccd06be	-0.025027629
90	0x3f79eaf1	0.9762412
91	0x3cd52124	0.02601678
92	0x3b932dd0	0.0044915453
93	0xbbf4f2a2	-0.007475213
94	0xbe0808b3	-0.13284568
95	0x3ad9ceff	0.0016617476
96	0x3b1ef57e	0.0024255211
97	0xbfb1ee6b	-1.3900884
98	0x3d2eee21	0.042707566
99	0xbfec10fc	-1.8442683
100	0xbfca8e9b	-1.582477
101	0x3ca6674f	0.020312933
102	0x3a03d79c	0.0005029382
103	0xbfd9b073	-1.7006973
104	0xbc2cc35d	-0.010544625
105	0xba23ce55	-0.00062487024
106	0x3ace7b11	0.0015753229
107	0x3e616bd3	0.22013788
108	0xbd8c6389	-0.06854922
109	0xba35a5d5	-0.0006929313
110	0xbb2e9eb5	-0.002664489
111	0xbf9686b8	-1.1759863
112	0xbf761243	-0.96121615
113	0xbab518a4	-0.0013816548
114	0xbe81910b	-0.25305972
115	0xbda82c8c	-0.08211622
116	0x3b57ea47	0.0032946037
117	0x3d1d3680	0.038382053
118	0x3c92b2da	0.017907549
119	0x3f8c52f0	1.096281
120	0xbc5d16db	-0.013494219
121	0xbfb2d32c	-1.3970695
122	0xb92abab5	-0.00016282017
123	0xbe3056e5	-0.17220648
124	0x3ecbf33f	0.3983402
125	0xbfd3a7fb	-1.6535639
126	0xbfc67fc9	-1.5507747
127	0xbfa55f1c	-1.291965
128	0xbfce5b21	-1.612156
129	0xbfe0fb2d	-1.7576653
130	0xc0120e6c	-2.2821302
131	0xbb181a80	-0.0023209155
132	0xbda53ee0	-0.08068633
133	0xbaa8e10c	-0.0012884452
134	0x3eeb6be9	0.45980766
135	0x3d571b08	0.052516013
136	0xbaeb8993	-0.0017970077
137	0x3a56320c	0.000817091
138	0xbfa035f5	-1.2516466
139	0xbf606c39	-0.87665135
140	0x3a0b9834	0.0005325109
141	0x3d00e920	0.031472325
142	0xbff78aa6	-1.9339187
143	0xbea1058a	-0.31449538
144	0xbf90a3d4	-1.1299996
145	0x3af1a3a4	0.001843561
146	0x3d5b9fb8	0.053619117
147	0xbcc9338f	-0.024560718
148	0xbd845867	-0.06462174
149	0xbb448de5	-0.0029991802
150	0x3e05b2f5	0.13056548
151	0xbb855232	-0.0040686363
152	0x3d7dc532	0.06195564
153	0xbff85a2e	-1.9402521
154	0xbd848906	-0.06471448
155	0xbb411bd6	-0.0029466054
156	0xbf19c8bc	-0.6007192
157	0xbd7f3795	-0.062308867
158	0x39991410	0.00029197382
159	0xbb5bcf32	-0.0033540246
160	0xbe8cc2f0	-0.27492476
161	0xbf9e34e6	-1.2359893
162	0x3aa1b576	0.0012337405
163	0x3d9c738d	0.07639227
164	0xbf7588d3	-0.959119
165	0xba80cb2a	-0.0009826173
166	0x3b36fe7e	0.0027922685
167	0x3b4588b7	0.0030141303
168	0xbb510e83	-0.0031899519
169	0xba75e304	-0.0009379836
170	0xc004788d	-2.0698578
171	0x3dfc36a5	0.1231511
172	0xbee02ef6	-0.43785828
173	0x3f8b852f	1.090002
174	0xbee727e4	-0.45147622
175	0x3ad799df	0.0016449055
176	0xbb226eda	-0.002478531
177	0xbfc22e1f	-1.5170325
178	0x3e61b507	0.22041713
179	0x3b9abf95	0.0047225454
180	0xbf7de7f5	-0.99182063
181	0xc019982b	-2.3999126
182	0xbe3648b3	-0.1780117
183	0xbb22dca0	-0.002485074
184	0x3f176f30	0.59154034
185	0xbdb235ac	-0.08701643
186	0x3d409ce0	0.047024608
187	0xbeb8310b	-0.35974917
188	0x3fffb1d0	1.9976139
189	0xbfcb2795	-1.5871454
190	0xbee21ba2	-0.44161707
191	0x3b392a93	0.0028254136
192	0x3b29be77	0.002590088
193	0xbb168cda	-0.0022972138
194	0xbb67790c	-0.0035319952
195	0xbe39dc83	-0.18150525
196	0xbb2205b3	-0.0024722635
197	0xbeaafc1c	-0.3339547
198	0x3b021520	0.0019849017
199	0xbfa572c4	-1.2925649
200	0x3d4a6441	0.049412016
201	0x3a5d9a94	0.0008453515
202	0x3d72c340	0.059268236
203	0xba86a280	-0.0010271817
204	0xbb9ef871	-0.004851394
205	0xbee5cb76	-0.4488179
206	0x3e454a41	0.19266607
207	0x3d02ceae	0.031935386
208	0xbf10138d	-0.5627983
209	0xba544c0a	-0.0008098489
210	0xbaa5bc3f	-0.0012644603
211	0xbd9ac9ed	-0.075580455
212	0xbdb0df0f	-0.08636295
213	0x39b2f4b0	0.00034133112
214	0xbe09f9be	-0.13474175
215	0x3eabcea7	0.335561
216	0xbc6b5840	-0.014364302
217	0x3aea7c02	0.001788974
218	0xbe5e3583	-0.217001
219	0x3bc6f285	0.006071391
220	0xbfeb0cfb	-1.8363336
221	0xbaf36d61	-0.0018572026
222	0xb9745cad	-0.00023304178
223	0xbe8a9fd6	-0.2707507
224	0xba4ef0f8	-0.00078941835
225	0xbfb2fe96	-1.3983943
226	0xbeac425f	-0.33644387
227	0x3a3bebb1	0.00071686046
228	0xbd8479eb	-0.064685665
229	0x3d3a9d7a	0.045560338
230	0x3b7d720b	0.0038672711
231	0xbfb9a406	-1.4503181
232	0xbd30cd80	-0.04316473
233	0x3f99d34c	1.2017608
234	0xbf132939	-0.57484776
235	0x3b15845e	0.0022814493
236	0x3b169705	0.0022978198
237	0x39a5c710	0.00031619566
238	0xbf1d51a6	-0.6145271
239	0x3c2ae46d	0.0104304375
240	0xbb52d7f2	-0.003217217
241	0xbb124e87	-0.0022324638
242	0xbae33ac2	-0.0017336237
243	0x3d854c5b	0.06508704
244	0x3bfa627c	0.007641135
245	0xbfbb1916	-1.4617031
246	0xbbea2a62	-0.0071461657
247	0x3d5eb381	0.054370407
248	0x3d162448	0.036655694
249	0xbfbe52bf	-1.4869002
250	0xbf769f1f	-0.9633655
251	0xbb004460	-0.0019572005
252	0x3f05308d	0.5202721
253	0x3a3aa0bc	0.0007119288
254	0xbd14e6a8	-0.036352783
255	0xbf140be5	-0.5783065

fc2.bias f4 [2]
0	0x3dd9c71a	0.10633679
1	0xbe8d1ec7	-0.27562544
