p2_continuous-control/checkpoint_actor_v2.pth (torch_old, 39701 bytes, 4 tensors)

fc1.weight f4 [256, 33]
000000 1f 48 91 bd f5 a8 5a 3e 41 b0 8d bc ce 37 31 3e
       -0.07093834 0.21353514 -0.017295958 0.17306444
000010 89 d1 ef 3d 75 12 ab 3d a1 e8 1e be 07 26 9b bd
       0.117098875 0.0835313 -0.15518428 -0.075756125
000020 ef 3b 55 3e b2 2c ad be a4 26 72 be 3e 25 4b be
       0.20823644 -0.33823162 -0.23647553 -0.19838426
000030 b6 3e 6d 3c 11 db ad 3e 2f d1 0d be c3 bc f1 bd
       0.0144802835 0.33956197 -0.13849328 -0.118035816
000040 44 25 a0 3c 0a ae b1 3c 53 f0 12 be b8 4b 17 3d
       0.01954902 0.021689434 -0.14349489 0.036937445
000050 d9 51 40 bd a3 1c 9f 3c 63 3d 40 bd 51 20 42 be
       -0.046953056 0.019422835 -0.046933543 -0.1895764
000060 a5 5c 30 3b cf a4 22 3d 8f ef 71 3d 63 37 09 3e
       0.002691069 0.039707955 0.05906635 0.13400035
000070 15 ff 3a 3c b8 fd 86 3c 07 9b 52 be f0 47 45 3c
       0.011413355 0.016478404 -0.2056695 0.012041077
000080 5b c8 be 3e 36 c2 ba bd f4 84 e8 bc ff 9c d5 3c
       0.37262234 -0.09119074 -0.02838371 0.026075838
000090 7f 61 59 be 42 84 2c bd 05 53 be 3c 97 a1 5d 3e
       -0.21228598 -0.04211832 0.023232946 0.21643673
0000a0 9c d9 e3 3c a8 14 9a be 7a 91 94 bd 2d d1 85 bd
       0.027813725 -0.30093884 -0.0725431 -0.06534038
0000b0 9f f5 1e be 33 5d 71 bc 6b f6 9b 3d 8e b4 a2 3e
       -0.15523385 -0.014731693 0.0761536 0.31778377
0000c0 e4 b5 28 3e 46 75 20 3e af 97 d9 bd 12 79 0c bd
       0.16475636 0.15669736 -0.106246345 -0.03429515
0000d0 19 46 c6 bd a8 fe ff bd 6a 55 bf 3d bc b7 aa 3c
       -0.09681339 -0.12499744 0.09342463 0.020839565
0000e0 a9 a3 32 bd 26 02 95 3d c8 21 dd bc db 4e 3a be
       -0.04361311 0.072758004 -0.026993647 -0.18194143
0000f0 36 b4 59 bd 3f 85 c3 bd e4 65 1a bd 6e 39 f6 3d
       -0.05315038 -0.09546899 -0.037694827 0.120226726
000100 46 63 33 bd 3b 0c d1 bf 0b db b0 3d 95 1c 84 be
       -0.043795846 -1.6331857 0.08635529 -0.25803056
000110 1c 9c 4f 3e 0b 2f d1 3d 8c 10 cf 3d cd 9e 8a bd
       0.20274395 0.10214051 0.10110578 -0.0676857
000120 22 6f 44 3e bf 1d 09 3e 65 da 1b be 5a b1 aa 3d
       0.19183019 0.13390253 -0.1522003 0.083346084
000130 df 0c 8d 3d a6 f3 44 3e 5f 31 b3 bc e7 d2 b2 be
       0.068872206 0.1923357 -0.021874128 -0.3492653
000140 1c 95 83 3d 3a b5 44 3e 7a d9 d4 3c c6 a1 6a bd
       0.06424925 0.19209757 0.025982607 -0.057283185
000150 e7 df c2 bd dd 16 46 bd 1f 32 6b bd ce 11 0e bd
       -0.09515362 -0.048361648 -0.057420846 -0.03468495
000160 77 8a 1e be ec 19 86 bc f1 26 5d 3d d4 2e 61 bb
       -0.15482508 -0.016369782 0.053992216 -0.0034360187
000170 c2 c5 a7 3d af 5b 82 be cd b8 1a 3d 40 43 61 3b
       0.08192016 -0.25460574 0.037773896 0.003437236
000180 37 5b 85 3e 00 1e 22 bd c4 6a 10 be 86 59 cf be
       0.26046154 -0.03957939 -0.14103228 -0.40497988
000190 75 b2 3a be 96 7e e7 3d 63 c2 17 3e 33 1c a3 bd
       -0.18232138 0.11303441 0.14820246 -0.07964363
0001a0 dd af b1 3d 79 65 12 3e f7 1f 2f 3c 76 01 29 3d
       0.086761214 0.14296521 0.010688773 0.04126116
0001b0 2b 74 71 3c 9e 3c 89 3d 87 9e 5d 3d 39 f2 9d 3c
       0.014737169 0.06701015 0.05410626 0.01928054
0001c0 fd f9 d8 3d ee 30 8c 3d cb 7a d8 3b f4 c4 bc 3d
       0.105945565 0.0684527 0.006606435 0.09217253
0001d0 1a 75 e9 bc 26 ac 4d be 9e eb 08 3d 01 21 60 3e
       -0.028498221 -0.200852 0.033427827 0.2188759
0001e0 0f 8a 03 be 86 42 33 3e ec ad 2a 3e ab 20 02 3e
       -0.12845634 0.17505845 0.16667908 0.12707774
0001f0 c1 4f 13 be 76 50 01 be 58 2d 69 be 28 db 5e be
       -0.14385892 -0.1262835 -0.22771204 -0.21763289
000200 e0 7b f2 3c f6 be 41 3e 8e 05 4c 3d 70 a4 5f bf
       0.029600084 0.18920502 0.049809985 -0.87360287
000210 59 c0 0d be 35 9a 52 bd b9 3a e8 3d 3a b7 ae bc
       -0.13842906 -0.051416595 0.113393255 -0.021327604
000220 8e cb 46 3e 63 02 5f 3a 18 f2 8a bc 38 85 4a bd
       0.19413587 0.00085071306 -0.016961142 -0.049443454
000230 57 7b 93 3d cf ff c5 3d d9 e4 01 3e 55 bf b7 bd
       0.072012596 0.09667932 0.12684955 -0.089720406
000240 d9 61 46 bd bb 25 3a be ea 53 e7 bd 72 2e 3f be
       -0.04843316 -0.18178456 -0.11295302 -0.18670061
000250 04 90 c6 3d 87 a4 67 bd db bf e7 bd a0 bc e6 bd
       0.096954376 -0.05655339 -0.113158904 -0.11266446
000260 d4 83 96 3c dc 11 2b bd df e2 9e be 61 8c 35 bd
       0.018373407 -0.04176508 -0.31032464 -0.04432333
000270 23 f6 26 be 06 84 0c 3c 19 65 8a be 36 79 63 3d
       -0.16304831 0.008576399 -0.27030256 0.055535518
000280 72 4b 49 bd a8 fa 81 3c c5 ce a1 bd 58 3c 71 3c
       -0.049144216 0.015866593 -0.07900766 0.01472386
000290 bd 1e 19 3f 3d a6 32 be 6e 96 1c be 42 5f 6a 3e
       0.5981253 -0.17446227 -0.1529176 0.228879
0002a0 cb 7e de 3d 3c d1 e1 bd 60 b3 3f 3d 5f db bd 3d
       0.108640276 -0.110262364 0.046801925 0.09270357
0002b0 f2 de f2 bc 90 f1 cc bd 55 a8 2d 3b 4d c9 ce 3b
       -0.029647324 -0.10007012 0.0026498039 0.006310618
0002c0 ec 66 0b bd 92 41 07 3d fd 35 84 3d aa 4a 4b be
       -0.0340337 0.033021517 0.0645561 -0.19852701
0002d0 f8 30 28 be 81 b8 24 3e 85 3e 91 3d b4 ef 96 3b
       -0.1642493 0.16086008 0.07092003 0.0046062116
0002e0 56 b1 c3 3b c2 5d 32 be 09 ad 36 bd 7f 56 ec bd
       0.005972068 -0.17418578 -0.044598613 -0.11539935
0002f0 43 5c d7 bc b4 b7 ba bd bd 06 ed bd 52 4d 8a bd
       -0.026289111 -0.0911707 -0.11573551 -0.06753029
000300 80 99 7e bd ae 4d 22 3a 6c 5f 73 3d 60 1b cf 3d
       -0.062158108 0.0006191385 0.059417173 0.10112643
000310 60 b7 00 bc ab 0d 2f 3e ea da b3 be 7c a2 bd bc
       -0.00785622 0.17095058 -0.35127956 -0.023148768
000320 f0 0a 09 3e f0 3b b8 3d 32 12 b9 bd 9f 68 21 3e
       0.13383079 0.08995807 -0.090366736 0.15762566
000330 e0 56 fe 3d f7 9b 1f 3d 7a 83 a9 bd 87 08 0d bd
       0.12418914 0.0389671 -0.0827703 -0.03443196
000340 84 ec 0a 3e a2 a6 b5 3d 91 3d 91 bd 3a 9b ec 3d
       0.13566786 0.08869673 -0.07091821 0.115530446
000350 63 cc 40 3d a0 d7 6d 3c 9a 1b 7e 3e be 26 c7 bc
       0.04706992 0.014516741 0.24815217 -0.024310466
000360 c6 d7 e3 bd 0d 7b 36 3d ff 1b b2 3e 56 e7 81 3c
       -0.1112514 0.044550944 0.34786984 0.01585738
000370 1d 08 8b 3d 00 49 82 3e 67 e2 dc 3c f7 a4 c5 ba
       0.06788657 0.2544632 0.026963426 -0.001507907
000380 18 a5 cd bd 7f eb 0e be c1 ea 62 be 18 3f c2 bc
       -0.10041255 -0.13957022 -0.22159864 -0.023711726
000390 13 4d 34 3e 4e ab 5a 3d 11 7e 7d bd 54 17 04 3f
       0.17607526 0.053386025 -0.061887804 0.51598096
0003a0 44 b7 85 3e 8d 35 72 3d c4 4e 3b 3e f3 46 fa 3e
       0.26116383 0.0591331 0.18291765 0.48882255
0003b0 42 0b a9 bd e6 c0 1f be b9 0b 24 be bc 23 d0 3e
       -0.082541004 -0.15600929 -0.16020097 0.40652263
0003c0 d9 6e 18 3e e9 22 bf 3d f5 84 7b bd f2 62 05 3e
       0.14886035 0.093328305 -0.061406095 0.13026026
0003d0 ac a8 65 bc c1 63 c9 be eb 94 0c be b6 b9 8b 3d
       -0.014017265 -0.3933392 -0.13728683 0.06822531
0003e0 df 35 f3 3c 38 06 3f 3e 0c 41 71 be 0c c3 ab 3e
       0.029688774 0.18654716 -0.2355997 0.33547246
0003f0 25 95 c8 bd 82 47 8b 3d a9 73 11 3e af a6 33 bd
       -0.09794072 0.068007484 0.14204277 -0.043860134

fc1.bias f4 [256]
000000 e8 12 3a be 84 07 cd ba 1f e1 c0 3e 43 27 0d 3e
       -0.18171275 -0.0015642499 0.37671754 0.13784508
000010 16 e4 1d bd 7d ca 7f 3d f7 43 e4 bc 6c 67 7e be
       -0.038547598 0.062448967 -0.02786444 -0.2484414
000020 d5 06 4a be 65 e3 70 3e 57 71 36 be 90 91 5a 3e
       -0.19729169 0.23524244 -0.17816673 0.2134459
000030 8c 88 ef bd 2e d4 e9 bc c7 ca ba 3c 2a 81 85 3e
       -0.11695966 -0.028543558 0.02280177 0.26075107
000040 79 eb 3b be 67 e6 eb 3d 59 3e fc bd 6c 34 e8 3d
       -0.18351544 0.11518555 -0.12316579 0.11338124
000050 83 fb bc 3e ea 03 57 be 3d 5c 71 3e 95 e4 14 3e
       0.36910638 -0.20997587 0.23570342 0.14540322
000060 08 c6 2d 3e b0 2c 53 3b 64 bd d7 3e 60 f2 9c 3d
       0.16970074 0.003222268 0.4213668 0.07663417
000070 fe 05 69 bd 1c f7 9d be 3c 5c 33 bd d9 19 0a bd
       -0.05689048 -0.30852592 -0.043789133 -0.033716056
000080 d6 d8 5b 3e 6c ba ca bd 53 c9 6e be cb b1 91 3e
       0.21469435 -0.098988384 -0.23318987 0.28455958
000090 ca 2e 28 be e4 3f db bd 96 79 0d 3e 24 6e e4 3b
       -0.16424099 -0.107055455 0.13815913 0.0069711376
0000a0 c5 56 d8 bd d4 ac 05 3d 55 4c d1 3e 03 d9 69 3e
       -0.10563425 0.032635525 0.4087855 0.2283669
0000b0 8e 22 7d bd ac c0 40 be c1 5d 97 3e 64 6a c7 3d
       -0.061800532 -0.18823498 0.29563716 0.09737089
0000c0 7b 49 28 3e ff ed 91 3e ed ae 4d bd 65 54 63 3d
       0.1643428 0.2850189 -0.05021565 0.055500407
0000d0 73 a7 2f be f9 68 f5 3c 39 b3 37 be 1f 50 8f 3d
       -0.1715372 0.029957281 -0.17939462 0.06997704
0000e0 3d 05 e0 3d bf b4 82 3e 7b dc 59 3e 74 47 17 3e
       0.10938499 0.25528523 0.21275513 0.14773351
0000f0 69 34 36 be 0a a7 07 3e db 75 e4 3d f2 a2 28 be
       -0.1779343 0.13247314 0.11155292 -0.16468409
000100 45 fe 21 be 25 fa bc be b1 6e 55 3e 98 d1 8c 3c
       -0.15819652 -0.36909595 0.20843007 0.017189786
000110 ae 24 24 be d6 94 4b be 71 e1 87 bd 54 cf 1e 3c
       -0.16029617 -0.19880995 -0.066347964 0.009692986
000120 a5 e3 a3 be 2f d5 56 3e 5e 89 24 3e cd 43 89 3d
       -0.32009616 0.2097976 0.16068026 0.06702385
000130 a5 65 32 3e ea f5 fc 3d 22 77 81 3d 1c 19 05 3e
       0.17421587 0.12351592 0.06321551 0.1299786
000140 91 8f 90 3e 59 53 b0 bd 02 90 91 bd d7 46 00 3e
       0.28234532 -0.08609647 -0.071075454 0.12527023
000150 1b 73 a4 3d f3 f8 1b 3e ed c4 a3 be 0b 24 4d 3e
       0.08029767 0.15231685 -0.3198618 0.2003328
000160 26 dd 62 bc 5b 69 22 3e bc b4 59 3e b6 fa fc 3c
       -0.013846671 0.15860502 0.21260351 0.030881267
000170 62 97 3f 3e c5 96 89 3e f6 f8 cd 3d 93 c1 cf bd
       0.18710092 0.2687284 0.10057251 -0.10144343
000180 5d 54 d5 3c fb 79 37 be cd 06 4a 3e 65 7c a9 3e
       0.026041204 -0.17917626 0.19729157 0.33102718
000190 d4 17 a5 3d ed 63 00 3e 12 b8 c2 3d 8f b3 5c 3d
       0.080611855 0.12538119 0.09507765 0.053882178
0001a0 34 3b e5 3d 7c 1e 0e 3e f7 2f 70 3e 0f 54 b8 bd
       0.11192933 0.13878816 0.23455797 -0.09000408
0001b0 2b 8a ad bc 7f d4 a0 3d fc 3d f6 3d ff 17 c0 bb
       -0.021184048 0.078530304 0.12023541 -0.0058622356
0001c0 e7 d6 c4 bd 43 90 0e bd f9 59 1d 3e 21 db 06 3e
       -0.09611302 -0.034805547 0.15366353 0.13169529
0001d0 43 b9 cd bd 61 8c 18 3e 78 30 95 3e d3 cb 43 be
       -0.100451015 0.148973 0.2913854 -0.19120722
0001e0 53 30 45 3e a2 63 a1 3d 2c 12 ec bd 5b 2e 26 3e
       0.19256715 0.078803316 -0.115269035 0.1622862
0001f0 dc d5 1e 3e de bc 1d 3e a8 d4 25 bd 24 ae fb bd
       0.15511268 0.15404078 -0.040486008 -0.12289074
000200 17 d0 79 be d6 ed 9a be de 79 2a bd 01 77 b4 3d
       -0.24395786 -0.3025958 -0.041620128 0.08811761
000210 ca bc 85 3e c5 dd dc 3d 25 9d b9 bc 65 b9 85 3e
       0.26120597 0.10784487 -0.02265794 0.26118007
000220 2f 0a cf bd bf 81 a0 be 2a 31 67 be df 1f 51 bd
       -0.10109364 -0.31348988 -0.22577348 -0.051055785
000230 a9 b5 da bd a1 67 dc 3d e6 26 81 3e f0 1e 59 be
       -0.1067918 0.10761953 0.2522499 -0.21203208
000240 ac de ef bd f3 23 99 3d 29 9c dc bd d8 c0 5f 3e
       -0.11712393 0.0747756 -0.10771973 0.21850908
000250 1b 07 0a bd b1 f8 ec bc fa a8 81 bd ba f0 27 3e
       -0.033698183 -0.028927179 -0.06331058 0.16400424
000260 37 a2 65 be 6a da ca bd c2 59 4b 3e 8b 59 92 3d
       -0.22425161 -0.099049404 0.19858459 0.07145985
000270 f5 03 39 be 35 3e 5c 3e 0d 3f 31 3e bc e3 cb 3a
       -0.18067916 0.21508105 0.17309208 0.0015555541
000280 dd 81 0f 3d f8 2c 02 bd 77 ef a8 3e c9 83 85 3e
       0.035035957 -0.031781167 0.32995197 0.26077107
000290 d5 5c 49 3e ed 19 81 3d 80 cd 8e 3d f3 8e 3c 3d
       0.19664319 0.06303773 0.0697279 0.046034764
0002a0 64 c4 e2 bc 1b dd 0e 3e 12 fb 31 3d c7 fc 73 3e
       -0.027681537 0.13951533 0.04345233 0.23826896
0002b0 45 6e c4 3d f0 27 21 bd 41 88 09 3e 4a 7c 0f 3e
       0.09591345 -0.039344728 0.13430883 0.14012256
0002c0 ea 84 1c 3d 46 c2 26 bd 5a de 12 bd a4 d6 f8 bd
       0.038212694 -0.040712617 -0.035856582 -0.121503145
0002d0 52 ca 1a be 61 6a 8e bd 5c a7 53 be 0a db 14 3d
       -0.15116242 -0.06953884 -0.20669311 0.036341704
0002e0 70 de 39 3e 43 99 45 3e c8 c1 9f 3e f0 20 36 3e
       0.1815126 0.19296746 0.3120253 0.17786002
0002f0 f6 d9 33 be 4b 88 33 3e 4f 23 06 bd 9e 1f 86 3e
       -0.17563614 0.1753246 -0.032748517 0.26195997
000300 d0 65 33 3e 50 47 88 3c e7 93 a3 3d 2c 9b aa bd
       0.17519307 0.016635567 0.079871945 -0.08330378
000310 59 1e 62 3b 7c 1d b0 3d 47 ae 97 be c3 aa ee 3d
       0.0034502952 0.08599374 -0.2962515 0.11653664
000320 49 a4 1f 3d 87 03 ff 3e af 1c 8f bc bd d1 b4 3e
       0.038975034 0.4980738 -0.017469732 0.35316268
000330 4f 6a 94 3d 6a 97 33 be 4f ef d4 bd 4e d3 ea bd
       0.07246839 -0.17538229 -0.10397207 -0.114660844
000340 6b c3 a4 3d 0a 62 cb 3d bd 49 5c be 73 fc 75 3b
       0.080450855 0.09930809 -0.21512504 0.0037534505
000350 4e 22 1b 3e d0 c5 a1 3e 24 25 ee bc 68 e0 c9 3d
       0.15149805 0.3159623 -0.029070444 0.09857255
000360 31 c9 be bb d5 36 8d 3d 63 74 9d be a4 79 67 3d
       -0.0058223237 0.06895224 -0.3075286 0.05651249
000370 0a a1 0d be 6b 9b ad bc 31 c2 88 3e e3 da 09 3d
       -0.13830963 -0.021192273 0.26710656 0.033656012
000380 2f 2e 21 3e e2 bb 74 be fa 17 8d 3c f1 22 5b be
       0.15740274 -0.23899797 0.017223347 -0.21400048
000390 aa e3 b2 be 43 c3 5e 3b 1f 31 a3 3e 7e e5 97 3d
       -0.3493932 0.0033990897 0.31873414 0.07416819
0003a0 5a 11 d3 be c5 4b db 3e 99 93 f7 bd c1 d5 96 bd
       -0.41224176 0.42831245 -0.12088699 -0.07364989
0003b0 fb 91 5d 3d 30 02 72 3d 5e ac ab 3c d3 8a 7d 3c
       0.054094296 0.059084117 0.020956215 0.015474993
0003c0 43 6e c1 bc cc 83 bc bc ee ec 52 bd 13 c4 22 3e
       -0.023612147 -0.023012064 -0.051495485 0.15895109
0003d0 69 94 70 3e 16 b1 07 be b3 d4 6c 3e ab 05 25 3d
       0.23494114 -0.13251147 0.23128013 0.04028861
0003e0 d3 0f 9a be c7 7d 6f 3e c3 37 cb 3c 24 80 69 be
       -0.30090198 0.23387824 0.024806863 -0.22802788
0003f0 23 12 c1 bd 62 c8 36 3d a1 44 98 3d 4c 3b 49 3b
       -0.094272874 0.044624694 0.07434965 0.003070551

fc2.weight f4 [4, 256]
000000 25 20 5f bd 39 91 66 3d 19 42 b9 3c 5e 29 07 be
       -0.054474015 0.05629084 0.022614526 -0.13199374
000010 ed 71 cc bb 1f 28 0a be 97 64 0a bd 3d 0e 1b bd
       -0.006239167 -0.13491867 -0.033787336 -0.037855376
000020 45 2b 08 be 07 7d 35 3e 48 58 ad 3d dc 3b b7 be
       -0.13297756 0.17723475 0.08464104 -0.35787857
000030 14 94 0b be 9e 20 f8 3e 66 27 c7 be c9 76 26 be
       -0.13630706 0.48462385 -0.38897246 -0.1625625
000040 b2 f0 67 be 50 27 45 3e bb cc 92 3e 48 4c e3 3e
       -0.22650412 0.19253278 0.28671822 0.44394135
000050 f1 64 42 3e c8 b5 f7 bb 38 6e 99 3d 21 c2 15 3f
       0.18983819 -0.007559512 0.07491726 0.5849934
000060 d8 ef 98 3d 32 03 dd 3e c9 15 07 be a4 83 37 3e
       0.074676216 0.431665 -0.13191904 0.1792131
000070 2b a4 2e 3f ec 25 35 be ba 3d 2d be 80 af 1e be
       0.6821925 -0.17690247 -0.16918078 -0.15496635
000080 ff 0b 9c 3d aa a2 da bd aa 29 0d bf c2 99 57 3e
       0.076194756 -0.10675557 -0.551417 0.21054748
000090 5f 81 e6 be 6b 8c c0 be 11 63 aa be eb e0 81 be
       -0.45020577 -0.3760713 -0.33278707 -0.2536691
0000a0 e9 e3 b5 bd ca ee 81 3d 27 59 b8 bc 11 8a 88 be
       -0.08881361 0.063443735 -0.022503449 -0.26667836
0000b0 b7 ee 32 3f 49 30 3b 3f cf e3 9d 3d 65 5b aa be
       0.698955 0.7312055 0.07709467 -0.33272853
0000c0 1f f8 56 3e 1a b5 26 3e fd cf 29 bf 71 2a 0c 3e
       0.20993088 0.16280022 -0.6633299 0.13688065
0000d0 f7 9a 08 be 73 e7 03 3c 07 29 ca be 17 21 57 be
       -0.13340364 0.008050787 -0.39484426 -0.21008717
0000e0 52 89 88 3d 4b 17 70 bc 0b 01 78 bd be 56 4f 3e
       0.06666817 -0.014653991 -0.06054787 0.20247933
0000f0 ca 5d 07 bf 49 c4 02 3e fb fd 83 bb c8 de c5 be
       -0.52877486 0.1277019 -0.0040280796 -0.3864653
000100 92 18 02 bd 34 ef 80 3d 43 0e 6a be 35 85 f4 3e
       -0.031761713 0.062956244 -0.22857003 0.4775788
000110 6f 59 56 be 3b 06 5b 3d 69 11 cc be 38 c5 48 3d
       -0.20932554 0.05347274 -0.39857033 0.049016207
000120 de 30 ec 3e 03 d7 90 3e 70 55 eb 3d b7 a2 08 3e
       0.46131033 0.2828904 0.11490905 0.13343321
000130 44 e1 52 3c 73 df 92 be d5 f2 d8 3d 1a 75 1a be
       0.01287109 -0.28686103 0.105931915 -0.15083733
000140 c9 4a 86 3e ee eb 2d 3f bc 15 79 3d 92 ec 02 3e
       0.26228932 0.67938125 0.060811743 0.12785557
000150 5b bf 0d bf f3 46 83 3e 06 cb 31 3f de 77 2f 3e
       -0.5537011 0.25640067 0.69450414 0.1713557
000160 de 67 96 be bd 10 5e be 2d d9 1f 3e 15 0e 7c 3e
       -0.2937612 -0.21686073 0.1561019 0.24614747
000170 4a dd 22 3e bd 9f 74 3e 45 d9 4b 3b fb 4c 5a bf
       0.15904728 0.2388906 0.0031104845 -0.8527371
000180 57 52 04 be 0d 9e ab 3e 63 42 b7 3d 9f 3a fc bd
       -0.12922035 0.3351902 0.08948209 -0.123158686
000190 c8 12 90 3d 8f 45 31 3d 35 9e 42 3e b5 c9 a3 3e
       0.07034832 0.043279227 0.19005664 0.31989828
0001a0 35 00 16 be 6c 29 ee bc af f8 ad 3d cf ec ba be
       -0.14648516 -0.029072486 0.08494698 -0.36508796
0001b0 f3 9c 06 bd ec 8c c6 b9 86 fb fa bd 6b 60 3b be
       -0.032864522 -0.00037870498 -0.122550055 -0.182985
0001c0 3f c1 0b 3e 4d f3 e4 bd eb 84 36 bd c2 f9 96 bd
       0.13647936 -0.111792184 -0.044560354 -0.07371856
0001d0 74 ba ec bc 0b 49 ae 3e 87 0b c4 3e 93 40 72 3e
       -0.028897502 0.34040102 0.38290045 0.23657446
0001e0 0e 13 b3 be cb e0 ae be 62 9e 0e bd 9c 32 7e be
       -0.34975475 -0.34155878 -0.034819014 -0.24823993
0001f0 41 91 bc 3b bd 7d ff 3d cf 7a a4 bd 3f af 30 3f
       0.0057546203 0.124751545 -0.080312364 0.69017404
000200 d6 1a 36 be da f1 aa 3d 72 4a 37 be 4f b7 8b 3e
       -0.17783675 0.08346911 -0.17899492 0.2728829
000210 2b 75 fa be f2 00 e3 3c f8 94 07 3f 0f 5d 9e be
       -0.48917517 0.027710412 0.52961683 -0.30930373
000220 77 c7 1e bd 52 e9 81 be 1a f7 e8 be b4 8b 37 3d
       -0.038764443 -0.25373322 -0.45501024 0.044810966
000230 a0 4e 91 bd c9 46 71 be c1 16 98 3d c3 73 d7 be
       -0.07095075 -0.23562159 0.07426215 -0.42080507
000240 b1 9d b3 be eb 12 a8 bd 40 22 e8 be 39 df 32 be
       -0.35081246 -0.08206733 -0.4533863 -0.17467965
000250 36 b3 6a be 40 bf 6b be c7 3f 58 be c0 0e 29 3e
       -0.22919926 -0.23022175 -0.21118079 0.16509533
000260 85 de 0f 3c 12 0e 06 3e f2 19 9a bd 0e 60 1d bd
       0.00878108 0.13091305 -0.0752448 -0.038421683
000270 55 d2 b2 3e 09 27 c7 be b1 d8 01 3c 40 de 2c 3f
       0.34926096 -0.3889697 0.007925198 0.67526627
000280 08 98 f3 bd 98 61 1c 3e 4c 69 55 3e 63 86 d4 bc
       -0.11894232 0.15271604 0.20840949 -0.025942987
000290 7f e1 43 3e ae 18 6e 3e db 8a 4c 3c 0b 54 5e 3e
       0.19128989 0.23251602 0.012484278 0.21711747
0002a0 07 64 63 3e f7 aa b0 bd a5 3c 64 3e 1c f8 8e 3e
       0.22206126 -0.08626359 0.22288759 0.27923667
0002b0 4a cf 8f be 81 ee 29 bc 2c d2 0a 3e be 69 8f 3e
       -0.28087837 -0.010371805 0.13556737 0.28010362
0002c0 b7 fa 1c be 74 24 75 be 2c 53 d2 3d 86 1e c2 be
       -0.15330015 -0.23939687 0.1026977 -0.37913913
0002d0 42 bf fc bd 5d 8b ea bb 86 8b d4 bd 31 11 48 3e
       -0.12341167 -0.0071577267 -0.103781745 0.19537808
0002e0 85 82 0d be c6 51 90 3b e8 51 0c 3e aa 15 86 be
       -0.1381932 0.0044042794 0.1370312 -0.26188403
0002f0 e9 69 e1 bc 4d 3a a8 3d 1f b6 b0 3d bc 4f 6f 3e
       -0.027516322 0.08214245 0.08628487 0.2337026
000300 5f 20 e2 be 03 cb 20 be c0 97 46 3e 04 fa 90 bc
       -0.44165322 -0.15702443 0.19393826 -0.017697342
000310 83 26 8f be ac eb 2a 3e d5 7c 02 bf 3f bf d7 3e
       -0.2795907 0.16691464 -0.5097173 0.42138097
000320 06 b1 0c 3d 9e e8 da bd c1 63 74 3e 4f 8f f3 bd
       0.03434851 -0.106888995 0.23866178 -0.11892568
000330 81 e8 53 3f 52 62 71 be 31 37 3d be 0c bc 20 bf
       0.8277665 -0.23572662 -0.18478085 -0.62786937
000340 9e e9 54 be da 30 28 3b 0b ff 6b 3d dd 07 a5 3e
       -0.20792243 0.0025663883 0.057616275 0.32232562
000350 05 3c f8 3d d1 4e ac be 30 b7 3c bd 28 7d a9 3c
       0.12120823 -0.33653882 -0.04607314 0.020689562
000360 c8 f5 ab bd db ff d2 3e aa d2 53 bf c2 83 5b be
       -0.083964884 0.41210827 -0.8274332 -0.2143698
000370 f8 51 e4 bd 57 f3 08 3e 75 81 2f 3e 92 8b ba 3e
       -0.11148447 0.13374077 0.17139228 0.3643461
000380 b5 a9 17 bf cd fd 00 be 84 36 40 be b5 1a 05 3e
       -0.5924333 -0.12596817 -0.18770796 0.12998469
000390 98 04 26 3f 17 7a 83 be 01 a5 80 3d 5e cc 51 be
       0.6485076 -0.25679085 0.06281472 -0.20488116
0003a0 22 1d 85 be b9 1c 91 bd d0 fb ec be 0e 51 3e be
       -0.2599879 -0.070855565 -0.46285868 -0.18585607
0003b0 9b da 42 3d 5d 4a 03 be cb 3e 8f 3e b4 d0 88 bb
       0.04757176 -0.12821336 0.27977595 -0.00417527
0003c0 df 99 d8 3e 4e 1a bf 3e 3c 46 08 3f 8c 68 ab be
       0.42304894 0.37324756 0.5323217 -0.334782
0003d0 db 9a 6f 3e 86 9e 94 3c ee b5 7d be c6 5a 8f bc
       0.23398916 0.018141996 -0.24776432 -0.017499339
0003e0 00 cd 46 be ea 87 4a 3e 0f b1 42 be c1 02 a7 3e
       -0.19414139 0.1977841 -0.19012855 0.3261929
0003f0 37 23 78 bd 9e 3e 5f 3f 01 1d 57 bd 51 5d 24 be
       -0.06058046 0.8720492 -0.052517895 -0.16051222

fc2.bias f4 [4]
000000 3a 16 e9 3c 75 a6 d5 3b 74 bc 3c 3b cd cf 20 3d
       0.028452981 0.0065200874 0.002879885 0.039260674
