p2_continuous-control/checkpoint_critic_v2.pth (torch_old, 435420 bytes, 7 tensors)

fcs1.weight f4 [256, 33]
0.32471588 0.23263642 0.5747649 -0.29851553 -0.30468562 0.011351253 -0.02397655 -0.041286282
-0.1017772 0.1007234 -0.14360702 0.010574873 0.0109934155 -0.10369969 -0.14343362 -0.9892092
-0.20536043 0.2656319 -0.093703106 0.07345372 -0.01143616 0.049772788 0.054116473 -0.15204293
-0.12582548 -0.21439591 0.2787926 0.66177094 0.552712 0.0011554882 -0.7125566 0.055325605
-1.6322445 -0.101894855 0.43117872 0.3371826 0.08537238 -0.25914025 -0.14365529 0.627049
0.44122425 0.52889526 -0.29194883 -0.38252956 0.2619863 0.49894243 0.11059524 0.38018814
0.22097917 0.52557683 0.1679554 0.24917865 -0.2152003 0.08884916 0.23477143 0.05775603
-0.00311362 -0.5214453 -0.09335427 -0.21028286 0.27036825 -0.06631539 -0.050194405 -0.26437184
-0.051575504 -0.14912741 0.13216202 0.20517881 0.23940279 0.08350682 -0.13736436 0.2851775
0.09151095 0.28529397 -0.5156003 0.18440327 -0.16372986 0.028043354 -0.13351108 -0.6389334
-0.04858475 -0.5250102 0.18098885 0.15279785 0.17746533 -0.16549571 0.007986816 0.038604993
-0.09198562 -0.14859262 0.10355153 -0.42314166 0.153075 0.5224764 0.3315999 -0.003129147
-0.4911892 0.020507619 1.9260776 0.2668104 0.1760899 0.03308747 -0.16343845 -0.7087113
-0.4882586 0.3576846 0.07986175 -0.24504603 -0.17966668 -0.032944158 0.0062692515 -0.09011758
-0.67647386 0.11016376 -0.048997905 -0.7232161 -0.028796505 -0.47815785 0.14607331 0.075388946
0.06894017 -0.012378805 -0.095529094 0.059302274 -0.10423546 0.51369447 0.4401896 -0.12013475
0.06179422 -0.34135854 -0.027449548 -2.5704648 0.15772207 0.4322713 -0.46903303 0.10266004
-0.46177116 -0.4129398 -0.30580413 0.21652052 -0.36043343 0.11825805 -0.0020453292 -0.03234092
0.13424794 0.39901987 -0.3354647 0.23649472 0.11018556 -0.21141188 0.5383563 0.06103482
0.037026867 -0.058811817 -0.016295275 0.2569788 -0.15699214 0.2989185 -0.16839015 0.8958495
-0.26911965 0.020380646 -0.85939986 -0.050751895 1.756298 -0.24336591 0.4348847 0.08220389
0.6791429 0.19497165 -0.036834024 0.14057359 -0.08476817 0.35472155 0.21441019 -0.0059122536
-0.3578317 0.22733894 0.37850404 -0.57203084 0.40190482 0.11974709 -0.051522635 -0.31812942
0.4620179 0.032364417 0.047234796 0.043211885 -0.30489054 0.2068281 0.21341088 -0.070073985
0.44712564 -0.14432682 0.027036607 -0.38267693 -0.0040731505 0.79406244 -0.2559661 0.47873664
0.35076004 0.14782651 0.088538654 -0.45501292 0.0046338965 -0.15162918 -0.3473238 -0.18131477
-0.029570872 -0.03266417 -0.048897553 -0.2926852 -0.46529776 -0.1376943 0.43524462 0.27357492
0.24807641 -0.2812903 -0.18426725 0.19550708 0.4605736 0.52980477 -0.36111152 0.07594183
0.24062043 0.5542468 -0.025057351 0.054406084 -0.58888245 -0.038830258 1.2751745 0.009157468
0.013013886 -0.4232421 -0.26219246 0.011104102 0.15861037 -0.55243796 -0.07523803 0.2316762
-0.038671423 -0.026383523 -0.011559335 0.030997837 0.01380158 0.11139863 0.0056273076 0.20151202
0.010090195 0.23783684 0.08482064 -0.028797377 -0.0366601 0.044380885 0.14200215 -0.037174236
00000000: 2941 a63e 3e38 6e3e cb23 133f 07d7 98be
00000010: c1ff 9bbe 9bfa 393c 786a c4bc ce1b 29bd
00000020: 9170 d0bd 1248 ce3d b80d 13be 3b42 2d3c
00000030: ba1d 343c 8160 d4bd 43e0 12be d03c 7dbf
00000040: 014a 52be e800 883e 6ae7 bfbd e76e 963d
00000050: bb5e 3bbc 8dde 4b3d 3ca9 5d3d 24b1 1bbe
00000060: 65d8 00be 9a8a 5bbe e7bd 8e3e d269 293f
00000070: 897e 0d3f c073 973a 1c6a 36bf 1a9d 623d
00000080: 63ed d0bf 40ae d0bd 75c3 dc3e 33a3 ac3e
00000090: b7d7 ae3d 08ae 84be 5f1a 13be 4986 203f
000000a0: 25e8 e13e ae65 073f 517a 95be eada c3be
000000b0: 1123 863e 6275 ff3e c27f e23d 05a8 c23e
000000c0: 5d48 623e 348c 063f 80fc 2b3e b028 7f3e
000000d0: 785d 5cbe 8cf6 b53d ec67 703e 9691 6c3d
000000e0: e00d 4cbb 707d 05bf 8630 bfbd 6454 57be
000000f0: b56d 8a3e 5dd0 87bd a698 4dbd bf5b 87be
00000100: d640 53bd dbb4 18be 7b55 073e 651a 523e
00000110: 0126 753e a005 ab3d 3ea9 0cbe c902 923e
00000120: 186a bb3d 0d12 923e 62fe 03bf 36d4 3c3e
00000130: cda8 27be 2dbb e53c 21b7 08be 2491 23bf
00000140: ce00 47bd 1267 06bf 2455 393e 0a77 1c3e
00000150: 79b9 353e b577 29be 22db 023c 4520 1e3d
00000160: f562 bcbd aa28 18be d312 d43d 06a6 d8be
00000170: b1bf 1c3e 03c1 053f 76c7 a93e 6012 4dbb
00000180: 277d fbbe 98ff a73c b689 f63f 5f9b 883e
00000190: e950 343e ba86 073d 695c 27be 1b6e 35bf
000001a0: 08fd f9be 7022 b73e 8f8e a33d 59ed 7abe
000001b0: 8bfa 37be 74f0 06bd 4b6e cd3b 918f b8bd
000001c0: 642d 2dbf 8a9d e13d 07b2 48bd b124 39bf
000001d0: a6e6 ebbc 1bd1 f4be 3e94 153e 8565 9a3d
000001e0: 8130 8d3d 79d0 4abc c2a4 c3bd f1e6 723d
000001f0: 6779 d5bd 7b81 033f 8860 e13e 3509 f6bd
00000200: f01b 7d3d 8cc6 aebe e0dd e0bc 7f82 24c0
00000210: e581 213e aa52 dd3e 1925 f0be 6d3f d23d
00000220: 456d ecbe d86c d3be 5c92 9cbe 8eb7 5d3e
00000230: bb8a b8be 4731 f23d ee0a 06bb ea77 04bd
00000240: 4b78 093e 554c cc3e 07c2 abbe ac2b 723e
00000250: f8a8 e13d 5b7c 58be b8d1 093f a6ff 793d
00000260: 7ca9 173d a9e4 70bd ab7d 85bc ba92 833e
00000270: 8cc2 20be d80b 993e 786e 2cbe 6556 653f
00000280: 0dca 89be 50f5 a63c a101 5cbf 38e1 4fbd
00000290: 5fce e03f ea34 79be 35a9 de3e 835a a83d
000002a0: 4fdc 2d3f a6a6 473e 46df 16bd 86f2 0f3e
000002b0: ef9a adbd 109e b53e 588e 5b3e 94bb c1bb
000002c0: b735 b7be 8acb 683e 48cb c13e 9d70 12bf
000002d0: 78c6 cd3e f63d f53d 6609 53bd dce1 a2be
000002e0: 9c8d ec3e 8d90 043d 4679 413d f2fe 303d
000002f0: 9d1a 9cbe bfca 533e 6288 5a3e f382 8fbd
00000300: a7ed e43e 69ca 13be e07b dd3c 3bee c3be
00000310: 1078 85bb ad47 4b3f fd0d 83be f81c f53e
00000320: d296 b33e d55f 173e c153 b53d 74f7 e8be
00000330: f1d7 973b ae44 1bbe 6dd4 b1be 94aa 39be
00000340: 9d3e f2bc ddca 05bd cd48 48bd d6da 95be
00000350: 823b eebe bcff 0cbe 62d8 de3e 0312 8c3e
00000360: be07 7e3e 4805 90be 8eb0 3cbe 0233 483e
00000370: 4ed0 eb3e 49a1 073f 9ce3 b8be 6487 9b3d
00000380: 3465 763e 1ee3 0d3f 1345 cdbc ead8 5e3d
00000390: 00c1 16bf 7a0c 1fbd eb38 a33f 3409 163c
000003a0: 3238 553c 30b3 d8be 173e 86be fbed 353c
000003b0: c26a 223e 936c 0dbf 6516 9abd 873c 6d3e
000003c0: ed65 1ebd 4222 d8bc 5d63 3dbc 2def fd3c
000003d0: 0620 623c f724 e43d 4765 b83b 2b59 4e3e
000003e0: 5851 253c 808b 733e 72b6 ad3d 7ae8 ebbc
000003f0: e728 16bd bbc8 353d 0369 113e 0344 18bd

fcs1.bias f4 [256]
-0.7400525 -0.30620882 -0.3343311 -0.45333123 -0.7731586 -0.3957154 -0.7169345 -0.113742866
-0.5122519 -0.46371877 -0.839181 -0.34235966 0.025635125 -0.41944185 -0.21864109 0.9048475
-0.7913732 -0.9984574 0.7659477 0.23110034 -0.5504013 -1.0218003 -0.75888973 0.15881555
-0.873862 0.33317512 -0.5762933 -0.14821056 -0.6769454 -0.59448606 -0.7243118 -0.517317
-0.9964457 -0.6478477 -0.31044585 -0.92148685 -0.66230196 -0.7267824 0.10306275 0.18884134
-0.8331766 -0.6816865 -0.061232354 -0.9380344 -0.6914428 -0.640951 -0.047577485 0.43482077
-0.06367555 -0.51910985 -0.61062336 -0.5904481 -0.69618195 -1.0282665 -0.84626687 -0.75477153
-0.8297842 -0.75093454 -0.8348888 -0.26468477 -0.29806253 -1.126762 -0.32033974 0.13943416
-0.795001 -1.0551158 0.36383685 -0.7735161 0.091450654 -1.106013 -0.84131235 -0.8983082
-0.5564118 -0.44716182 -1.0701904 -0.7209793 -1.2565796 -0.6502133 -0.8764404 -0.8468623
0.20652686 -0.8977529 -1.2089626 0.0013191068 -0.21640591 -0.728641 -0.5633138 -0.6914543
-0.930535 -0.20518124 -0.0518051 -0.6310122 -0.7942567 -0.61854553 -1.0912745 -0.09722133
-0.6200787 -0.9498852 -0.581917 -0.3501044 0.03731121 -0.322112 -0.53154564 -0.53598547
-0.92608577 -0.58773214 -0.56539005 0.013776941 0.17646721 -0.5359811 -0.4018167 -0.88078356
-0.85614556 -0.7067632 -1.1105311 -0.6541134 -0.67860574 -1.1421939 -0.292058 -0.59089833
-1.0469611 -0.502766 -0.72088355 -0.56116235 -0.6066661 -0.2522941 -0.5425283 -0.5938754
-0.9631447 -0.8237575 -0.9734585 -0.9833737 -0.9763204 -0.44698992 -0.79055196 0.083791085
-0.8672968 -0.9626515 0.69829977 0.27520826 0.5800183 -0.6863189 -0.5376427 -0.9496085
-0.9304436 -0.6037924 -0.8679486 -0.94670963 0.14416991 -0.5329166 -0.7426336 -0.53464884
-0.635069 -0.5026112 -0.31413054 -0.347002 -0.22261411 -0.503225 -0.8640473 -0.84143895
-0.8074615 -1.0479834 -0.554435 -0.16908847 -0.88161474 -0.7913836 -0.87226456 -0.74299496
-0.5247237 -0.09008166 -0.09417835 -0.92333746 -0.06750965 0.7806967 -0.83796793 -0.3731299
-0.6648059 -0.62539023 0.36286956 -0.15562227 -0.015836637 -0.7585878 -0.465916 -0.45806098
-0.6907247 -0.4516078 -0.6656898 -0.90826076 -0.8836355 -0.54064685 -0.63153577 -0.62576675
-0.66391414 -0.122669965 -0.5513968 -0.33984163 -0.8429985 -0.93284154 -0.44904715 -0.2548574
-0.71302986 -0.3240022 -0.784873 -0.668804 -0.36002558 0.38404143 -1.0119619 -0.28325376
-0.7987122 -0.46957374 -0.6998965 -0.94203526 -0.60325825 -0.42077014 -1.1357762 -0.39380887
-0.3162024 -1.1601903 -0.3829681 -0.6303487 -1.1785194 -0.4340361 -0.42540294 -0.7581829
-0.77939 -0.9017367 0.4988095 -0.50713015 -0.88206875 -0.25362393 0.6458396 -0.46154675
0.40322623 -0.26386595 -0.55576736 -1.2647197 0.17917049 -0.4925341 -1.0432673 -0.21064614
-0.42308775 -0.80462605 -1.1149635 -0.25744885 -0.60055655 -0.78341967 -0.55979055 -0.6510026
-0.17690216 -1.0234634 -0.6568176 -1.0503579 -0.6692366 -0.54334086 -0.46751052 -0.38886777
00000000: 1574 3dbf 67c7 9cbe 722d abbe 081b e8be
00000010: b9ed 45bf 359b cabe 0589 37bf 05f2 e8bd
00000020: f122 03bf 8c6c edbe 91d4 56bf c449 afbe
00000030: c100 d23c 15c1 d6be 73e3 5fbe 16a4 673f
00000040: 6f97 4abf e79a 7fbf 2615 443f 91a5 6c3e
00000050: 19e7 0cbf 5aca 82bf 9946 42bf 8ba0 223e
00000060: 6cb5 5fbf ee95 aa3e f587 13bf 82c4 17be
00000070: 4b4c 2dbf 3d30 18bf 806c 39bf e36e 04bf
00000080: 1117 7fbf 59d9 25bf c2f2 9ebe 90e6 6bbf
00000090: 9f8c 29bf 690e 3abf 9012 d33d a05f 413e
000000a0: 104b 55bf 0283 2ebf c7ce 7abd 0623 70bf
000000b0: 6502 31bf 5d15 24bf 9ce0 42bd d4a0 de3e
000000c0: 5468 82bd 62e4 04bf d051 1cbf 9b27 17bf
000000d0: fb38 32bf 3d9e 83bf f2a4 58bf b538 41bf
000000e0: bd6c 54bf 3f3d 40bf 46bb 55bf c384 87be
000000f0: a79b 98be bd39 90bf 9203 a4be d4c7 0e3e
00000100: 2f85 4bbf 090e 87bf d348 ba3e 2705 46bf
00000110: 7b4a bb3d d591 8dbf 3f60 57bf 87f7 65bf
00000120: 0171 0ebf 65f2 e4be 00fc 88bf 1992 38bf
00000130: 9ad7 a0bf 6174 26bf 665e 60bf f8cb 58bf
00000140: c77b 533e 22d3 65bf 49bf 9abf e1e5 ac3a
00000150: 8399 5dbe 3788 3abf 5535 10bf 2603 31bf
00000160: 8b37 6ebf 081b 52be 9631 54bd 048a 21bf
00000170: 6854 4bbf 0059 1ebf e2ae 8bbf fa1b c7bd
00000180: 7abd 1ebf ad2b 73bf 83f8 14bf e240 b3be
00000190: a4d3 183d ddeb a4be 6013 08bf 5836 09bf
000001a0: f513 6dbf 9d75 16bf 67bd 10bf aeb8 613c
000001b0: d2b3 343e 0f36 09bf ebba cdbe 087b 61bf
000001c0: 5b2c 5bbf 6fee 34bf e225 8ebf fa73 27bf
000001d0: 1bb9 2dbf 6933 92bf a088 95be 1d45 17bf
000001e0: d202 86bf 46b5 00bf d38b 38bf 56a8 0fbf
000001f0: 784e 1bbf b12c 81be 22e3 0abf 3808 18bf
00000200: a790 76bf c6e1 52bf 9434 79bf 61be 7bbf
00000210: 22f0 79bf dddb e4be 9d61 4abf a99a ab3d
00000220: 2a07 5ebf 5470 76bf c6c3 323f 19e8 8c3e
00000230: 147c 143f 98b2 2fbf f4a2 09bf 8b19 73bf
00000240: 8d31 6ebf 2492 1abf e131 5ebf 905b 72bf
00000250: 47a1 133e 396d 08bf 3c1d 3ebf bfde 08bf
00000260: e293 22bf 21ab 00bf b8d5 a0be 3faa b1be
00000270: f4f4 63be 5bd3 00bf 3432 5dbf 8b68 57bf
00000280: ccb5 4ebf 5224 86bf 74ef 0dbf 8725 2dbe
00000290: 81b1 61bf 1e98 4abf bb4c 5fbf eb34 3ebf
000002a0: 4b54 06bf bc7c b8bd 94e0 c0bd d85f 6cbf
000002b0: 8042 8abd bddb 473f 1185 56bf e20a bfbe
000002c0: b830 2abf 9319 20bf 0aca b93e 725b 1fbe
000002d0: d6bb 81bc cf32 42bf 8b8c eebe f886 eabe
000002e0: 55d3 30bf 2339 e7be a66a 2abf c783 68bf
000002f0: f035 62bf d567 0abf 54ac 21bf 4032 20bf
00000300: 47f6 29bf 643a fbbd 5728 0dbf b9ff adbe
00000310: c0ce 57bf b4ce 6ebf 82e9 e5be ab7c 82be
00000320: 2089 36bf 9ee3 a5be 70ed 48bf bd36 2bbf
00000330: 4655 b8be 14a1 c43e f887 81bf a306 91be
00000340: 6778 4cbf f86b f0be 6b2c 33bf 3929 71bf
00000350: 226f 1abf 2f6f d7be 1d61 91bf 51a1 c9be
00000360: 48e5 a1be 1e81 94bf 6514 c4be 885e 21bf
00000370: b9d9 96bf fb39 debe 6ace d9be 4618 42bf
00000380: 1a86 47bf 37d8 66bf f563 ff3e 48d3 01bf
00000390: 42cf 61bf ffda 81be be55 253f db4f ecbe
000003a0: ab73 ce3e 7019 87be c546 0ebf 56e2 a1bf
000003b0: 7878 373e 6e2d fcbe c889 85bf 9fb3 57be
000003c0: f59e d8be f9fb 4dbf 20b7 8ebf 56d0 83be
000003d0: 13be 19bf 318e 48bf 6f4e 0fbf 1ba8 26bf
000003e0: d725 35be d900 83bf 3325 28bf 2172 86bf
000003f0: 1753 2bbf 6318 0bbf 8a5d efbe ad19 c7be

fc2.weight f4 [256, 260]
-0.011346432 0.05365808 0.0098041855 0.009279208 0.006989122 0.023154281 -0.09817665 -0.07366517
-0.07032232 -0.08751434 -0.07422855 0.04151847 -0.04899259 -0.13263667 -0.0722986 -0.00973603
0.03658418 -0.116605416 -0.0716072 0.02688691 -0.07161024 0.0035029664 -0.07082336 -0.01481315
-0.071966775 -0.010105691 -0.007868665 0.024318948 -0.0073367557 -0.09264897 -0.08822151 0.024776177
-0.04398386 0.005309649 0.042276774 -0.084797405 0.033845205 -0.06542236 -0.099318944 -0.06655609
-0.019450428 -0.011138701 -0.033577703 -0.014711334 -0.11418842 -0.001893415 -0.026587656 -0.111815184
-0.0908375 -0.103383474 -0.034299456 -0.05279042 -0.07001967 -0.062231522 -0.04045296 -0.026187805
0.042498816 0.04247895 0.0544916 -0.05232436 -0.08712236 0.0012595031 -0.06181467 0.0076086977
-0.045191865 0.04246048 -0.09295648 0.0069144513 -0.012601729 -0.079426706 -0.028968511 -0.0047592795
-0.01897337 0.037474386 -0.047048543 -0.0482474 0.01991415 -0.015755553 -0.042586405 -0.09232617
0.053440146 -0.10287511 -0.072390996 -0.09708468 -0.014438441 -0.04520547 0.0034542973 -0.048003417
-0.04010727 0.030868137 -0.04075318 0.011699392 0.044370163 0.017944101 -0.013967528 -0.11023151
-0.0811739 -0.11814418 0.09964579 0.010371827 -0.045921102 -0.09937212 0.032281235 -0.08856113
-0.0050253766 -0.02227733 0.03811899 -0.049089078 0.06542769 -0.043337673 -0.09784323 -0.0150573915
-0.1337167 -0.07482599 -0.015707625 -0.019663764 -0.10796878 -0.01496986 0.045519114 -0.017527966
0.03718703 0.051026884 -0.0562372 -0.026408719 -0.072494 0.007511698 -0.04432085 -0.049159087
-0.07571657 0.03682036 0.042089503 0.016594553 -0.080870144 -0.026635889 -0.03514116 -0.06265184
-0.049589854 -0.08613298 -0.07285548 -0.060746256 -0.0564387 -0.00092371966 0.05576161 0.060793836
0.04201204 0.008475652 -0.11682338 0.04823285 -0.07141957 -0.0407731 -0.110779874 0.0044932747
-0.10783366 -0.097514644 -0.107466616 -0.12470372 -0.052984234 0.03284223 -0.036605597 0.013178366
-0.036144145 -0.10166005 -0.08338205 0.041933566 -0.008684316 0.011611031 0.056486815 -0.070593946
-0.07638524 0.0024604728 -0.06029777 0.008003114 -0.039120894 -0.14747791 -0.10138756 -0.000628949
-0.020612523 -0.1027234 -0.07748983 -0.015142388 -0.064761266 -0.08308504 0.042446386 -0.05837697
0.003833639 -0.03450072 -0.028629879 0.00201923 -0.027532421 -0.10742579 -0.016192375 0.034853213
-0.07835917 -0.06875621 -0.012701959 -0.0018132239 -0.07496012 0.010258171 -0.046544783 -0.05811397
-0.08015689 -0.055715818 -0.06261714 -0.0040449756 -0.023450108 0.0054851966 -0.08035765 0.0020233253
-0.07876459 -0.047948636 0.006304069 -0.025841031 0.0007288278 0.022170644 0.017800769 -0.054962907
0.04433113 0.014482834 -0.040990423 0.004786003 0.03707996 -0.13962406 -0.015281343 -0.057090305
-0.10398268 -0.06940858 0.0067310054 0.045697074 -0.05856145 -0.064593375 0.028629126 -0.04940024
0.013630522 -0.109579705 -0.0574465 0.049408052 0.026845392 -0.029925257 -0.07328316 -0.11090328
0.09300611 -0.07019156 -0.0696389 -0.00010354737 -0.007785351 -0.0033729938 -0.06161726 -0.005326881
-0.017546022 -0.058709446 -0.09703802 0.003903486 -0.00017817669 -0.016042927 -0.0065962244 0.030200237
00000000: 63e6 39bc 93c8 5b3d bca1 203c d207 183c
00000010: 0105 e53b 0cae bd3c d710 c9bd c4dd 96bd
00000020: 2605 90bd b83a b3bd 2305 98bd 450f 2a3d
00000030: 74ac 48bd e8d1 07be 4a11 94bd df83 1fbc
00000040: 4bd9 153d d2ce eebd cca6 92bd f041 dc3c
00000050: 64a8 92bd 0692 653b d60b 91bd dbb2 72bc
00000060: 5163 93bd 5792 25bc 93eb 00bc 8838 c73c
00000070: 2b69 f0bb bebe bdbd 7bad b4bd 69f7 ca3c
00000080: 6c28 34bd 90fc ad3b 692a 2d3d 43aa adbd
00000090: 45a1 0a3d 29fc 85bd bb67 cbbd 8f4e 88bd
000000a0: 8156 9fbc 197f 36bc c688 09bd cf07 71bc
000000b0: 9edb e9bd 772c f8ba 5bce d9bc 5cff e4bd
000000c0: 0309 babd b7ba d3bd 967d 0cbd c43a 58bd
000000d0: 7966 8fbd 7be6 7ebd 01b2 25bd cf87 d6bc
000000e0: 3d13 2e3d 68fe 2d3d 9532 5f3d 1152 56bd
000000f0: 356d b2bd e915 a53a 6131 7dbd 6252 f93b
00000100: 1b1b 39bd 0aeb 2d3d f85f bebd 9f92 e23b
00000110: 7b77 4ebc 78aa a2bd 5f4f edbc bbf3 9bbb
00000120: 0a6e 9bbc be7e 193d f9b5 40bd 119f 45bd
00000130: 0023 a33c ca11 81bc 156f 2ebd 8115 bdbd
00000140: 0ee4 5a3d 30b0 d2bd bb41 94bd 55d4 c6bd
00000150: 368f 6cbc 5f29 39bd 7e61 623b 3b9f 44bd
00000160: 8547 24bd 2ddf fc3c ceec 26bd cfae 3f3c
00000170: 7dbd 353d 82ff 923c 0fd8 64bc 0fc1 e1bd
00000180: 803e a6bd 93f5 f1bd 1813 cc3d 98ee 293c
00000190: c417 3cbd 9c83 cbbd 5439 043d 8a5f b5bd
000001a0: eaab a4bb f27e b6bc a822 1c3d a111 49bd
000001b0: f4fe 853d d882 31bd 0862 c8bd 47b3 76bc
000001c0: 08ed 08be 5e3e 99bd 47ad 80bc e715 a1bc
000001d0: bc1e ddbd 2544 75bc 4072 3a3d cf96 8fbc
000001e0: 6d51 183d 9101 513d fa58 66bd 1957 d8bc
000001f0: bc77 94bd b124 f63b c889 35bd 0a5b 49bd
00000200: 4a11 9bbd f2d0 163d 0b66 2c3d 4df1 873c
00000210: 3f9f a5bd 8233 dabc 2df0 0fbd 9c4f 80bd
00000220: bb1e 4bbd 7d66 b0bd 4135 95bd 11d1 78bd
00000230: 442c 67bd c725 72ba 4966 643d f502 793d
00000240: d114 2c3d 76dd 0a3c 1941 efbd cf8f 453d
00000250: 6c44 92bd b201 27bd 8fe0 e2bd 523c 933b
00000260: e5d7 dcbd c2b5 c7bd 7517 dcbd aa64 ffbd
00000270: ff05 59bd 9385 063d c0ef 15bd 13ea 573c
00000280: e20b 14bd 2533 d0bd 35c4 aabd 88c2 2b3d
00000290: a948 0ebc 323c 3e3c b85e 673d 8f93 90bd
000002a0: dd6f 9cbd e23f 213b cbfa 76bd 7e1f 033c
000002b0: 3b3d 20bd 7304 17be 48a4 cfbd 0ee0 24ba
000002c0: 98db a8bc a560 d2bd fdb2 9ebd c717 78bc
000002d0: 8ea1 84bd 7d28 aabd 43dc 2d3d b11c 6fbd
000002e0: ca3d 7b3b a150 0dbd 3589 eabc 0f55 043b
000002f0: ac8b e1bc 0d02 dcbd dfa5 84bc 3ec2 0e3d
00000300: c67a a0bd 0ed0 8cbd e11b 50bc b3a9 edba
00000310: b184 99bd e311 283c bea5 3ebd ea08 6ebd
00000320: 4c29 a4bd 4536 64bd 6a3d 80bd b78b 84bb
00000330: 711a c0bc 2abd b33b 8d92 a4bd c499 043b
00000340: 544f a1bd ca65 44bd 5d92 ce3b 92b0 d3bc
00000350: ce0e 3f3a 369f b53c ebd2 913c c920 61bd
00000360: 8f94 353d 6949 6d3c 93e5 27bd e7d3 9c3b
00000370: 28e1 173d 9cf9 0ebe 995e 7abc 86d7 69bd
00000380: dff4 d4bd 1626 8ebd c48f dc3b db2c 3b3d
00000390: 22de 6fbd 8849 84bd a187 ea3c e857 4abd
000003a0: 8e52 5f3c 536b e0bd 054d 6bbd 1960 4a3d
000003b0: deea db3c d025 f5bc 7b15 96bd 4221 e3bd
000003c0: fd79 be3d 98c0 8fbd d79e 8ebd 9227 d9b8
000003d0: 421c ffbb 720d 5dbb 6162 7cbd 1e8d aebb
000003e0: adbc 8fbc 5179 70bd dfbb c6bd a1d1 7f3b
000003f0: f1d4 3ab9 756c 83bc 2425 d8bb 7d66 f73c

fc2.bias f4 [256]
-0.09654869 -0.0010870772 -0.14524607 1.4944693 -0.089573815 -0.055002704 0.68178046 -0.018626487
-0.48903283 -0.08865352 1.2746328 -0.09981151 -0.3800453 0.711767 -0.2142825 -0.25329965
-0.3216905 -0.65282655 0.15330684 -0.0617807 0.7227743 -0.09023467 -0.024944305 -0.3551679
-0.017626237 0.100784026 -0.13485287 0.6161687 0.08102018 -0.45540217 -0.08599517 -0.0032698442
0.0010166019 0.0368383 -0.6199429 -0.05666363 0.25076994 -0.06700752 -0.43686268 -0.046254035
-0.12076871 -0.08926315 -0.3925878 -0.03708397 -0.40726012 -0.08452251 -0.5443181 -0.4741008
0.4183481 -0.53427863 0.18734479 1.7203505e-05 0.31439754 -0.014330617 0.026716521 -0.61562794
-0.08632137 0.032225877 0.07766619 0.026312193 -0.33743584 -0.9936288 -0.15135728 -0.124005236
0.102056615 0.7961658 -0.07290258 -0.1032765 -0.24935533 -0.044477016 -0.13095589 -0.10721913
-0.06613105 -0.28427202 -0.7822447 1.0800596 0.12153036 -0.626001 -0.43469492 -0.47075447
0.38183707 -0.15279928 0.055512674 0.18115616 0.13435638 -0.32725382 0.9102643 -0.1728363
0.32968995 0.350278 -0.81027716 -0.5736924 -0.008338126 -0.08740887 -0.015861442 0.3055609
-0.10662375 -0.27661377 -0.034280114 0.8014872 0.75800604 -0.12066285 -0.11172298 0.17969593
-0.051873576 -0.25458875 0.49851117 0.67318225 -0.08471063 -0.05213564 0.23928593 -0.004001313
0.7566203 -0.6726626 0.42606038 -0.4614852 -0.8979843 -0.14839424 -0.75358725 0.002996284
-0.2839315 -0.09735396 -0.5754147 -0.0559323 -0.54472584 -0.067071795 -0.10542641 0.90284735
-1.0151476 -0.4271626 -0.9693964 -0.9742087 -0.07391246 -0.54196286 1.1124641 0.3313302
-0.49056655 -0.2725509 0.5975919 0.018237684 -0.24952325 0.56001323 -0.097786136 0.001683123
-0.10460938 0.5915714 -0.08603297 -0.060364593 -0.13228647 -0.63614416 -0.26450303 0.1406655
-0.07071291 0.27638322 -0.37804812 0.099102035 -0.32628515 -0.74031276 -0.18760465 -0.60776705
-0.219138 0.5802377 -0.099454805 1.9879473 0.33868977 -0.17188665 0.02044976 1.6643809
-0.058054883 -0.589632 0.5417782 -0.05434684 -0.060925744 -0.14109135 -0.43351075 -0.07821619
-1.2013878 -0.10529984 -0.044524934 -0.6761946 0.64588326 -0.072588734 -0.11426089 -0.096237145
-0.002210898 -0.3713728 -0.07098367 0.387279 0.00022006732 -0.092733204 0.8412079 -0.008285924
-0.012129839 -0.07188664 0.7430351 1.1967852 -1.037795 -0.14181288 0.087978914 -0.18251072
-0.34022608 -0.7493036 -0.17912586 -0.06052392 0.40938357 -0.35335442 -0.44734 0.7996283
-0.5989966 -0.3049691 -0.74181634 -0.093764 -0.081589274 0.7665293 0.25729883 0.17299879
-0.5331892 -0.0909285 -0.05267134 -0.01500274 -0.56278557 -0.34544286 -0.0361977 0.088223554
-0.029152744 0.49025807 0.034151077 -0.56442803 -0.0736706 0.1178024 1.7148254 -0.09131645
-0.09664818 -0.006975739 -0.10682589 -0.09065623 0.7160807 -0.19280581 -0.4603115 -0.10326072
0.32401213 -0.58453184 -0.27938154 0.39292365 -0.044551045 0.5048567 -0.12861851 0.57838154
-0.041877963 -0.8201418 0.93580896 0.081335396 -0.00024151863 -0.0333167 -0.4105589 0.15030237
00000000: 52bb c5bd 427c 8eba 63bb 14be c54a bf3f
00000010: 7a72 b7bd 844a 61bd 2a89 2e3f 9396 98bc
00000020: 8362 fabe fa8f b5bd 2b27 a33f fa69 ccbd
00000030: 4c95 c2be 5d36 363f df6c 5bbe 7eb0 81be
00000040: 9eb4 a4be a41f 27bf 78fc 1c3e c20d 7dbd
00000050: bd07 393f f4cc b8bd 0058 ccbc 91d8 b5be
00000060: e664 90bc db67 ce3d df16 0abe 3bbd 1d3f
00000070: e8ed a53d 792a e9be 3c1e b0bd e24a 56bb
00000080: 803f 853a c2e3 163d 94b4 1ebf 1f18 68bd
00000090: eb64 803e 3d3b 89bd 77ac dfbe df74 3dbd
000000a0: 9655 f7bd 99cf b6bd 4501 c9be 5ce5 17bd
000000b0: 6684 d0be 231a adbd 6e58 0bbf 57bd f2be
000000c0: b931 d63e 7cc6 08bf 50d7 3f3e 3f50 9037
000000d0: b7f8 a03e f7ca 6abc 9bdc da3c cb99 1dbf
000000e0: 42c9 b0bd 48ff 033d 740f 9f3d ab8c d73c
000000f0: 64c4 acbe 755e 7ebf 67fd 1abe 75f6 fdbd
00000100: 0f03 d13d 86d1 4b3f f34d 95bd a182 d3bd
00000110: 0157 7fbe 882d 36bd 4d19 06be b495 dbbd
00000120: b76f 87bd 1a8c 91be 3041 48bf 653f 8a3f
00000130: e9e4 f83d 9a41 20bf 5590 debe bb06 f1be
00000140: 2680 c33e 6a77 1cbe 4261 633d 0081 393e
00000150: b894 093e d08d a7be 1507 693f 00fc 30be
00000160: 1fcd a83e a357 b33e 536e 4fbf 81dd 12bf
00000170: a39c 08bc 6c03 b3bd dbef 81bc 7a72 9c3e
00000180: 8d5d dabd 52a0 8dbe 4e69 0cbd 442e 4d3f
00000190: af0c 423f 161e f7bd 05cf e4bd 3602 383e
000001a0: 6379 54bd 7559 82be db3c ff3e ac55 2c3f
000001b0: c47c adbd 2e8c 55bd 5f07 753e 721d 83bb
000001c0: deb1 413f 9e33 2cbf 9624 da3e ca47 ecbe
000001d0: 4de2 65bf a9f4 17be 18eb 40bf 4e5d 443b
000001e0: 785f 91be 8361 c7bd 614e 13bf 4419 65bd
000001f0: 2773 0bbf f05c 89bd cde9 d7bd 0121 673f
00000200: 5bf0 81bf 0eb5 dabe 5d2a 78bf be65 79bf
00000210: 6a5f 97bd 14be 0abf 3965 8e3f 1da4 a93e
00000220: 8a2b fbbe cb8b 8bbe c8fb 183f 3267 953c
00000230: 0683 7fbe 075d 0f3f 1944 c8bd 3c9c dc3a
00000240: 713d d6bd 3971 173f 0e32 b0bd dd40 77bd
00000250: 1b76 07be 58da 22bf f16c 87be 9e0a 103e
00000260: eed1 90bd 1a82 8d3e 868f c1be 02f6 ca3d
00000270: d90e a7be 2385 3dbf 6f1b 40be 9f96 1bbf
00000280: b665 60be 758a 143f f6ae cbbd 0f75 fe3f
00000290: bf68 ad3e 0e03 30be 4186 a73c 6f0a d53f
000002a0: f5ca 6dbd 1ff2 16bf fab1 0a3f cb9a 5ebd
000002b0: 468d 79bd 407a 10be 1ff5 ddbe cf2f a0bd
000002c0: 13c7 99bf 71a7 d7bd c75f 36bd 171b 2dbf
000002d0: 9b58 253f 67a9 94bd 9d01 eabd fb17 c5bd
000002e0: b7e4 10bb 9324 bebe e35f 91bd 6f49 c63e
000002f0: dfc1 6639 e8ea bdbd 6759 573f afc1 07bc
00000300: 3bbc 46bc 4d39 93bd 8c37 3e3f 4230 993f
00000310: 77d6 84bf 6537 11be 4a2e b43d 17e4 3abe
00000320: 1d32 aebe 5cd2 3fbf c56c 37be eee7 77bd
00000330: b99a d13e dfea b4be c009 e5be 71b4 4c3f
00000340: d757 19bf e924 9cbe ade7 3dbf 5707 c0bd
00000350: 4718 a7bd 443b 443f acbc 833e 9826 313e
00000360: 167f 08bf b938 babd e7bd 57bd 0dce 75bc
00000370: b712 10bf e3dd b0be 0a44 14bd 8dae b43d
00000380: bcd1 eebc 1b03 fb3e 00e2 0b3d 5b7e 10bf
00000390: 9de0 96bd 6242 f13d 667f db3f 1e04 bbbd
000003a0: 7bef c5bd bd94 e4bb 88c7 dabd f9a9 b9bd
000003b0: 1151 373f e36e 45be f3ad ebbe 5b7a d3bd
000003c0: ebe4 a53e e1a3 15bf 190b 8fbe 4a2d c93e
000003d0: 287b 36bd 4a3e 013f 92b4 03be d010 143f
000003e0: 3a88 2bbd d0f4 51bf 2d91 6f3f 2c93 a63d
000003f0: 2a40 7db9 1877 08bd c734 d2be dde8 193e

fc3.weight f4 [128, 256]
0.06435517 -0.08492505 0.15410753 -0.15605338 -0.020313147 -0.088331796 0.012586761 0.008960313
-0.15704386 0.0113355 -0.08092293 -0.44864506 -0.145961 -0.0644609 -0.11806654 0.098663315
-0.14795028 -0.30264243 -0.105758615 -0.06440672 -0.06290013 -0.050559808 0.1797995 -0.16851707
-0.03445085 -0.35569847 0.02159796 0.046629433 -0.16688052 -0.0018873264 0.0465913 -0.05933043
0.07119455 0.012351189 -0.16903493 -0.07513159 0.06286188 -0.09736991 0.18910977 -0.09624811
0.0809404 -0.092741184 -0.20907545 0.034323927 0.40580368 -0.08082783 -0.31299853 -0.034250032
-0.16256633 0.0050778845 -0.20281999 0.049609322 -0.09088261 0.06567224 -0.11018282 -0.13831007
0.015648749 0.2678378 -0.10352139 -0.0825602 0.042819984 -0.07454621 -0.25512877 0.037098173
-0.06088347 -0.09015457 -0.028854296 0.03344918 0.08757543 -0.0023026639 -0.061406553 -0.06302212
0.072123066 -0.10915223 -0.037487075 -0.45421824 -0.343139 -0.040988773 -0.08410552 -0.09364562
-0.14743523 -0.07217926 -0.27103218 -0.02910857 -0.15659186 -0.113006644 -0.37677807 -0.02434649
-0.23188703 0.12661816 -0.43778327 -0.04224303 -0.182755 0.0057200775 0.019744748 -0.07580801
-0.031049903 0.051847585 0.050452165 0.023344351 0.05176914 -0.06569 0.011934978 0.05342853
-0.09408048 -0.2197153 0.13569884 -0.21061833 0.07137072 -0.013297659 -0.021784645 -0.018108612
-0.0473996 -0.047592737 0.003917941 -0.12896135 -0.057395104 0.005594105 -0.08147182 -0.0077934475
-0.033299986 -0.03606854 0.03844932 0.058354992 0.007763742 0.06272684 0.08238923 -0.13252012
0.01892707 -0.3304127 -0.31622484 -0.11570846 -0.03090123 -0.023954347 -0.059974216 -0.24525413
-0.12789221 0.073800065 -0.12565927 -0.08167676 0.061633307 -0.05556821 0.029181153 -0.039813135
-0.017221145 -0.0021309599 0.016174614 0.06481381 -0.08016213 -0.34819084 0.022816196 -0.32655105
0.0029136753 -0.30883121 0.002106312 -0.025251564 -0.1289987 -0.25484934 -0.121913895 -0.20880526
-0.1140758 0.2997652 -0.011210551 -0.33291113 -0.32703143 -0.052531656 -0.0522007 -0.35163394
-0.009271984 -0.26399538 0.096739925 -0.09396566 0.05905943 0.02963094 -0.1596333 -0.07273554
-0.1466527 -0.14467461 0.0028932686 -0.17442872 -0.03198547 -0.1934238 -0.012287432 0.066470414
-0.18129916 -0.14734955 -0.06711172 -0.40897876 -0.056700226 -0.06452018 0.06586079 -0.082265146
-0.0069086915 0.06246818 0.05338015 -0.15525427 -0.09200125 0.0064308844 0.0042465683 -0.22360852
-0.44141138 0.01887753 -0.116055444 -0.14215967 0.09953248 -0.055379152 -0.15119205 -0.0066389195
-0.041447643 -0.41211185 -0.1603571 0.051217154 0.04382071 0.14491157 -0.09043091 0.034190163
-0.16247632 0.015668577 0.045299366 -0.04568791 -0.10997252 -0.26587576 0.07508226 -0.10686545
0.07655798 -0.08970542 -0.21875134 0.05173856 -0.012891352 0.09964473 -0.20452128 0.10763645
0.055387467 -0.08343644 0.007102065 0.012241898 -0.19555399 0.02529471 0.057190947 0.0013468626
0.07177101 -0.064968705 -0.02041711 -0.008842662 0.019130047 -0.34160808 0.079796374 0.01780504
-0.017463505 -0.14320347 -0.12703755 0.07101449 -0.011301158 -0.033825874 -0.12503813 0.12684794
00000000: a5cc 833d 2fed adbd 5dce 1d3e 75cc 1fbe
00000010: c267 a6bc 4de7 b4bd b438 4e3c 47ce 123c
00000020: 1bd0 20be 88b8 393c ecba a5bd ceb4 e5be
00000030: cd76 15be 1404 84bd dfcc f1bd fe0f ca3d
00000040: 4780 17be f3f3 9abe f997 d8bd ace7 83bd
00000050: c9d1 80bd cd17 4fbd 5c1d 383e bd8f 2cbe
00000060: 561c 0dbd 1c1e b6be 34ee b03c 81fe 3e3d
00000070: bae2 2abe 2a60 f7ba 85d6 3e3d 7704 73bd
00000080: 73ce 913d a45c 4a3c 7e17 2dbe 97de 99bd
00000090: bbbd 803d e069 c7bd fea5 413e bb1d c5bd
000000a0: 15c4 a53d 17ef bdbd e017 56be 3f97 0c3d
000000b0: 80c5 cf3e 1089 a5bd 5841 a0be c349 0cbd
000000c0: ca77 26be 6264 a63b 0bb0 4fbe 2533 4b3d
000000d0: a920 babd 2b7f 863d 88a7 e1bd 28a1 0dbe
000000e0: ce31 803c 0922 893e 0603 d4bd 5215 a9bd
000000f0: 0264 2f3d afab 98bd 3da0 82be 41f4 173d
00000100: f260 79bd f6a2 b8bd d85f ecbc 0202 093d
00000110: bf5a b33d 4ae8 16bb 7085 7bbd be11 81bd
00000120: 42b5 933d 348b dfbd 0c8c 19bd 4b8f e8be
00000130: eaaf afbe d8e3 27bd 843f acbd 46c9 bfbd
00000140: 43f9 16be b8d2 93bd bbc4 8abe 1975 eebc
00000150: 9e59 20be 0770 e7bd 0ee9 c0be 4a72 c7bc
00000160: cb73 6dbe 31a8 013e 2125 e0be 0707 2dbd
00000170: 2024 3bbe 7d6f bb3b bdbf a13c 3b41 9bbd
00000180: 5e5c febc 225e 543d eea6 4e3d a73c bf3c
00000190: e10b 543d 7b88 86bd ed8a 433c e0d7 5a3d
000001a0: 44ad c0bd 0cfd 60be a3f4 0a3e 55ac 57be
000001b0: d02a 923d 6dde 59bc b675 b2bc 8358 94bc
000001c0: 1526 42bd 9af0 42bd 1262 803b 720e 04be
000001d0: 2117 6bbd c14e b73b b3da a6bd 2d60 ffbb
000001e0: 9165 08bd 9bbc 13bd 097d 1d3d a505 6f3d
000001f0: fd66 fe3b ee76 803d afbb a83d 5bb3 07be
00000200: f10c 9b3c da2b a9be 39e8 a1be 8ff8 ecbd
00000210: 9424 fdbc e83b c4bc 86a7 75bd e623 7bbe
00000220: 2df6 02be 7d24 973d d3ac 00be 2546 a7bd
00000230: 3573 7c3d 7e9b 63bd 500d ef3c 1913 23bd
00000240: 5c13 8dbc 93a7 0bbb a080 843c 1abd 843d
00000250: 0b2c a4bd 1246 b2be 08e9 ba3c b331 a7be
00000260: 5cf3 3e3b 201f 9ebe 0d0a 0a3b 5edc cebc
00000270: 3c18 04be 9d7b 82be fead f9bd 0cd1 55be
00000280: 93a0 e9bd d37a 993e 75ac 37bc 5473 aabe
00000290: aa70 a7be 6f2b 57bd 67d0 55bd 5d09 b4be
000002a0: 85e9 17bc 672a 87be 951f c63d 1171 c0bd
000002b0: 4de8 713d 96bc f23c e976 23be 5ff6 94bd
000002c0: 202c 16be 9525 14be fe9c 3d3b 719d 32be
000002d0: 3203 03bd e310 46be 3a51 49bc a421 883d
000002e0: 7da6 39be cde2 16be df71 89bd aa65 d1be
000002f0: 7f3e 68bd 2823 84bd 06e2 863d a17a a8bd
00000300: 4e62 e2bb a2de 7f3d 25a5 5a3d fafa 1ebe
00000310: 276b bcbd 2bba d23b cc26 8b3b a2f9 64be
00000320: ac00 e2be 0da5 9a3c 7aae edbd 4e92 11be
00000330: afd7 cb3d 40d5 62bd 17d2 1abe 4b8b d9bb
00000340: 01c5 29bd 5300 d3be a734 24be 14c9 513d
00000350: 587d 333d b363 143e d733 b9bd fc0a 0c3d
00000360: 3160 26be 635b 803c d48b 393d 3f23 3bbd
00000370: 4639 e1bd de20 88be bac4 993d 46dc dabd
00000380: 6eca 9c3d 7ab7 b7bd 5a00 60be d0eb 533d
00000390: 4036 53bc 8912 cc3d 076e 51be 8070 dc3d
000003a0: f8dd 623d b9e0 aabd 70b8 e83b 3e92 483c
000003b0: 4e3f 48be da36 cf3c 0e41 6a3d 3689 b03a
000003c0: aefc 923d 500e 85bd c841 a7bc d0e0 10bc
000003d0: 9eb6 9c3c 41e7 aebe 486c a33d e0db 913c
000003e0: a00f 8fbc eea3 12be 2216 02be 0c70 913d
000003f0: 7e28 39bc 008d 0abd ff09 00be 6de4 013e

fc3.bias f4 [128]
-0.23851086 -0.18799661 -0.2881015 0.021190828 -0.4167128 -0.13848002 -0.25417873 -0.3109969
-0.24888948 -0.33764842 -0.37224278 -0.27704257 -0.36154094 -0.33005083 -0.2857562 -0.25562298
-0.26314455 -0.18265684 -0.36790407 -0.2886503 -0.18296547 -0.26882812 -0.29501975 -0.12889937
-0.29516196 -0.21948385 -0.3684538 -0.33149195 -0.27890277 -0.39045224 -0.1557141 -0.21788052
-0.2896946 -0.33189613 -0.259466 -0.30582172 -0.37013987 -0.22380696 -0.19399595 0.25197285
-0.3889681 -0.1914864 -0.29694322 -0.27109686 -0.27153385 -0.3816567 -0.33162957 -0.15713781
-0.29460388 0.7556192 -0.30877396 0.7798795 -0.35339436 -0.25832435 -0.28215218 -0.23797521
-0.23156595 -0.2536426 -0.28106615 -0.3382394 -0.10196373 -0.27605146 -0.2780479 -0.45659256
-0.2319153 -0.2565753 -0.30598372 -0.05774244 -0.3094712 -0.30087924 -0.3171733 1.3035005
-0.35948098 -0.39183682 -0.3100558 -0.3181329 -0.3414987 -0.19950078 -0.45956466 -0.20194544
-0.28158596 -0.3272859 -0.29817855 2.7203977 -0.34876412 -0.18657623 -0.28606504 -0.3003841
-0.14264451 -0.28950724 -0.22513427 -0.2276346 -0.23437299 -0.2157604 -0.2783239 -0.2430674
-0.299853 -0.25162017 -0.21235822 -0.19774078 -0.20539461 -0.3348768 -0.25305045 -0.17934947
-0.20948748 -0.43913874 -0.27990046 -0.19329812 -0.4651804 -0.3165636 -0.1781097 -0.32685947
-0.21058068 -1.0000609 -0.19840358 -0.7965265 -0.29070383 -0.20946933 -0.17867713 -0.21554151
-0.30387732 -0.33951753 -0.35261276 -0.4513073 1.1001846 -0.80782485 -0.32916287 -0.28087208
00000000: 313c 74be 2f82 40be 0a82 93be 6398 ad3c
00000010: 615b d5be b5cd 0dbe b723 82be fc3a 9fbe
00000020: e2dc 7ebe 41e0 acbe 9b96 bebe 86d8 8dbe
00000030: e51b b9be 6cfc a8be a34e 92be 04e1 82be
00000040: e2ba 86be 650a 3bbe ec5d bcbe f9c9 93be
00000050: 4d5b 3bbe d7a3 89be d40c 97be 32fe 03be
00000060: 781f 97be 60c0 60be faa5 bcbe 50b9 a9be
00000070: 58cc 8ebe 5be9 c7be 8473 1fbe 121c 5fbe
00000080: da52 94be 4aee a9be bad8 84be aa94 9cbe
00000090: f982 bdbe a72d 65be e0a6 46be 9602 813e
000000a0: d426 c7be 0315 44be f108 98be 35cd 8abe
000000b0: 7c06 8bbe 8268 c3be 5acb a9be bce8 20be
000000c0: 52d6 96be 4370 413f 9f17 9ebe 2fa6 473f
000000d0: 1bf0 b4be 1743 84be 4076 90be c6af 73be
000000e0: a01f 6dbe 71dd 81be e7e7 8fbe b72d adbe
000000f0: 5cd2 d0bd 9e56 8dbe 4b5c 8ebe 80c6 e9be
00000100: 347b 6dbe d65d 83be e6a9 9cbe 5683 6cbd
00000110: 0273 9ebe d80c 9abe 8a64 a2be 1bd9 a63f
00000120: e40d b8be d69e c8be a2bf 9ebe 51e2 a2be
00000130: ebd8 aebe ef49 4cbe 0f4c ebbe c9ca 4ebe
00000140: 092c 90be 0492 a7be dcaa 98be ff1a 2e40
00000150: 3691 b2be d70d 3fbe 1e77 92be f2cb 99be
00000160: 6711 12be 4b3a 94be 9989 66be 0b19 69be
00000170: 79ff 6fbe 4bf0 5cbe 7880 8ebe a9e6 78be
00000180: 5586 99be 5cd4 80be 6f74 59be 8f7c 4abe
00000190: f752 52be f974 abbe d48f 81be 63a7 37be
000001a0: e383 56be cbd6 e0be 1d4f 8fbe f1ef 45be
000001b0: 202c eebe a014 a2be 6462 36be 205a a7be
000001c0: 76a2 57be ff01 80bf 4f2a 4bbe 29e9 4bbf
000001d0: 22d7 94be 217f 56be 23f7 36be eab6 5cbe
000001e0: cf95 9bbe 3ed5 adbe a989 b4be c011 e7be
000001f0: d9d2 8c3f 9ccd 4ebf 0988 a8be 77ce 8fbe

fc4.weight f4 [1, 128]
0.025767013 -0.012857296 -0.03111863 0.051864166 -0.020136202 -0.028384997 -0.0062670275 -0.014588159
-0.02211952 0.030493744 0.031730488 0.004860932 0.026476437 0.006609266 0.013143959 -0.024332201
-0.0027474829 0.018929763 0.010823786 -0.0055149044 0.008444558 0.011164139 0.012996212 0.02875225
-0.03055978 0.012417389 -0.016362766 0.010772973 0.02357666 0.0025934721 -0.02208035 -0.051372025
0.00019515488 -0.026335815 -0.01475051 0.009850114 -0.0042580054 -0.025367396 0.0040842947 0.02280254
0.0100744255 -0.0014024779 -0.013178631 0.022691246 0.0079145515 0.010821038 0.024247209 -0.0004838578
-0.0029280647 0.014027871 -0.018963711 0.0065714293 0.017090648 0.026610555 -0.027027706 0.0020604506
0.041345213 0.017601427 0.007720274 0.010780573 -0.004489383 0.028275458 -0.005179608 -0.0041688206
0.0030272284 0.014963918 0.021103553 0.00048086923 -0.008779933 0.04664334 -0.03843189 -0.000812434
-0.057857443 0.0017925759 0.026514232 0.0134068085 0.007361596 0.021358438 0.0017353212 -0.004710594
-0.018075194 -0.005525928 0.022128398 0.08350196 -0.010815313 0.008556802 -0.020343103 -0.031520415
-0.01919556 -0.021582989 -0.018311016 -0.016926745 -0.0006906213 -0.018344393 0.019436253 0.027656848
-0.02993097 -0.0055970713 -0.040330984 -0.014560058 0.007934238 0.0076341755 0.034616508 -0.024657464
0.024746908 0.013800131 -0.0050327224 -0.061061203 -0.01196232 0.01684626 -0.02806204 -0.0136773875
-0.018343782 -0.0013332813 -0.011998948 -0.02722347 -0.056377176 -0.0009800765 0.017479716 0.0034054162
-0.005024155 0.015500606 -0.025884196 -0.01658952 -0.005667929 0.014811946 -0.015911184 -0.005124924
00000000: 5815 d33c 68a7 52bc 7fec febc 856f 543d
00000010: adf4 a4bc a787 e8bc a35b cdbb 2c03 6fbc
00000020: ff33 b5bc 04ce f93c d4f7 013d 7448 9f3b
00000030: 1de5 d83c 8b92 d83b c359 573c 5354 c7bc
00000040: 1d0f 34bb 9712 9b3c 4056 313c 5fb6 b4bb
00000050: 0b5b 0a3c cbe9 363c 10ee 543c d789 eb3c
00000060: 8158 fabc 4e72 4b3c 350b 86bc 2081 303c
00000070: d723 c13c 3ef7 293b dae1 b4bc 796b 52bd
00000080: 7da2 4c39 35be d7bc 20ac 71bc 5f62 213c
00000090: bd86 8bbb 49cf cfbc 8cd5 853b 64cc ba3c
000000a0: 340f 253c 59d3 b7ba 2feb 57bc fee2 b93c
000000b0: 09ac 013c b94a 313c 15a2 c63c 4bae fdb9
000000c0: c6e4 3fbb 28d5 653c c959 9bbc 2555 d73b
000000d0: b001 8c3c 61fe d93c 3569 ddbc a008 073b
000000e0: 9959 293d de30 903c 5afa fc3b 00a1 303c
000000f0: ad1b 93bb efa1 e73c b3b9 a9bb 9a9a 88bb
00000100: 7764 463b 392b 753c 5ce1 ac3c 2d1d fc39
00000110: b5d9 0fbc 160d 3f3d c26a 1dbd 86f9 54ba
00000120: edfb 6cbd def4 ea3a 6034 d93c 3ba8 5b3c
00000130: 8b39 f13b e4f7 ae3c b873 e33a 545b 9abb
00000140: 6e12 94bc d812 b5bb 9d46 b53c 1303 ab3d
00000150: b632 31bc d431 0c3c 94a6 a6bc 8d1b 01bd
00000160: 0240 9dbc cfce b0bc fc00 96bc f5a9 8abc
00000170: d00a 35ba fb46 96bc c738 9f3c 9d90 e23c
00000180: cb31 f5bc a367 b7bb 1a32 25bd 4f8d 6ebc
00000190: 9bfe 013c 1b28 fa3b 0aca 0d3d 73fe c9bc
000001a0: 07ba ca3c f219 623c 89e9 a4bb 501b 7abd
000001b0: 9bfd 43bc 2b01 8a3c 5de2 e5bc 1f17 60bc
000001c0: b345 96bc 7fc1 aeba 3c97 44bc c103 dfbc
000001d0: c1eb 66bd e975 80ba 9f31 8f3c 672d 5f3b
000001e0: aba1 a4bb 41f6 7d3c 180b d4bc bfe6 87bc
000001f0: 09ba b9bb cead 723c 2c58 82bc faee a7bb
