p2_continuous-control/checkpoint_critic.pth (torch_old, 435420 bytes, 7 tensors)

fcs1.weight f4 [256, 33]
-0.0009103799 -0.09911042 0.041358642 0.001783248 0.088109165 0.017618934 -0.098841466 0.09416028
-0.34488344 -0.046834737 -0.11606665 -0.10761804 0.045963787 0.05308191 0.2944195 -0.14799325
-0.066580325 0.1472805 -0.10303476 -0.059042808 0.031855434 -0.13910642 -0.04691942 0.025582816
0.09379874 0.024370305 0.032323405 -0.017552841 0.14835006 0.0011554882 -0.0332286 0.055325605
-0.25968835 -0.029808193 0.029784074 -0.047079228 -0.07782572 0.022411415 -0.06596392 -0.15062167
-0.012775804 0.15196137 -0.43597436 -0.020761762 -0.03983864 0.19960839 0.06345343 0.13764012
0.1015527 0.14932987 -0.036089633 -0.061568752 -0.060500834 0.007357974 -0.02513245 -0.08705906
0.09156307 0.040465754 0.06308072 0.04828231 0.22219455 -0.031637065 -0.050194405 -0.21619752
-0.051575504 0.18219505 0.07516681 0.14726411 0.15234567 -0.020984706 0.040650826 -0.04661405
0.012112496 -0.067274235 -0.111353844 -0.028062614 -0.031660676 -0.12479878 0.108293876 -0.010956714
-0.060658522 -0.1003266 -0.20026259 0.033101894 -0.18578681 -0.037186895 -0.01376203 -0.2916157
-0.22679667 0.091974534 0.024165263 -0.07591539 -0.026670026 0.2596067 -0.046748538 -0.003129147
-0.22831696 0.020507619 0.46180817 0.082581654 0.0022087912 -0.015367153 0.017001467 -0.080692925
0.25258163 0.054435126 -0.04338312 0.32792944 9.707402e-05 0.0026678226 0.0066880644 -0.040115565
-0.114109 0.14417383 0.043054357 -0.049746085 0.035969887 0.029769737 0.02555547 -0.026902404
-0.048447657 -0.051537674 -0.11268896 0.03387512 -0.005665064 -0.056497533 0.049279608 0.12857348
0.06179422 0.049549617 -0.027449548 0.656173 0.044460416 0.09939304 -0.15762976 -0.15816985
-0.18557103 0.13316604 -0.035101913 -0.0762695 0.18541002 0.12070429 0.13928145 0.091835245
-0.024169246 -0.017090153 0.057083324 0.09662805 0.093623176 0.113062985 0.010225012 0.028329575
0.047046416 -0.09540444 -0.00427071 -0.08058809 -0.14234754 0.14666836 0.11483552 0.2525359
-0.003078982 0.020380646 -0.2160817 -0.050751895 0.4089389 0.16809696 0.026461512 -0.12650885
-0.00880408 -0.087397546 -0.13144925 -0.057099134 0.060579605 -0.088772826 -0.056732044 0.09054856
-0.018580709 0.054128174 0.06304973 -0.104167715 0.18310699 -0.017440472 -0.022206591 -0.12990081
-0.029608438 -0.016080765 0.031251255 0.048772074 -0.043977924 -0.05258038 0.05251356 -0.072051376
0.050992988 -0.12719591 0.027036607 0.013455179 -0.0040731505 0.716851 0.025469499 0.14869763
-0.20847002 -0.025569273 -0.119973086 0.045832325 -0.059607584 -0.072619885 0.00741179 -0.04925544
0.029405931 0.029119568 -0.020661272 0.09348902 -0.110520914 -0.029997967 -0.019495083 -0.043989103
-0.07745211 -0.0016617248 -0.046460375 0.0584022 -0.0157348 0.10195511 -0.10715888 -0.035122197
0.03633471 0.11592102 0.044901486 0.054406084 -0.15055537 -0.038830258 0.58924073 0.13959655
0.08669307 -0.32694405 -0.0026374504 0.24055304 0.04338827 -0.15173295 -0.167908 -0.055036616
0.05649787 -0.027109042 0.0206858 -0.10999467 -0.006294714 0.09964182 -0.040786386 -0.038571686
-0.103471525 0.214155 0.18206012 0.015311379 -0.075435586 0.00091751234 -0.028730094 0.06432401
00000000: 90a6 6eba 67fa cabd ae67 293d e0bb e93a
00000010: 9472 b43d 9555 903c 656d cabd 1bd7 c03d
00000020: 9094 b0be c8d5 3fbd 5ab4 edbd d966 dcbd
00000030: 8644 3c3d 6b6c 593d 27be 963e 8b8b 17be
00000040: 445b 88bd b3d0 163e e303 d3bd dfd6 71bd
00000050: d87a 023d ea71 0ebe 942e 40bd 0e93 d13c
00000060: 8e19 c03d 3ca4 c73c 8c65 043d faca 8fbc
00000070: 14e9 173e c073 973a b61a 08bd 1a9d 623d
00000080: dff5 84be 5030 f4bc bbfd f33c 26d6 40bd
00000090: 1763 9fbd 2598 b73c 1718 87bd 913c 1abe
000000a0: 9b51 51bc c39b 1b3e 0838 dfbe 9214 aabc
000000b0: d72d 23bd 2466 4c3e dff3 813d 88f1 0c3e
000000c0: ddfa cf3d eee9 183e b9d2 13bd 842f 7cbd
000000d0: b9cf 77bd 291b f13b 91e2 cdbc 054c b2bd
000000e0: 6b85 bb3d 6bbf 253d 7730 813d acc3 453d
000000f0: f886 633e de95 01bd a698 4dbd e262 5dbe
00000100: d640 53bd 5791 3a3e 0ef1 993d 67cc 163e
00000110: 8100 1c3e 1ee8 abbc 7b81 263d 60ee 3ebd
00000120: 7e73 463c 13c7 89bd 7c0d e4bd 91e3 e5bc
00000130: a0ae 01bd 8196 ffbd 2ec9 dd3d ca83 33bc
00000140: 1275 78bd 0878 cdbd a311 4dbe da95 073d
00000150: e63e 3ebe 4951 18bd 237a 61bc a74e 95be
00000160: 633d 68be 255d bc3d 3bf6 c53c 8779 9bbd
00000170: 197b dabc 2beb 843e 657b 3fbd 6012 4dbb
00000180: eccb 69be 98ff a73c 1f72 ec3e 9220 a93d
00000190: 5ec1 103b 83c6 7bbc a946 8b3c 5542 a5bd
000001a0: 6152 813e 5ef7 5e3d 80b2 31bd 5ee6 a73e
000001b0: 3894 cb38 a3d6 2e3b 8d27 db3b 3850 24bd
000001c0: fbb1 e9bd 4ea2 133e c459 303d 8dc2 4bbd
000001d0: 2955 133d aadf f33c b459 d13c 6e62 dcbc
000001e0: 0d71 46bd 2b19 53bd 78c9 e6bd a3c0 0a3d
000001f0: 00a2 b9bb f569 67bd 6ad9 493d c4a8 033e
00000200: f01b 7d3d 8af4 4a3d e0dd e0bc f4fa 273f
00000210: 201c 363d 948e cb3d b269 21be 47f7 21be
00000220: 5506 3ebe ae5c 083e 06c7 0fbd 2f33 9cbd
00000230: 20dc 3d3e d033 f73d cc9f 0e3e 1e14 bc3d
00000240: 95fe c5bc a600 8cbc 34d0 693d ede4 c53d
00000250: 82bd bf3d 918d e73d cf86 273c 6d13 e83c
00000260: beb3 403d 6763 c3bd 50f1 8bbb 5e0b a5bd
00000270: 8ec3 11be 3b30 163e e32e eb3d 634c 813e
00000280: bfc8 49bb 50f5 a63c 8544 5dbe 38e1 4fbd
00000290: 7160 d13e 9c21 2c3e d0c5 d83c 898b 01be
000002a0: fd3e 10bc 7cfd b2bd a29a 06be c8e0 69bd
000002b0: 5222 783d 87ce b5bd dc5f 68bd 8671 b93d
000002c0: 9236 98bc 81b5 5d3d 3820 813d e255 d5bd
000002d0: 6680 3b3e 52df 8ebc 99ea b5bc b804 05be
000002e0: 658d f2bc cfbb 83bc 5101 003d 3ac5 473d
000002f0: 3222 34bd 865e 57bd 7518 573d ac8f 93bd
00000300: 06de 503d a53f 02be e07b dd3c 1c73 5c3c
00000310: 1078 85bb 8c83 373f 69a5 d03c 3144 183e
00000320: 2a79 55be a776 d1bc 73b4 f5bd adba 3b3d
00000330: 1527 74bd bcb9 94bd 9ade f23b 12c0 49bd
00000340: b5e4 f03c 298c ee3c d441 a9bc 2c77 bf3d
00000350: ca58 e2bd 4cbe f5bc 27b4 9fbc eb2d 34bd
00000360: 369f 9ebd 3bce d9ba 3c4d 3ebd 2537 6f3d
00000370: 44e6 80bc d7cd d03d 1d76 dbbd 4bdc 0fbd
00000380: b4d3 143d 0068 ed3d 9fea 373d ead8 5e3d
00000390: 302b 1abe 7a0c 1fbd 7bd8 163f 66f2 0e3e
000003a0: 238c b13d 3665 a7be 13d9 2cbb 8953 763e
000003b0: e6b7 313d e25f 1bbe 13f0 2bbe 136e 61bd
000003c0: 4f6a 673d c813 debc 4475 a93c e344 e1bd
000003d0: e343 cebb 0311 cc3d a00f 27bd 58fd 1dbd
000003e0: e1e8 d3bd 734b 5b3e f86d 3a3e 94dc 7a3c
000003f0: f97d 9abd 3685 703a 605b ebbc 4ebc 833d

fcs1.bias f4 [256]
-0.06072355 -0.2580319 -0.071465395 -0.062419765 -0.12983708 0.0004169258 -0.27860498 -0.077478394
0.032543045 0.06546466 -0.18150854 -0.23937468 -0.27992272 0.05615245 0.026770549 -0.00014121347
-0.18100652 -0.21405318 -0.19269012 -0.2028099 -0.14115062 -0.20051868 -0.23633559 -0.08340477
-0.28878552 -0.14893325 0.015654005 0.07443092 0.0485799 -0.13867173 -0.21233587 0.041348588
-0.00027420715 -0.18569325 -0.27842793 0.0005503041 -0.25456062 -0.0052629136 0.06793208 0.025728932
-0.2800339 -0.007318548 0.06577845 0.054052137 0.12237743 -0.020081239 -0.03806437 -0.0469573
0.044373646 0.022184882 -0.112118565 -0.01987321 -0.23538059 -0.07663797 -0.09646422 -0.05378348
-0.17097467 0.039629236 -0.28293517 -0.15153699 -0.28509298 -0.047017224 -0.13396434 -0.076446444
-0.07097456 -0.3036124 0.13082306 -0.007581567 0.012256265 -0.16628021 0.14057751 -0.33915412
-0.23659751 0.0038812703 -0.07111245 -0.111141145 -0.3100575 -0.092850626 -0.19712976 -0.26214576
0.13543114 -0.16413659 -0.27846867 -0.07213519 -0.086187445 0.053764686 -0.42248413 -0.1438761
-0.19501086 0.17012163 -0.25207368 0.02271791 -0.043902066 -0.0054215076 -0.16666332 -0.13753921
-0.20881951 -0.23334388 -0.08499492 -0.10556716 0.03228395 -0.12087215 0.18913595 -0.1386947
-0.12813866 -0.10205835 -0.13420449 0.019713901 0.07415856 -0.10823516 -0.07434533 -0.074278295
-0.34317482 -0.3364878 -0.14962511 -0.17503665 -0.11479899 -0.18575493 0.078191265 -0.19245541
0.08713426 0.03631838 -0.24964589 -0.04496143 0.19402878 -0.22090721 -0.33722854 -0.33366033
-0.10695883 -0.44996008 -0.3089185 -0.24281973 -0.1108408 -0.14617887 -0.1750648 -0.014248146
-0.15173808 -0.122160554 -0.17477818 0.013763681 -0.019900685 -0.08646834 -0.018778376 -0.12298063
-0.2791112 -0.31545088 -0.077163965 0.08063003 -0.01369813 -0.1525934 -0.17987926 -0.14056268
-0.11291599 -0.27694798 -0.19104657 -0.08789556 -0.23428422 0.029094277 -0.36530292 -0.3589018
-0.08854 -0.10240942 0.06652917 0.062630385 -0.102618374 -0.18758865 -0.19174589 0.005720316
-0.22301683 -0.06743222 -0.03503807 0.07364704 -0.33307743 0.010026864 -0.040193155 -0.122973464
-0.1861961 -0.400686 -0.03642823 -0.09673936 -0.13876742 -0.16910502 -0.13536894 -0.21110883
-0.058861416 -0.21015193 0.09513092 -0.21787237 -0.2356369 0.0034571432 -0.22466199 0.019394321
0.13128881 -0.17544243 -0.2966373 -0.12662898 -0.17793614 0.038638767 -0.32868043 -0.052805986
0.060530357 0.13635756 0.054592036 0.013315879 -0.013321638 -0.24528258 -0.23504514 -0.16801852
-0.14603227 -0.029597115 -0.28384507 -0.13424668 -0.103547744 -0.02085801 -0.1754321 -0.064524524
-0.29353246 -0.24826379 -0.053797267 0.037164655 -0.11327472 -0.061856385 -0.10875095 -0.25364977
0.009907618 -0.24578379 -0.24614863 -0.25169972 -0.21606816 -0.14216606 -0.044993848 -0.068120874
-0.2674757 0.045077644 -0.13240018 -0.08345218 -0.22679329 -0.084129125 -0.24600968 -0.0827707
-0.26851177 -0.26235282 -0.022890981 -0.093494765 -0.030326625 -0.41844112 -0.002724443 0.04896162
-0.14075594 -0.054505166 -0.005415688 -0.3144916 -0.09806534 -0.12829526 -0.4469729 -0.28993556
00000000: 42b9 78bd c21c 84be 735c 92bd deab 7fbd
00000010: 03f4 04be d596 da39 50a5 8ebe feac 9ebd
00000020: db4b 053d 5612 863d 60dd 39be a31e 75be
00000030: 0852 8fbe 1d00 663d e94d db3c b412 14b9
00000040: c659 39be c230 5bbe 8f50 45be 66ad 4fbe
00000050: ca89 10be c554 4dbe f501 72be 1fd0 aabd
00000060: b2db 93be f581 18be d43c 803c 3d6f 983d
00000070: b8fb 463d f6ff 0dbe 936e 59be 235d 293d
00000080: 76c3 8fb9 5f26 3ebe 1b8e 8ebe 4842 103a
00000090: c555 82be 8574 acbb f91f 8b3d 7bc5 d23c
000000a0: 9a60 8fbe 6ed0 efbb dab6 863d c665 5d3d
000000b0: 05a1 fa3d 6981 a4bc 63e9 1bbd 4c56 40bd
000000c0: 24c1 353d 12bd b53c 6b9e e5bd 24cd a2bc
000000d0: 9c07 71be 5ef4 9cbd 088f c5bd 114c 5cbd
000000e0: fc13 2fbe 4452 223d e1dc 90be 832c 1bbe
000000f0: b5f7 91be 2295 40bd f32d 09be f48f 9cbd
00000100: 1c5b 91bd 1673 9bbe 7bf6 053e cb6e f8bb
00000110: 80ce 483c 5c45 2abe 8df3 0f3e 9ca5 adbe
00000120: 9e46 72be e95c 7e3b 67a3 91bd f89d e3bd
00000130: dbbf 9ebe 7828 bebd 62dc 49be f837 86be
00000140: 76ae 0a3e 6c13 28be 7293 8ebe 9dbb 93bd
00000150: 0b83 b0bd 5c38 5c3d d74f d8be 4254 13be
00000160: edb0 47be 5d34 2e3e cd0f 81be e91a ba3c
00000170: a7d2 33bd e7a6 b1bb caa9 2abe 14d7 0cbe
00000180: c8d4 55be b3f1 6ebe d111 aebd 9833 d8bd
00000190: 2d3c 043d d18b f7bd dbac 413e fc05 0ebe
000001a0: c836 03be f803 d1bd e76c 09be 0c7f a13c
000001b0: 71e0 973d 65aa ddbd 5d42 98bd 381f 98bd
000001c0: 9cb4 afbe 2148 acbe 5337 19be cf3c 33be
000001d0: bc1b ebbd 8a36 3ebe be22 a03d 0813 45be
000001e0: 7273 b23d 95c2 143d 2ca3 7fbe 7a29 38bd
000001f0: 7baf 463e 8035 62be 38a9 acbe 87d5 aabe
00000200: 3b0d dbbd 2b61 e6be 912a 9ebe bca5 78be
00000210: 8000 e3bd eaaf 15be 3044 33be 0e71 69bc
00000220: 3a61 1bbe 502f fabd 0df9 32be 1081 613c
00000230: c306 a3bc 5016 b1bd 1cd5 99bc 45dd fbbd
00000240: aae7 8ebe c782 a1be 2408 9ebd 5b21 a53d
00000250: 1f6e 60bc 7241 1cbe 4532 38be aaef 0fbe
00000260: 8040 e7bd 20cc 8dbe b6a1 43be 9602 b4bd
00000270: 34e8 6fbe 1f57 ee3c fc08 bbbe fac1 b7be
00000280: 7654 b5bd 08bc d1bd 7240 883d 5c44 803d
00000290: 9529 d2bd 3d17 40be 0959 44be 7d71 bb3b
000002a0: 865e 64be e719 8abd 1484 0fbd 42d4 963d
000002b0: 2089 aabe b747 243c 94a1 24bd 83d9 fbbd
000002c0: 31aa 3ebe b726 cdbe c535 15bd 491f c6bd
000002d0: 0c19 0ebe de29 2dbe 289e 0abe ea2c 58be
000002e0: ab18 71bd 1132 57be 00d4 c23d ef19 5fbe
000002f0: cd4a 71be 3d91 623b cb0d 66be d7e0 9e3c
00000300: 9370 063e 2ea7 33be d8e0 97be 07ab 01be
00000310: e434 36be af43 1e3d cd48 a8be 174b 58bd
00000320: aeee 773d 51a1 0b3e e69b 5f3d d82a 5a3c
00000330: 0043 5abc 5b2b 7bbe acaf 70be 0c0d 2cbe
00000340: 7c89 15be a675 f2bc 2454 91be f677 09be
00000350: d710 d4bd 6bde aabc 79a4 33be 6f25 84bd
00000360: e349 96be dd38 7ebe 865a 5cbd f739 183d
00000370: 94fc e7bd 1f5d 7dbd d1b8 debd 62de 81be
00000380: 9053 223c bfae 7bbe 630e 7cbe c9de 80be
00000390: f940 5dbe fb93 11be 784b 38bd f582 8bbd
000003a0: 93f2 88be 56a3 383d ea93 07be fae8 aabd
000003b0: 803c 68be e44b acbd f6e9 7bbe af83 a9bd
000003c0: 607a 89be 1c53 86be de85 bbbc 2f7a bfbd
000003d0: 8b6f f8bc ea3d d6be 928c 32bb fb8b 483d
000003e0: 5322 10be cf40 5fbd 1576 b1bb 0b05 a1be
000003f0: 7bd6 c8bd d55f 03be a2d9 e4be 6f72 94be

fc2.weight f4 [256, 260]
0.02412317 -0.011184643 0.1443498 0.11782735 -0.11809909 -0.23461393 0.050703596 0.04977263
-0.17573856 0.036295205 -0.058705706 0.019817267 -0.069119655 -0.15669762 -0.13880466 0.1299953
-0.07808992 -0.00017171215 -0.1070277 -0.10869897 -0.17274089 -0.11852983 0.114322126 0.16261634
0.040620416 0.12495606 0.18956855 -0.029845336 0.022052018 0.12575041 -0.11449196 0.11028973
-0.015659606 -0.07407369 0.18906029 0.13927124 0.049506266 -0.089666516 -0.045667067 -0.07882648
0.0059865825 -0.20873335 0.19200923 -0.13300169 0.005592232 -0.035958625 0.040187903 -0.010916276
-0.27979875 -0.059756275 -0.045390856 -0.016473921 -0.14278258 -0.1152783 0.06192827 -0.15807213
0.051958177 -0.0026817687 -0.15482278 -0.0053498405 -0.080310926 0.023092614 0.031031905 -0.0008383401
-0.108560644 0.07464207 0.1103011 0.04533102 0.025160797 -0.2225377 0.10696382 0.02778952
-0.094649844 0.079845 0.01917819 0.12975061 0.21400282 0.041101433 0.06993384 -0.05388129
0.11047968 -0.08385654 0.06589739 -0.273611 0.197629 0.07684315 -0.039755862 -0.1843391
0.10920824 -0.31170914 0.22970346 0.023777127 -0.12274163 -0.06506403 -0.052093264 -0.07622365
-0.0036125607 -0.17206798 -0.06491696 0.1642529 0.049773004 -0.053002402 -0.009434905 -0.06318927
-0.057380266 -0.114117004 -0.22895718 0.074744195 0.053864814 -0.003508635 -0.039717544 -0.15062353
-0.30875114 0.102646746 -0.034300894 -0.07180234 -0.2755871 -0.34152755 0.10563232 0.1892053
0.062258337 0.05847605 -0.06727711 -0.071888335 -0.1943233 -0.13133284 -0.06818299 0.12196345
-0.14620888 0.07682349 -0.1453236 0.05236941 -0.027125895 0.06518384 0.10094178 -0.12128208
0.090182215 -0.013681251 -0.020183448 0.13146728 -0.23127533 -0.084051095 0.10908804 0.1779655
0.02789344 0.13608308 -0.12740634 -0.10074961 -0.115325734 -0.027918195 -0.11800613 0.080863595
0.10489652 -0.027660012 -0.09626111 -0.34731108 0.081750154 0.104749806 0.19705175 -0.14807144
-0.07184493 0.24229799 -0.005888335 -0.034119766 0.121338606 -0.113304295 -0.010492936 -0.11692605
-0.12598553 0.049575422 -0.13797854 0.16534296 0.055221483 -0.28804636 0.16292064 -0.24154916
0.19475426 -0.039414007 -0.03483164 0.14594068 0.11758129 -0.49810055 0.015350742 -0.06257868
0.14378425 0.038251225 -0.1051287 0.004512899 -0.05510654 -0.117624246 -0.07169974 -0.07428705
0.04542957 -0.06736526 -0.07953428 -0.055820223 0.08704538 0.10758165 -0.13851047 -0.17568465
-0.056043427 -0.15824896 0.0053845597 -0.15332802 0.009895315 0.029597245 -0.16023849 -0.02914849
0.047114763 -0.09636317 0.041026194 0.013620468 0.12953953 0.00023298689 0.108281024 -0.10694031
-0.06223793 0.2202955 -0.25292477 0.015519712 0.029758094 0.06992149 -0.058878757 0.10798217
-0.19458687 -0.07718782 -0.25658035 -0.13243191 -0.0022129186 0.07893126 -0.17690681 -0.14479461
-0.11405279 0.002760279 0.040772077 0.12852466 0.1950007 -0.0049812403 0.028080793 0.0014772008
0.06540493 -0.17660803 0.0069688605 -0.039145973 0.05698086 0.18737967 -0.0057553775 0.0045079873
-0.006777172 -0.086898014 -0.14543997 -0.034246404 -0.051029306 0.08705918 -0.14685735 -0.3912073
00000000: f49d c53c cb3f 37bc 6fd0 133e 774f f13d
00000010: f0dd f1bd a23e 70be 93ae 4f3d 63de 4b3d
00000020: cff4 33be 48aa 143d 6575 70bd d257 a23c
00000030: 9b8e 8dbd 5775 20be cf22 0ebe 7d1d 053e
00000040: 9ced 9fbd a10d 34b9 5731 dbbd 919d debd
00000050: fde2 30be c4bf f2bd b821 ea3d e684 263e
00000060: 9861 263d f6e8 ff3d 421e 423e 357e f4bc
00000070: 6fa6 b43c b7c4 003e c37a eabd 95df e13d
00000080: 9348 80bc f2b3 97bd 0599 413e 1f9d 0e3e
00000090: 15c7 4a3d 14a3 b7bd 640d 3bbd c76f a1bd
000000a0: 182b c43b 32be 55be 119e 443e 9831 08be
000000b0: 0b3f b73b 5a49 13bd 129c 243d 2eda 32bc
000000c0: c841 8fbe ffc2 74bd c3eb 39bd 51f4 86bc
000000d0: 9935 12be 0817 ecbd 7fa8 7d3d a9dd 21be
000000e0: 19d2 543d 9dc0 2fbb dd89 1ebe b74d afbb
000000f0: 0e7a a4bd b92c bd3c 9f36 fe3c 0dc4 5bba
00000100: 0b55 debd f1dd 983d 8be5 e13d 05ad 393d
00000110: 041e ce3c ece0 63be d90f db3d d9a6 e33c
00000120: c7d7 c1bd c685 a33d 941b 9d3c 58dd 043e
00000130: 8e23 5b3e fa59 283d 7939 8f3d a1b2 5cbd
00000140: 2c43 e23d fabc abbd 36f5 863d be16 8cbe
00000150: 425f 4a3e f15f 9d3d 0bd7 22bd 64c3 3cbe
00000160: 92a8 df3d 5798 9fbe 6237 6b3e 40c8 c23c
00000170: f75f fbbd 4a40 85bd bf5f 55bd 251b 9cbd
00000180: b6c0 6cbb 9732 30be 2ff3 84bd ea31 283e
00000190: c7de 4b3d 0c19 59bd dc94 1abc 6069 81bd
000001a0: 9207 6bbd 2db6 e9bd c073 6abe 7c13 993d
000001b0: 5aa1 5c3d 21f1 65bb ddae 22bd 0e3d 1abe
000001c0: a114 9ebe 7538 d23d 187f 0cbd 1b0d 93bd
000001d0: c119 8dbe b3dc aebe c255 d83d 09bf 413e
000001e0: 9902 7f3d 9584 6f3d 95c8 89bd 313a 93bd
000001f0: b0fc 46be 1e7c 06be 86a3 8bbd f9c7 f93d
00000200: c8b7 15be a255 9d3d b6cf 14be 4e81 563d
00000210: 2037 debc 1b7f 853d 90ba ce3d bd62 f8bd
00000220: 74b1 b83d 5327 60bc c257 a5bc 5c9f 063e
00000230: 71d3 6cbe fb22 acbd 8d69 df3d 973c 363e
00000240: c980 e43c 5d59 0b3e cf76 02be d055 cebd
00000250: e62f ecbd b3b4 e4bc 33ad f1bd d09b a53d
00000260: fdd3 d63d 4097 e2bc 8b24 c5bd c2d2 b1be
00000270: a06c a73d 1187 d63d efc7 493e 0aa0 17be
00000280: 6f23 93bd f71c 783e eff2 c0bb 2bc1 0bbd
00000290: 6080 f83d 150c e8bd 90ea 2bbc ed76 efbd
000002a0: 5a02 01be 990f 4b3d 3f4a 0dbe aa4f 293e
000002b0: ec2f 623d d07a 93be abd4 263e aa58 77be
000002c0: a96d 473e 9570 21bd 9fab 0ebd 7971 153e
000002d0: 76ce f03d 0907 ffbe ae81 7b3c 4029 80bd
000002e0: 2e3c 133e 51ad 1c3d b74d d7bd f1e0 933b
000002f0: 65b7 61bd fbe4 f0bd 50d7 92bd cf23 98bd
00000300: 5b14 3a3d ccf6 89bd dee2 a2bd bfa3 64bd
00000310: d944 b23d c553 dc3d b0d5 0dbe ade6 33be
00000320: cb8d 65bd 040c 22be f670 b03b 0502 1dbe
00000330: f61f 223c ec75 f23c 8f15 24be d0c8 eebc
00000340: 69fb 403d 0e5a c5bd 150b 283d 6228 5f3c
00000350: 03a6 043e f14d 7439 71c2 dd3d 8503 dbbd
00000360: 33ed 7ebd 2595 613e 5b7f 81be 6446 7e3c
00000370: 3fc7 f33c 0033 8f3d da2a 71bd c225 dd3d
00000380: c841 47be a614 9ebd 805e 83be 3b9c 07be
00000390: 9d06 11bb b6a6 a13d 0f27 35be 0a45 14be
000003a0: 8294 e9bd cce5 343b 9f00 273d f89b 033e
000003b0: 43ae 473e ac39 a3bb b109 e63c a29e c13a
000003c0: 05f3 853d bcd8 34be 0a5b e43b 8757 20bd
000003d0: c364 693d 75e0 3f3e 9b97 bcbb bdb7 933b
000003e0: 0a13 debb 96f7 b1bd 37ee 14be f545 0cbd
000003f0: 1b04 51bd 154c b23d c661 16be 534c c8be

fc2.bias f4 [256]
0.0948334 0.04835271 -0.23778245 0.09698799 0.18198626 -0.35118812 -0.37019965 0.08692376
-0.27353606 -0.35661328 -0.15949444 -0.17797722 -0.23815732 0.10004693 -0.10786868 -0.2677491
-0.009651697 -0.18484339 0.008353694 0.068104155 -0.14095211 -0.0244369 0.09490291 -0.097318165
0.28637633 -0.025659367 -0.33831826 -0.12622643 0.12891684 0.21563882 -0.1228612 0.054475643
-0.017592216 0.13287373 0.21625702 0.15470745 -0.15188804 0.23932754 -0.20697926 -0.15007564
-0.12607199 -0.08822226 -0.18859671 -0.005596602 0.058679994 -0.18406177 -0.13933603 -0.23490942
-0.467027 -0.1299522 0.151463 0.035499144 0.07192824 -0.10068391 -0.044326376 -0.01738783
0.0030994015 -0.20326789 -0.16690691 0.33422476 0.042386115 -0.08028866 0.05377713 -0.30582568
0.017399708 0.021067156 -0.03689945 -0.10348405 -0.062778436 0.007904053 0.025951315 -0.22183034
-0.12417677 0.11644345 0.06330132 0.07825647 -0.0027411114 -0.05541429 -0.1188499 0.0045784176
0.19982484 0.015300274 0.26743415 -0.16631633 -0.32286426 0.3876943 -0.055868667 0.11048816
-0.18080606 0.3289087 -0.06718698 -0.13006236 -0.050331473 -0.15194252 -0.13952702 0.025201052
-0.18752229 -0.2862006 -0.14558844 -0.27353173 0.093940616 0.108050264 -0.092664644 -0.29356784
-0.09530671 -0.12394696 -0.060032833 0.08356295 -0.15561374 -0.064627625 -0.15301579 -0.15087293
-0.07987758 -0.18281025 -0.12518468 -0.1589657 -0.23485115 -0.041188028 0.03810577 0.13040154
0.08377036 0.07301513 -0.041775536 0.13422057 -0.31835073 -0.01286033 0.083233535 0.3521347
0.056371298 0.07635514 -0.010554916 -0.10087159 0.0681019 0.015432742 -0.006038346 -0.14901605
-0.095641725 0.14367612 -0.22227868 -0.08842992 -0.17209828 -0.35476997 0.07728677 0.07787853
-0.1308463 -0.024632758 -0.07463902 -0.019558126 -0.15481189 -0.04108569 0.06490258 0.100646645
-0.006429487 -0.19778357 0.12701592 -0.12139972 0.0027982998 0.016176347 0.2072757 -0.16330259
-0.1723781 -0.35193306 -0.08594837 -0.13454625 0.005981415 0.12604704 0.027938642 -0.085616596
0.033515863 0.2709537 -0.283248 -0.13956246 0.14369352 -0.20327339 0.012513421 0.035194464
0.21200828 -0.07118842 0.19639404 -0.012419917 0.18239489 -0.24948125 -0.018517392 -0.2653451
0.023277305 0.27930996 -0.17916031 0.08562016 0.039393287 -0.19371323 -0.09012287 0.067231275
-0.06918078 -0.06326636 -0.021425502 -0.026075343 -0.07003871 0.18459056 0.021267328 -0.09598714
-0.032282986 -0.52318066 -0.19425973 0.26280415 -0.11276027 0.27726158 -0.2512941 0.11166296
-0.25079647 0.090398066 -0.06800006 -0.12186366 0.03813386 -0.0321209 0.101254374 -0.006981291
-0.027651569 0.09702702 0.019116906 -0.114963725 -0.040569127 -0.093237 0.17620145 -0.012726145
0.020775093 -0.18866736 0.0435602 -0.0020276315 -0.25970712 -0.13085607 -0.048522517 -0.456512
-0.27385762 -0.22203343 -0.19739306 -0.26320785 -0.14453442 0.017025372 -0.041419208 -0.07836486
-0.062159345 -0.20709904 -0.0039984323 -0.089505106 -0.23394091 -0.31011897 0.03581564 0.25380963
0.16257133 -0.21611238 -0.1389371 0.063422255 0.2065676 -0.09124216 -0.24756975 0.08819705
00000000: 0338 c23d 7e0d 463d 3e7d 73be a4a1 c63d
00000010: 9b5a 3a3e eece b3be cf8a bdbe 1605 b23d
00000020: eb0c 8cbe 0496 b6be 8352 23be a93f 36be
00000030: 83df 73be 68e5 cc3d 41ea dcbd 6916 89be
00000040: 2722 1ebc 9647 3dbe efdd 083c 317a 8b3d
00000050: c055 10be e52f c8bc 755c c23d bf4e c7bd
00000060: eb9f 923e 9833 d2bc 0d38 adbe 8041 01be
00000070: c702 043e 6cd0 5c3e a79e fbbd da21 5f3d
00000080: 8d1d 90bc 0d10 083e 7b72 5d3e a16b 1e3e
00000090: 8a88 1bbe 4712 753e 5ff2 53be 6ead 19be
000000a0: 0419 01be dfad b4bd 7f1f 41be b363 b7bb
000000b0: 6f5a 703d b07a 3cbe 1bae 0ebe 188c 70be
000000c0: 2a1e efbe 3112 05be 1e19 1b3e 8d67 113d
000000d0: 1d4f 933d 5e33 cebd 938f 35bd ec70 8ebc
000000e0: 541f 4b3b 7525 50be a5e9 2abe 821f ab3e
000000f0: 109d 2d3d 626e a4bd 6845 5c3d 2f95 9cbe
00000100: d589 8e3c 0795 ac3c e123 17bd 72ef d3bd
00000110: fb91 80bd 0080 013c da97 d43c 7e27 63be
00000120: 6450 febd e779 ee3d 1fa4 813d ee44 a03d
00000130: 38a4 33bb 18fa 62bd 9467 f3bd 8d06 963b
00000140: e29e 4c3e 00ae 7a3c 21ed 883e d44e 2abe
00000150: 774e a5be de7f c63e 8bd6 64bd 9e47 e23d
00000160: 3925 39be b966 a83e 5499 89bd 112f 05be
00000170: 6028 4ebd d296 1bbe 2ce0 0ebe 7072 ce3c
00000180: d805 40be e388 92be 2315 15be 5a0c 8cbe
00000190: f063 c03d 7549 dd3d f6c6 bdbd 864e 96be
000001a0: 2a30 c3bd e7d7 fdbd fde4 75bd 0d23 ab3d
000001b0: 3559 1fbe 7d5b 84bd 2cb0 1cbe 6f7e 1abe
000001c0: db96 a3bd 9c32 3bbe 6a30 00be e8c7 22be
000001d0: d27c 70be c7b4 28bd cc14 1c3d fb87 053e
000001e0: cb8f ab3d f588 953d d31c 2bbd 1e71 093e
000001f0: defe a2be 22b4 52bc 5876 aa3d 004b b43e
00000200: 97e5 663d 1560 9c3d 87ee 2cbc c495 cebd
00000210: 0279 8b3d 9dd9 7c3c 51dd c5bb aa97 18be
00000220: cfdf c3bd d51f 133e 069d 63be bf1a b5bd
00000230: 883a 30be 69a4 b5be 8748 9e3d c77e 9f3d
00000240: 93fc 05be a3ca c9bc 58dc 98bd 5d38 a0bc
00000250: 0287 1ebe 7849 28bd a5eb 843d d41f ce3d
00000260: 72ae d2bb c787 4abe 7610 023e 6ba0 f8bd
00000270: ae63 373b 4284 843c 1540 543e cb38 27be
00000280: e283 30be 9230 b4be b305 b0bd 7ec6 09be
00000290: bfff c33b 7a12 013e 94df e43c c157 afbd
000002a0: ee47 093d 72ba 8a3e e205 91be 76e9 0ebe
000002b0: 6524 133e e626 50be 1705 4d3c 1228 103d
000002c0: b318 593e 3ccb 91bd 851b 493e e87c 4bbc
000002d0: bac5 3a3e 0378 7fbe c9b1 97bc 50db 87be
000002e0: 0cb0 be3c b701 8f3e cd75 37be 9f59 af3d
000002f0: db5a 213d c35c 46be 5792 b8bd 8db0 893d
00000300: a7ae 8dbd cb91 81bd 8984 afbc f59b d5bc
00000310: 7570 8fbd 4f05 3d3e d238 ae3c e894 c4bd
00000320: 2a3b 04bd 2bef 05bf 06ec 46be 448e 863e
00000330: dbee e6bd 3bf5 8d3e 9fa9 80be 8daf e43d
00000340: 6568 80be 9f22 b93d 9e43 8bbd a893 f9bd
00000350: 4032 1c3d 3491 03bd 745e cf3d 50c3 e4bb
00000360: 8b85 e2bc 1ab6 c63d 0f9b 9c3c 1a72 ebbd
00000370: d02b 26bd 0af3 bebd 276e 343e 5281 50bc
00000380: 8730 aa3c 0432 41be 2e6c 323d 03e2 04bb
00000390: 55f8 84be 22ff 05be 8cbf 46bd f1bb e9be
000003a0: 1137 8cbe bb5c 63be 6821 4abe 2ec3 86be
000003b0: d500 14be cb78 8b3c 30a7 29bd c17d a0bd
000003c0: cc9a 7ebd c511 54be 4805 83bb 744e b7bd
000003d0: 358e 6fbe eac7 9ebe 6cb3 123d 56f3 813e
000003e0: 1979 263e 904c 5dbe 8745 0ebe 87e3 813d
000003f0: 7586 533e 2bdd babd ed82 7dbe a8a0 b43d

fc3.weight f4 [128, 256]
-0.0116546415 -0.06300859 0.17956153 0.050808553 -0.056910314 -0.15446831 -0.028352516 0.10032948
-0.076648094 -0.10726762 0.0349474 -0.21705443 -0.22668947 -0.22706103 0.00018217914 0.013187797
-0.047075473 0.12492148 -0.13567078 -0.0077492446 -0.104400255 -0.19133669 -0.107012495 -0.25203907
-0.0026498064 -0.04111875 0.11824993 0.19987632 -0.21124566 0.11163964 -0.14858472 -0.031158755
0.15566114 -0.01643129 -0.06193036 -0.05408015 0.12770025 -0.1462353 -0.2018575 -0.18422244
0.045948926 0.05336271 0.10309042 0.061068032 0.07590368 -0.14846382 -0.04017692 0.07654435
-0.1500822 -0.11610155 -0.12098517 0.04840624 -0.046014294 -0.09335386 0.09890507 0.21950792
-0.03441025 0.11667554 0.06586158 0.0038256529 -0.027042395 -0.013639706 0.17387204 -0.11884732
-0.024288628 0.044153463 -0.3808815 -0.07529065 0.06016619 -0.21889599 -0.08424899 0.109239854
0.0008540885 -0.17161195 0.10046604 -0.028680468 -0.12300195 -0.05621416 0.011753048 -0.049698617
0.042821728 -0.06500032 -0.070528 -0.08953026 -0.25614333 -0.17522958 -0.06254307 0.0049375743
-0.15152164 0.019350871 0.06866623 0.05032251 -0.14922029 0.051714085 -0.041214414 -0.1000635
-0.06817426 -0.10744601 -0.04451694 0.089493446 -0.0659698 -0.024344811 -0.18055342 0.12528841
-0.03547633 0.055536803 0.023674937 -0.024938047 0.09948819 -0.03373107 0.022611786 0.15524171
0.19720806 0.11441699 0.1253604 0.17152214 -0.058691215 0.036441624 0.12699352 0.04858962
-0.16040544 0.14594835 0.079403706 0.06586458 -0.12555408 0.25165743 0.27131552 -0.028990388
0.06106828 -0.0906787 -0.035495188 -0.04220167 0.03946214 -0.06195091 -0.08104101 0.24743932
-0.13934726 -0.055895764 -0.15812133 -0.110302754 -0.030399326 -0.029674549 -0.14847852 -0.0075573768
0.15158619 -0.052046776 0.078961365 0.06779115 0.014874663 -0.14767449 0.10003794 -0.06443976
0.19210097 0.10758409 0.0050664097 -0.046396922 -0.017020566 -0.022647887 0.031705786 -0.0015289489
0.19280626 -0.005102203 -0.10176248 0.12778848 -0.23977393 0.021609705 -0.022787908 -0.029756993
0.041482426 0.018464388 0.03546256 -0.15216875 0.19530931 0.12353741 0.12859383 -0.08737667
-0.025180025 0.049522564 -0.02167125 -0.18474412 -0.1094032 -0.027401669 -0.14412265 0.14403565
-0.037334394 0.023823665 -0.10827163 0.13415273 -0.3531667 -0.18073665 -0.0020928863 -0.15623638
-0.20142461 -0.13556895 -0.20158303 -0.039797146 0.10472101 -0.06280854 0.11616228 -0.130858
0.106516615 0.07724611 0.005626905 0.025512999 0.052875806 0.047231097 -0.05946339 -0.01953064
-0.19533397 -0.24922942 -0.031339746 0.19348562 0.23179933 0.013800133 0.12761945 0.09358385
0.15920235 0.11743507 0.098669045 0.0711517 0.08875168 0.0047372445 0.08694543 0.022606758
0.0752913 0.0182317 0.063458234 0.03571009 0.10897106 -0.031777997 -0.04355941 0.06314125
0.0069269175 -0.0829598 0.10121428 -0.018445492 0.13473897 0.11775149 -0.044040293 0.17239368
0.30542117 -0.0036185293 -0.08001416 0.17752892 -0.30485666 0.08379546 0.1813898 -0.1778198
0.021813687 0.016854428 -0.0027090462 0.024465732 -0.053271327 -0.049866237 0.10505261 -0.16743489
00000000: 1cf3 3ebc a60a 81bd fade 373e a11c 503d
00000010: ca1a 69bd f12c 1ebe 8943 e8bc 8b79 cd3d
00000020: adf9 9cbd 20af dbbd 0125 0f3d 8443 5ebe
00000030: 4921 68be b082 68be 5707 3f39 a111 583c
00000040: 36d2 40bd d5d6 ff3d 48ed 0abe 60ed fdbb
00000050: cdcf d5bd c4ed 43be 5e29 dbbd 440b 81be
00000060: 60a8 2dbb 226c 28bd 052d f23d 61ac 4c3e
00000070: c850 58be 53a3 e43d 9826 18be a540 ffbc
00000080: a265 1f3e ea9a 86bc b0aa 7dbd 2683 5dbd
00000090: dbc3 023e b5be 15be bcb3 4ebe cfa4 3cbe
000000a0: f134 3c3d db92 5a3d 1221 d33d 7922 7a3d
000000b0: 6373 9b3d e606 18be 8e90 24bd 49c3 9c3d
000000c0: 26af 19be a6c6 edbd 13c7 f7bd 9f45 463d
000000d0: 7c79 3cbd 4f30 bfbd be8e ca3d afc6 603e
000000e0: c3f1 0cbd 96f3 ee3d 70e2 863d ceb7 7a3b
000000f0: 0388 ddbc 1379 5fbc 830b 323e 3966 f3bd
00000100: f2f8 c6bc 43da 343d e602 c3be fc31 9abd
00000110: d370 763d 4526 60be bc8a acbd 25b9 df3d
00000120: e9e4 5f3a 0bbb 2fbe 24c1 cd3d 4df3 eabc
00000130: 72e8 fbbd d240 66bd db8f 403c c790 4bbd
00000140: d665 2f3d e31e 85bd fc70 90bd a45b b7bd
00000150: 3825 83be 626f 33be 9516 80bd 60cb a13b
00000160: 7d28 1bbe b885 9e3c e1a0 8c3d fa1e 4e3d
00000170: 34cd 18be 26d2 533d 72d0 28bd 18ee ccbd
00000180: f29e 8bbd a70c dcbd 6557 36bd 5748 b73d
00000190: 2d1b 87bd c56e c7bc ffe2 38be 9b4b 003e
000001a0: a14f 11bd 8f7a 633d f1f1 c13c e04a ccbc
000001b0: 77c0 cb3d 9729 0abd 5a3c b93c aff7 1e3e
000001c0: e9f0 493e 7453 ea3d 7a5e 003e 80a3 2f3e
000001d0: 3366 70bd d043 153d 970a 023e e905 473d
000001e0: 5341 24be 7c73 153e 699e a23d 02e4 863d
000001f0: 4091 00be 3ed9 803e dee9 8a3e 407d edbc
00000200: bc22 7a3d c1b5 b9bd 6763 11bd a9db 2cbd
00000210: 0ea3 213d 3dc0 7dbd d4f8 a5bd bc60 7d3e
00000220: 0cb1 0ebe f5f2 64bd 8fea 21be 69e6 e1bd
00000230: 0208 f9bc 0a18 f3bc c10a 18be dfa3 f7bb
00000240: 6939 1b3e 002f 55bd 7fb6 a13d 16d6 8a3d
00000250: dcb4 733c fb37 17be b1e0 cc3d fef8 83bd
00000260: 1eb6 443e 0c55 dc3d 2004 a63b b30a 3ebd
00000270: b76e 8bbc 1088 b9bc eddd 013d 0367 c8ba
00000280: 016f 453e 6230 a7bb d968 d0bd fcda 023e
00000290: 4c87 75be d606 b13c b5ad babc f0c4 f3bc
000002a0: 7ae9 293d a142 973c 3041 113d 20d2 1bbe
000002b0: 2aff 473e 2e01 fd3d 1aae 033e 8af2 b2bd
000002c0: 5746 cebc 2cd8 4a3d e887 b1bc 902d 3dbe
000002d0: c90e e0bd 7779 e0bc e394 13be 157e 133e
000002e0: f3eb 18bd d929 c33c 84bd ddbd 555f 093e
000002f0: 44d2 b4be 0713 39be ce28 09bb 6efc 1fbe
00000300: 4142 4ebe 96d2 0abe c86b 4ebe 5502 23bd
00000310: f877 d63d c4a1 80bd 7de6 ed3d a4ff 05be
00000320: 6225 da3d 3533 9e3d e661 b83b a300 d13c
00000330: 4d94 583d 6575 413d e28f 73bd b9fe 9fbc
00000340: a105 48be ff35 7fbe 1b5e 00bd 1821 463e
00000350: ce5c 6d3e f419 623c acae 023e e4a8 bf3d
00000360: f105 233e cc81 f03d ff12 ca3d fcb7 913d
00000370: 71c3 b53d e33a 9b3b 7210 b23d cf31 b93c
00000380: 5332 9a3d a55a 953c 64f6 813d be44 123d
00000390: 382c df3d a529 02bd 5a6b 32bd 3350 813d
000003a0: 32fb e23b d4e6 a9bd 6f49 cf3d 001b 97bc
000003b0: 03f9 093e b127 f13d 9863 34bd f887 303e
000003c0: 2a60 9c3e d924 6dbb 77de a3bd 24ca 353e
000003d0: 2c16 9cbe f49c ab3d 3fbe 393e 6516 36be
000003e0: 9eb2 b23c 4c12 8a3c 418a 31bb 5c6c c83c
000003f0: 0933 5abd 8a40 4cbd d325 d73d 0d74 2bbe

fc3.bias f4 [128]
0.2796852 -0.14217131 -0.2719614 0.43223965 -0.4217101 0.22030024 -0.35537574 -0.3981387
-0.38157794 0.03194054 -0.4383347 0.20906554 -0.31667727 -0.12974244 0.015656047 0.1687859
-0.4092045 -0.47286904 -0.24830343 0.6148993 -0.23001672 -0.38878536 -0.27536935 -0.19083168
0.43031248 0.6080911 -0.35081112 -0.26924574 -0.23065782 -0.044812083 -0.2737577 0.8223243
0.539237 -0.31923082 -0.1923467 -0.10617368 0.43600124 -0.3327978 0.30141997 -0.18354358
0.18117529 -0.20238768 0.30253386 -0.1270249 -0.2329186 -0.3025345 0.58456224 -0.17037614
0.4611577 0.6796853 -0.070564695 -0.16482233 -0.30906174 0.3135462 -0.1910168 0.34352085
-0.18652117 -0.20571606 -0.38749927 -0.48463678 0.7428641 -0.18072838 0.061577573 -0.26503596
-0.34245402 0.6806908 -0.30015022 -0.05136114 -0.3643303 -0.31446573 0.36013752 -0.13273312
-0.057595942 -0.24717315 0.01677653 0.2208506 -0.25101396 -0.43969852 -0.2075228 -0.3162609
0.24624209 0.27380708 0.33907506 0.9240099 0.31952032 -0.26676422 -0.15210287 -0.16822292
-0.13817766 -0.3512012 0.3855486 -0.2116191 0.27072433 -0.30241203 0.28094223 -0.30610868
-0.6169267 -0.0068375166 0.1990502 -0.09930107 0.9332271 -0.15584317 -0.50280905 0.29230553
0.40013993 0.094623074 -0.400438 -0.16564432 0.10874981 0.40767753 -0.03288584 0.15251216
0.6193435 -0.4811363 0.55145216 -0.30330926 0.17768916 0.19780533 0.08875752 -0.21260238
-0.06033854 -0.4618209 0.1622158 0.28982782 -0.22038 -0.2017738 -0.22625358 0.13143933
00000000: e632 8f3e 5b95 11be 863e 8bbe 844e dd3e
00000010: 63ea d7be 6396 613e cff3 b5be d6d8 cbbe
00000020: 2f5e c3be 15d4 023d 686d e0be 4715 563e
00000030: 8623 a2be 34db 04be 1c41 803c 36d6 2c3e
00000040: 4183 d1be e41b f2be 4143 7ebe 0a6a 1d3f
00000050: 8189 6bbe e00e c7be 36fd 8cbe 6169 43be
00000060: eb51 dc3e dcab 1b3f 849d b3be 94da 89be
00000070: 9031 6cbe e08c 37bd f829 8cbe d883 523f
00000080: 700b 0a3f 3972 a3be 89f6 44be 9671 d9bd
00000090: 8e3b df3e 7964 aabe b853 9a3e d9f2 3bbe
000000a0: 0486 393e b73e 4fbe b8e5 9a3e d112 02be
000000b0: 3782 6ebe cde5 9abe dfa5 153f 1577 2ebe
000000c0: dd1c ec3e dbff 2d3f 3984 90bd 2fc7 28be
000000d0: 573d 9ebe 2189 a03e e899 43be f7e1 af3e
000000e0: 68ff 3ebe 3ba7 52be 4e66 c6be 5022 f8be
000000f0: 572c 3e3f dc10 39be c438 7c3d cbb2 87be
00000100: 2256 afbe c141 2e3f 4aad 99be 0f60 52bd
00000110: 8089 babe a701 a1be f263 b83e 31eb 07be
00000120: b9e9 6bbd f51a 7dbe ef6e 893c a926 623e
00000130: e784 80be 2a20 e1be db80 54be f3ec a1be
00000140: e326 7c3e 7130 8c3e 3f9b ad3e ea8b 6c3f
00000150: 2b98 a33e 5295 88be dbc0 1bbe a142 2cbe
00000160: 727e 0dbe a5d0 b3be a066 c53e adb2 58be
00000170: 619c 8a3e c0d5 9abe a9d7 8f3e 47ba 9cbe
00000180: e9ee 1dbf 3f0d e0bb d1d3 4b3e 5c5e cbbd
00000190: f9e7 6e3f 5a95 1fbe 18b8 00bf 12a9 953e
000001a0: 24df cc3e bec9 c13d 3606 cdbe aa9e 29be
000001b0: 38b8 de3d 1cbb d03e 4db3 06bd 262c 1c3e
000001c0: 4c8d 1e3f 7f57 f6be f82b 0d3f 5a4b 9bbe
000001d0: 26f4 353e 7b8d 4a3e 81c6 b53d 70b4 59be
000001e0: 8b25 77bd ca73 ecbe e61b 263e 5064 943e
000001f0: 4bab 61be cb9d 4ebe 05af 67be 0898 063e

fc4.weight f4 [1, 128]
0.01601992 -0.07558934 -0.14672826 0.09146355 -0.094870925 0.025281748 -0.14148894 -0.04972222
-0.22486402 0.058385782 -0.04935848 0.022969395 -0.051079113 -0.15835345 0.033750523 0.037168887
-0.06990052 -0.070800446 -0.06544484 0.13883643 -0.09608922 -0.075800076 -0.064752765 -0.050219018
0.08362352 0.14238872 -0.14378804 -0.061814256 -0.10708507 0.044636723 -0.037647065 0.20547932
0.13126181 -0.07461245 -0.07966315 0.043169122 0.0791709 -0.080020964 0.0048306943 -0.12706529
0.012451116 -0.10922206 0.051643804 -0.13211213 -0.08674346 -0.0890744 0.07297625 -0.13440393
0.033262897 0.13550703 0.054829396 -0.20061882 -0.12693132 0.054520093 -0.06523482 0.058317948
-0.0766048 -0.09067492 -0.043279264 -0.081745915 0.15408495 -0.067430824 0.02609719 -0.16358584
-0.078371875 0.14368469 0.021233164 -0.05577229 -0.06548532 -0.05839819 0.06441415 -0.07855011
-0.062493745 -0.04365584 0.007417579 0.0551896 -0.08984004 -0.06411464 -0.118883334 -0.045660168
0.056064475 0.027061792 0.033308096 0.20939305 0.0410781 -0.0540943 -0.0942193 -0.1526738
-0.07352874 -0.043751396 0.043034703 -0.045773618 0.039563026 -0.059092995 0.104318045 -0.048886616
-0.16509515 0.09261282 0.20773818 -0.12816378 0.22283529 -0.054016285 -0.092573285 0.032118656
0.036520682 0.018132359 -0.07592375 -0.05973649 0.034651857 0.064251475 0.0482226 0.050965693
0.06147895 -0.10637062 0.1096161 -0.085186966 0.14708844 0.033550538 0.038026556 -0.061937567
-0.029298412 -0.0858672 0.12796219 0.14609055 -0.09952915 -0.1713095 -0.109036475 0.038150325
00000000: 353c 833c 95ce 9abd ef3f 16be 3e51 bb3d
00000010: b04b c2bd ab1b cf3c 7ae2 10be 87a9 4bbd
00000020: c142 66be ee25 6f3d 1e2c 4abd 502a bc3c
00000030: 5538 51bd 6827 22be fd3d 0a3d 673e 183d
00000040: 0128 8fbd d3ff 90bd f207 86bd 232b 0e3e
00000050: 6dca c4bd 123d 9bbd 199d 84bd 75b2 4dbd
00000060: cf42 ab3d 59ce 113e 2c3d 13be f230 7dbd
00000070: 6b4f dbbd ffd4 363d cf33 1abd 2c69 523e
00000080: 7f69 063e 6ace 98bd 6f26 a3bd 1bd2 303d
00000090: 5a24 a23d 08e2 a3bd cd4a 9e3b 671d 02be
000000a0: c4ff 4b3c d1af dfbd 7488 533d 6748 07be
000000b0: 8ea6 b1bd a46c b6bd 9274 953d 2fa1 09be
000000c0: ad3e 083d 5bc2 0a3e ca94 603d 056f 4dbe
000000d0: 49fa 01be 7650 5f3d d599 85bd cdde 6e3d
000000e0: fae2 9cbd c6b3 b9bd 9945 31bd 676a a7bd
000000f0: 72c8 1d3e 2c19 8abd c6c9 d53c 0c83 27be
00000100: 6f81 a0bd 1422 133e 2cf1 ad3c 7c71 64bd
00000110: 2b1d 86bd f132 6fbd 91eb 833d e1de a0bd
00000120: 71f9 7fbd 77d0 32bd 2a0f f33b 7d0e 623d
00000130: 0efe b7bd 894e 83bd 1b79 f3bd 2806 3bbd
00000140: dda3 653d b1b0 dd3c 126e 083d 226b 563e
00000150: 8341 283d fc91 5dbd 0cf6 c0bd 8556 1cbe
00000160: 3c96 96bd aa34 33bd 2845 303d 1e7d 3bbd
00000170: d70c 223d 7f0b 72bd b3a4 d53d 553d 48bd
00000180: b40e 29be caab bd3d 51b9 543e 5e3d 03be
00000190: ef2e 643e 2e40 5dbd 1097 bdbd da8e 033d
000001a0: b696 153d 508a 943c e97d 9bbd 40ae 74bd
000001b0: 1bef 0d3d 4796 833d 1085 453d 67c1 503d
000001c0: 5ad1 7b3d d7d8 d9bd 687e e03d 8176 aebd
000001d0: 5a9e 163e 4a6c 093d bcc1 1b3d 3fb2 7dbd
000001e0: 3903 f0bc 24db afbd 8508 033e c398 153e
000001f0: f0d5 cbbd c26b 2fbe 844e dfbd 8443 1c3d
