p2_continuous-control/checkpoint_actor.pth (torch_old, 39701 bytes, 4 tensors)

fc1.weight f4 [256, 33]
-0.069381155 0.3437323 -0.15737621 -0.1629635 0.018107636 -0.08570676 -0.17702205 0.24250104
0.21205264 -0.37466767 -0.18699501 0.039772954 -0.2712185 -0.116308935 0.19161555 0.025376746
0.026056763 -0.022872293 0.0584795 -0.05412112 -0.11623416 0.3603092 0.107934155 0.012869308
0.17795688 -0.2922377 0.13963702 0.25181678 -0.07683481 0.016478404 -0.32348514 0.012041077
-0.6424734 0.083240815 -0.24819157 -0.16089104 0.110298306 0.071854316 0.060647916 -0.1444706
0.3088166 -0.24199 0.009168494 -0.06940042 0.030065715 -0.1490001 -0.12001291 -0.19881564
-0.037686985 0.038077004 -0.031811778 0.02071382 -0.008051787 -0.03250931 0.0035260273 0.059672926
-0.13670675 0.06406907 0.0063786968 -0.11040134 -0.067718655 0.038174227 -0.037694827 0.13479447
-0.043795846 -0.81529474 -0.028824013 0.1295841 -0.00842054 -0.07301678 0.05385655 -0.0499001
-0.10939202 -0.14550956 -0.12164383 0.0035967352 0.31984693 -0.061726414 0.22373769 -0.10384245
0.0047261757 0.2306578 -0.071679 0.06606777 0.043782476 0.02292866 0.22563162 0.07571048
0.1566033 0.07516869 0.027760446 0.11710508 -0.11168916 0.16529515 -0.33611012 0.003437236
-0.15944079 -0.03957939 -1.0529635 -0.011877689 -0.21676846 0.19212517 0.027629642 0.09378315
-0.08588774 -0.16917346 -0.028899267 0.2999076 0.18142726 0.17924123 -0.15822464 0.2920511
-0.06470701 0.26290232 -0.0039531253 0.083055355 0.11314048 -0.10612185 -0.025001522 -0.004954665
-0.09507092 0.32059348 0.07577179 0.09445411 -0.25466123 0.032788422 0.13495487 0.2579564
0.029600084 -0.17346108 0.049809985 0.36620945 -0.19093467 0.088119596 -0.2865001 0.03238171
0.0043722577 0.08565799 -0.07389886 0.022972107 -0.09645996 0.16420123 0.0385651 0.06579797
-0.2915655 -0.20685582 0.0849306 -0.27343366 0.09923254 -0.014093168 0.116280735 -0.10598856
0.11043461 -0.015078871 0.09899399 0.22951834 0.29749063 -0.007967584 0.112842634 -0.069776006
-0.05615997 0.015866593 0.04630382 0.01472386 -1.0145924 -0.07970272 -0.05758371 -0.16229665
0.097845994 -0.19587423 0.099868596 -0.07802382 -0.167666 -0.051014118 0.02269062 -0.042455822
0.0798674 0.07173835 -0.04866697 -0.24072804 -0.013523157 -0.011717464 -0.027866732 0.003224029
-0.012363596 -0.0999119 0.1395103 -0.034466416 0.066630304 -0.062761076 0.16423066 0.25882506
0.012524555 0.14072904 0.059417173 0.026445085 -0.00785622 -0.46047142 0.09876855 0.3052526
-0.1562365 -0.11983939 0.0065266206 -0.09017437 -0.02725739 -0.113630354 -0.055418044 0.04625437
0.3099109 0.22000109 0.07498294 0.19501546 0.20245835 0.2133948 -0.023901572 -0.024546742
-0.033626594 0.0324607 0.26338005 0.36028922 0.16564092 -0.054675873 -0.0513568 -0.051735602
0.009448152 0.30361605 -0.049957793 -0.023711726 -0.26710993 0.053386025 -0.5432418 -0.13393249
-0.01759107 0.26538187 -0.027678866 -0.13669586 -0.053912435 0.10586971 -0.17727578 0.1432904
-0.3470753 -0.1350405 0.016066562 0.21501362 0.019132333 0.069554515 -0.16076338 -0.02063611
0.014199414 -0.024243036 0.033493225 0.03430653 -0.15557028 0.15734236 -0.091927096 -0.1940193
00000000: b517 8ebd aefd af3e 3b27 21be e7df 26be
00000010: 7756 943c 0787 afbd 4545 35be 3152 783e
00000020: 5424 593e 71d4 bfbe 9f7b 3fbe f7e8 223d
00000030: 27dd 8abe 6133 eebd de36 443e e5e2 cf3c
00000040: fe74 d53c ad5e bbbc 3388 6f3d 1cae 5dbd
00000050: 2d0c eebd 737a b83e 950c dd3d cad9 523c
00000060: 543a 363e 2ea0 95be 02fd 0e3e 21ee 803e
00000070: 925b 9dbd b8fd 863c d89f a5be f047 453c
00000080: 2379 24bf 297a aa3d ee25 7ebe 9fc0 24be
00000090: 14e4 e13d 5b28 933d f369 783d 1af0 13be
000000a0: 361d 9e3e 3acc 77be 7337 163c cf21 8ebd
000000b0: 604c f63c 7b93 18be 54c9 f5bd 5496 4bbe
000000c0: ab5d 1abd a2f6 1b3d 114d 02bd 07b0 a93c
000000d0: a4eb 03bc 7b28 05bd ec14 673b 996b 743d
000000e0: dbfc 0bbe a536 833d 6304 d13b 191a e2bd
000000f0: 14b0 8abd 945c 1c3d e465 1abd 9007 0a3e
00000100: 4663 33bd 28b7 50bf 5620 ecbc b2b1 043e
00000110: 4ef6 09bc d289 95bd b098 5c3d 0c64 4cbd
00000120: ec08 e0bd 7500 15be 6620 f9bd 34b7 6b3b
00000130: fac2 a33e d6d4 7cbd 7e1b 653e 5aab d4bd
00000140: 09de 9a3b 8f31 6c3e 71cc 92bd 8a4e 873d
00000150: 4155 333d e3d4 bb3c fa0b 673e 190e 9b3d
00000160: 9e5c 203e 0bf2 993d e069 e33c cad4 ef3d
00000170: 49bd e4bd 2243 293e a016 acbe 4043 613b
00000180: 7244 23be 001e 22bd 82c7 86bf a39a 42bc
00000190: 8df8 5dbe 76bc 443e 8f57 e23c 6111 c03d
000001a0: e9e5 afbd cf3b 2dbe 28be ecbc 7d8d 993e
000001b0: 11c8 393e 038b 373e a405 22be b987 953e
000001c0: 1c85 84bd 229b 863e 3889 81bb ed18 aa3d
000001d0: 32b6 e73d 6a56 d9bd fecf ccbc be5a a2bb
000001e0: 8bb4 c2bd d424 a43e 3e2e 9b3d 2871 c13d
000001f0: f562 82be 274d 063d 9c31 0a3e dc12 843e
00000200: e07b f23c c89f 31be 8e05 4c3d ce7f bb3e
00000210: 6184 43be 0c78 b43d 24b0 92be afa2 043d
00000220: 2845 8f3b 756d af3d 4958 97bd 0030 bc3c
00000230: cd8c c5bd 5e24 283e 70f6 1d3d 16c1 863d
00000240: 1348 95be 03d2 53be 18f0 ad3d 7fff 8bbe
00000250: 6e3a cb3d 08e7 66bc 9824 ee3d 8810 d9bd
00000260: 8a2b e23d 5e0d 77bc 5cbd ca3d db06 6b3e
00000270: b150 983e 788a 02bc 0a1a e73d b9e6 8ebd
00000280: ff07 66bd a8fa 813c 13a9 3d3d 583c 713c
00000290: 2ade 81bf 2e3b a3bd e5dc 6bbd 1831 26be
000002a0: 7b63 c83d 4193 48be e887 cc3d f4ca 9fbd
000002b0: a3b0 2bbe 2ef4 50bd aee1 b93c 28e6 2dbd
000002c0: 8591 a33d 8eeb 923d 0457 47bd 6981 76be
000002d0: 3b90 5dbc 9bfa 3fbc c648 e4bc 3b4a 533b
000002e0: ae90 4abc 9c9e ccbd cadb 0e3e a82c 0dbd
000002f0: 7875 883d e188 80bd 152c 283e b884 843e
00000300: cb33 4d3c 461b 103e 6c5f 733d 5da3 d83c
00000310: 60b7 00bc e9c2 ebbe 2a47 ca3d 124a 9c3e
00000320: 76fc 1fbe 5b6e f5bd 43dd d53b 57ad b8bd
00000330: e44a dfbc 08b7 e8bd 08fe 62bd 3975 3d3d
00000340: a4ac 9e3e f747 613e a890 993d 22b2 473e
00000350: 3e51 4f3e 2b84 5a3e 3bcd c3bc 4016 c9bc
00000360: 0abc 09bd 83f5 043d c0d9 863e d477 b83e
00000370: c69d 293e cff3 5fbd 825b 52bd b6e8 53bd
00000380: 6ccc 1a3c 9073 9b3e 8ba0 4cbd 183f c2bc
00000390: a2c2 88be 4eab 5a3d e511 0bbf 9925 09be
000003a0: 261b 90bc 22e0 873e cabe e2bc 00fa 0bbe
000003b0: 49d3 5cbd 38d2 d83d c887 35be b8ba 123e
000003c0: dbb3 b1be 0f48 0abe 069e 833c 882c 5c3e
000003d0: 69bb 9c3c 9972 8e3d 289f 24be 0f0d a9bc
000003e0: a9a4 683c 5599 c6bc 3130 093d 0185 0c3d
000003f0: d14d 1fbe 5b1e 213e 4644 bcbd ffac 46be

fc1.bias f4 [256]
-0.29952866 0.013004458 -0.043180693 -0.22482306 0.08676438 -0.012233724 -0.47105536 -0.081859685
0.12699029 0.18960045 -0.04135946 0.0225026 -0.17294048 0.23094566 0.12755859 0.1657626
-0.29899776 -0.21853775 0.20030794 0.1526103 0.025425669 -0.14939588 0.1157023 0.22458838
-0.10747171 0.052320067 0.30352086 0.2033324 -0.15753707 -0.23241697 0.029369015 0.15607284
0.217185 0.100547545 -0.06229059 -0.11342007 -0.30804726 -0.10797166 0.18667664 0.38410294
-0.41903016 0.11756909 0.09607214 0.06298249 0.23114894 -0.19242166 0.364502 -0.23771228
0.034232587 0.22642408 -0.19612105 0.11983827 -0.25926495 0.17323387 -0.13314232 0.05230042
-0.22035155 0.13201332 -0.010853497 -0.02362307 0.07942994 -0.03256253 -0.15497182 -0.100081526
-0.14641382 -0.30788222 0.04460319 -0.24635531 -0.031214483 0.07498303 0.13904113 0.09051234
-0.21091244 -0.00080645585 -0.12597796 0.14652249 -0.026199931 -0.091017954 -0.061249636 0.11357686
0.2169283 0.099321164 0.08450426 -0.09043161 -0.31712863 0.34782082 -0.21920507 -0.13803336
-0.04381922 0.18375549 -0.113930084 0.21032612 0.34636956 -0.057357065 -0.14709492 0.008792294
-0.12641998 -0.10140977 -0.18842071 0.09415215 0.16660665 0.23529164 -0.11077358 0.1082306
0.26566452 0.11274236 -0.15117535 -0.2927058 -0.22589506 0.13075045 0.26900253 0.18478037
-0.14522848 -0.29753765 -0.16473383 0.053782362 0.01945161 -0.020859994 0.20762344 0.09352588
0.22539955 0.21436878 -0.20839521 0.059458215 0.26002446 0.03804389 -0.11317478 0.08648591
-0.22582659 -0.272072 -0.25256994 -0.12806018 -0.026028013 -0.38234946 0.04766308 0.06473009
0.14887136 -0.03190812 -0.12572469 -0.040187433 0.16064867 0.24481298 -0.026673561 -0.2426348
0.07170216 0.0964737 0.06558415 0.40963393 0.07194809 -0.23986255 -0.22726665 -0.035100758
-0.045967076 0.060186367 0.12823617 -0.27975506 -0.42350435 0.3498737 0.17042407 0.005572951
-0.18307425 0.12481707 0.35734108 0.08955966 0.22954296 -0.2806569 0.12193616 0.022268996
-0.1027867 0.011389193 0.324454 0.2662851 0.3645939 0.16295436 -0.1781492 0.120991684
0.19915502 0.13624272 0.2033755 -0.4144998 -0.02121448 0.07928594 0.25325215 0.0053719208
-0.15809955 0.058026105 -0.010399542 -0.13812345 -0.15065102 0.27581343 -0.09383385 0.006290474
0.19323666 0.094027944 -0.0685793 0.05108947 0.32203183 0.10680579 -0.32087898 0.045792222
0.103614084 0.08644463 0.14737526 0.24402542 -0.08447477 -0.27274886 0.12604909 -0.045723602
0.13382599 0.12630409 0.017986361 0.09752573 0.19150801 0.45870167 -0.061468393 0.0017082727
-0.0058204574 -0.264058 -0.16844937 0.2058967 -0.1845093 -0.10183774 0.2060728 -0.0016463343
0.13426134 -0.056474354 -0.059011832 -0.19024208 -0.15811993 0.15703194 -0.098152414 0.008628004
-0.28473184 0.24069081 -0.37367207 -0.25189117 0.22447 -0.034592435 0.04635296 0.11925013
-0.034267005 -0.17751923 -0.14251058 -0.09035505 0.24093746 0.0185592 0.0044041425 0.053234495
0.10322661 0.2074717 0.15407279 -0.32799673 0.16226977 -0.20362793 0.03404425 0.06245588
00000000: d25b 99be a610 553c 3dde 30bd 0438 66be
00000010: 86b1 b13d f56f 48bc 2b2e f1be 0da6 a7bd
00000020: be09 023e 9f26 423e 8a68 29bd 5f57 b83c
00000030: 4f17 31be 057d 6c3e b89e 023e acbd 293e
00000040: 3c16 99be 5cc8 5fbe 861d 4d3e e045 1c3e
00000050: 7e49 d03c 3cfb 18be 54f5 ec3d 7ffa 653e
00000060: 211a dcbd 914d 563d 1667 9b3e 5e36 503e
00000070: 6651 21be b7fe 6dbe 4a97 f03c 8fd1 1f3e
00000080: bf65 5e3e dfeb cd3d 6b24 7fbd c848 e8bd
00000090: 5fb8 9dbe 3f20 ddbd 2928 3f3e 24a9 c43e
000000a0: 1f8b d6be 10c8 f03d 78c1 c43d f7fc 803d
000000b0: 4fb2 6c3e 2f0a 45be 02a0 ba3e d96a 73be
000000c0: 7837 0c3d b7db 673e f5d3 48be c46d f53d
000000d0: 60be 84be 3864 313e 7656 08be f738 563d
000000e0: d6a3 61be 802e 073e ded2 31bc 2b85 c1bc
000000f0: 2aac a23d 4a60 05bd efb0 1ebe 8bf7 ccbd
00000100: 81ed 15be bda2 9dbe d6b1 363d 9144 7cbe
00000110: 84b5 ffbc b490 993d cc60 0e3e 895e b93d
00000120: 6ef9 57be 5668 53ba 5e00 01be fe09 163e
00000130: 3da1 d6bc 9f67 babd e6e0 7abd fc9a e83d
00000140: 7422 5e3e e568 cb3d 9210 ad3d 3534 b9bd
00000150: af5e a2be 9215 b23e 4b77 60be 9e58 0dbe
00000160: c87b 33bd 662a 3c3e 2d54 e9bd bb5f 573e
00000170: 5a57 b13e 3eef 6abd 0da0 16be 8e0d 103c
00000180: 3d74 01be edaf cfbd 5cf1 40be d8d2 c03d
00000190: ef9a 2a3e 4bf0 703e 42dd e2bd 01a8 dd3d
000001a0: 2e05 883e 77e5 e63d b6cd 1abe 89dd 95be
000001b0: 0951 67be 72e3 053e b3ba 893e 1137 3d3e
000001c0: c6b6 14be db56 98be fcaf 28be e54a 5c3d
000001d0: fc58 9f3c 94e2 aabc 3d9b 543e 7f8a bf3d
000001e0: 24cf 663e 7d83 5b3e 8e65 55be 758a 733d
000001f0: ed21 853e e9d3 1b3d 2ec8 e7bd 861f b13d
00000200: 163f 67be 054d 8bbe d950 81be 3522 03be
00000210: b338 d5bc 4fc3 c3be 5d3a 433d 3691 843d
00000220: bc71 183e 17b2 02bd f9bd 00be 949b 24bd
00000230: 1681 243e 41b0 7a3e 8382 dabc 4275 78be
00000240: 95d8 923d 0194 c53d fc50 863d 8abb d13e
00000250: 8559 933d 879e 75be 97b8 68be d0c5 0fbd
00000260: f947 3cbd fb85 763d 5850 033e 0e3c 8fbe
00000270: 90d5 d8be a522 b33e a683 2e3e 4d9d b63b
00000280: d177 3bbe 18a0 ff3d 69f5 b63e 0e6b b73d
00000290: 4f0d 6b3e 43b2 8fbe aab9 f93d 786d b63c
000002a0: d581 d2bd bd99 3a3c d61e a63e 8556 883e
000002b0: 0dac ba3e 82dd 263e be6c 36be 7dca f73d
000002c0: 4bef 4b3e 3683 0b3e ab41 503e 5139 d4be
000002d0: fdc9 adbc ab60 a23d 44aa 813e f006 b03b
000002e0: d9e4 21be c8ac 6d3d d762 2abc 3c70 0dbe
000002f0: 4344 1abe 6b37 8d3e f62b c0bd 5220 ce3b
00000300: d5df 453e b991 c03d 4e73 8cbd 3143 513d
00000310: 5be1 a43e febc da3d 404a a4be a090 3b3d
00000320: 9f33 d43d e209 b13d 8ae9 163e cde1 793e
00000330: 1c01 adbd bda5 8bbe 0313 013e ac48 3bbd
00000340: ae09 093e dc55 013e 2258 933c 92bb c73d
00000350: ad1a 443e f2da ea3e 48c6 7bbd 1fe8 df3a
00000360: 89b9 bebb 9c32 87be fe7d 2cbe 96d6 523e
00000370: 02f0 3cbe 4e90 d0bd c004 533e d0c9 d7ba
00000380: ce7b 093e a751 67bd 64b6 71bd d2ce 42be
00000390: 31ea 21be fbcc 203e 2204 c9bd 795c 0d3c
000003a0: 5fc8 91be a777 763e f251 bfbe e1f7 80be
000003b0: 77db 653e ccb0 0dbd 9adc 3d3d 6a39 f43d
000003c0: 8f5b 0cbd 9ac7 35be 4bee 11be 120c b9bd
000003d0: 4fb8 763e 7709 983c a050 903b 6a0c 5a3d
000003e0: 7968 d33d 7673 543e 42c5 1d3e 30ef a7be
000003f0: 0c2a 263e d783 50be fc71 0b3d bdd1 7f3d

fc2.weight f4 [4, 256]
-0.23845536 0.25207052 0.6029036 -0.19202872 -0.35450175 -0.27113104 0.030835515 0.00249007
0.15724671 -0.08994047 0.29486385 0.002435144 0.14615431 -0.24195653 -0.031476013 -0.33140773
0.3412975 0.19945657 0.02677158 -0.0473024 0.4109306 0.099003874 -0.030966578 -0.12734208
0.100672945 -0.16553463 -0.11155966 -0.11274794 0.26663968 -0.5940255 0.1020449 0.15057236
-0.0785119 -0.22803286 -0.06965252 0.14234942 -0.03256266 -0.19580449 0.0035173092 -0.05421903
0.07180022 0.34011844 -0.3050291 0.1117656 -0.15168719 -0.31483054 -0.016322555 -0.01572462
-0.010457345 -0.11067037 0.36332023 0.30635297 0.4272704 0.3124832 -0.24682127 -0.21631277
0.1124026 -0.43733624 0.9061723 -0.37497622 0.08743989 -0.1282245 0.07948889 0.41994378
0.6380246 0.14235175 -0.17065214 -0.25420454 -0.4281752 -0.25955862 0.24107684 0.47823545
0.07626396 0.035722695 0.56616086 0.074790716 -0.014298874 -0.08123246 -0.3740604 0.15463214
-0.0506755 0.1801258 -0.17370187 0.012562861 -0.25309005 -0.20201832 0.020642234 0.30997556
0.0030718022 0.079028405 1.342859 -0.09453999 0.14555462 0.13209286 0.043102518 0.33711627
-0.15310718 -0.12638097 0.4419815 -0.26041734 0.80282134 -0.3825007 -0.15512681 -0.108624935
-0.19153357 -0.28397155 0.31265008 -0.024504121 -0.36706394 0.4152222 -0.11207128 -0.5065466
-0.17159346 0.11293336 -0.14579636 0.19401982 0.33940464 -0.10296165 -0.21157688 0.17947263
0.0713567 -0.13160194 0.37562948 -0.45091313 0.15216662 -0.25880432 -0.4771635 -0.14560635
-0.45054105 0.088733755 -0.33922946 0.3324245 -0.32765844 -0.0010507308 0.029950775 -0.36783597
0.1728356 0.34361538 -0.055722963 -0.08904942 0.017677752 -0.18602996 0.065246016 0.17014718
0.41397896 0.29343897 -0.13822646 -0.22943398 0.15491335 0.43553472 0.015167102 -0.43784535
0.1098204 -0.059725504 -0.36388153 0.3234732 -0.15817738 0.051656663 -0.114083186 0.29304054
0.8897958 -0.26121664 0.06391275 -0.04281551 0.28949615 0.2460537 -0.25583014 -0.041674316
-0.023878481 -0.014919202 -0.15126684 0.40191472 -0.48680404 -0.10025496 -0.70360756 0.29090652
-0.17916328 0.07790888 -0.055532925 0.32868513 0.03813035 0.03117256 0.5008654 -0.03781076
0.32690346 0.061701734 -0.09006401 0.92510337 -0.2654024 -0.048146278 0.05400569 0.3169982
-0.09786835 -0.07141118 0.26250306 0.06356306 -0.16741548 0.6202975 0.074906655 0.4874336
-0.34465632 -0.13435726 -0.21301818 -0.09749912 0.56251264 -0.2455825 0.15505338 0.96474236
-0.4022416 -0.07407572 -0.029733513 -0.13740431 0.063970074 -0.47337684 0.32874805 0.23740703
-0.16104479 0.3574384 0.40576047 0.17721152 -0.628179 -0.44546568 0.111695826 -0.30084878
-0.21253332 -0.21767668 0.21572609 -0.15531184 -0.14348835 0.19568583 -0.08438081 0.09345723
0.38504565 -0.21130866 0.29475418 0.570638 -0.047458466 -0.17825153 -0.013901092 -0.38938582
-0.1916028 0.1195954 0.11860763 0.082545765 0.005889814 -0.055879094 0.03642962 -0.21848506
-0.55156106 -0.26601955 0.1179044 0.47680837 0.15502416 0.30189222 0.29827434 0.20724835
00000000: a42d 74be 630f 813e e457 1a3f 2da3 44be
00000010: 4181 b5be b0d1 8abe c39a fc3c 7130 233b
00000020: 4805 213e b632 b8bd 65f8 963e f096 1f3b
00000030: 7aa9 153e 74c3 77be feec 00bd 46ae a9be
00000040: 8cbe ae3e 583e 4c3e 1350 db3c 29c0 41bd
00000050: 7f65 d23e 8bc2 ca3d 9fad fdbc f665 02be
00000060: 9e2d ce3d e981 29be 6479 e4bd 64e8 e6bd
00000070: ff84 883e 0e12 18bf ebfc d03d a42f 1a3e
00000080: d9ca a0bd 7281 69be fba5 8ebd 0cc4 113e
00000090: 6c60 05bd f980 48be a882 663b c614 5ebd
000000a0: fe0b 933d 0124 ae3e c62c 9cbe 5de5 e43d
000000b0: e353 1bbe 7831 a1be e1b6 85bc ebd0 80bc
000000c0: 4955 2bbc 26a7 e2bd 1c05 ba3e 4cda 9c3e
000000d0: 30c3 da3e ccfd 9f3e b7be 7cbe 1881 5dbe
000000e0: 5633 e63d 89ea dfbe e8fa 673f e2fc bfbe
000000f0: af13 b33d 494d 03be 12cb a23d df02 d73e
00000100: 9555 233f a8c4 113e 6fbf 2ebe 1927 82be
00000110: c839 dbbe dee4 84be d9dc 763e 47db f43e
00000120: 4730 9c3d f651 123d ebef 103f e02b 993d
00000130: d345 6abc 345d a6bd d884 bfbe e357 1e3e
00000140: 1d91 4fbd e672 383e e7de 31be 75d4 4d3c
00000150: 0595 81be e4dd 4ebe e719 a93c 1eb5 9e3e
00000160: 4a50 493b a5d9 a13d cee2 ab3f 2f9e c1bd
00000170: 450c 153e 5a43 073e 448c 303d 819a ac3e
00000180: 21c8 1cbe 036a 01be 664b e23e 6c55 85be
00000190: b385 4d3f 22d7 c3be 90d9 1ebe c076 debd
000001a0: 6021 44be b864 91be ac13 a03e debc c8bc
000001b0: ceef bbbe 0198 d43e a185 e5bd 0aad 01bf
000001c0: 32b6 2fbe 9b49 e73d a44b 15be 22ad 463e
000001d0: 72c6 ad3e 8fdd d2bd 9ca7 58be acc7 373e
000001e0: 7623 923d a9c2 06be 8252 c03e 16de e6be
000001f0: 91d1 1b3e 0082 84be c64e f4be d519 15be
00000200: 51ad e6be 0bba b53d 7caf adbe 8b33 aa3e
00000210: d9c2 a7be adb8 89ba 545b f53c ff54 bcbe
00000220: d1fb 303e 5bee af3e c33d 64bd 8b5f b6bd
00000230: efd0 903c a37e 3ebe b49f 853d 103b 2e3e
00000240: 0df5 d33e a23d 963e 3d8b 0dbe bef0 6abe
00000250: 9ba1 1e3e 68fe de3e 707f 783c 442d e0be
00000260: 85e9 e03d bba2 74bd ae4e babe 479e a53e
00000270: 40f9 21be f095 533d 72a4 e9bd 6909 963e
00000280: a8c9 633f 30be 85be b0e4 823d 515f 2fbd
00000290: d738 943e 80f5 7b3e 2bfc 82be b0b2 2abd
000002a0: ce9c c3bc ab6f 74bc b2e5 1abe c4c7 cd3e
000002b0: 613e f9be 7952 cdbd a01f 34bf b3f1 943e
000002c0: 9476 37be b18e 9f3d 7e76 63bd 6b49 a83e
000002d0: 922e 1c3d 995d ff3c b738 003f 75df 1abd
000002e0: e45f a73e f5ba 7c3d 7b73 b8bd 93d3 6c3f
000002f0: d3e2 87be 0835 45bd 1235 5d3d 974d a23e
00000300: 346f c8bd 0640 92bd cd66 863e 592d 823d
00000310: f76e 2bbe d1cb 1e3f a968 993d e690 f93e
00000320: cb76 b0be f394 09be 7021 5abe 9ead c7bd
00000330: d400 103f fb79 7bbe 50c6 1e3e 5bf9 763f
00000340: 9cf2 cdbe 03b5 97bd b293 f3bc b7b3 0cbe
00000350: be02 833d 735e f2be aa51 a83e d41a 733e
00000360: ede8 24be 2a02 b73e d6bf cf3e f076 353e
00000370: 57d0 20bf 1414 e4be c8c0 e43d da08 9abe
00000380: 56a2 59be a3e6 5ebe 4de7 5c3e 110a 1fbe
00000390: 9cee 12be de61 483e d9cf acbd 8166 bf3d
000003a0: b424 c53e 4c61 58be 05ea 963e 5515 123f
000003b0: cf63 42bd 9287 36be 68c1 63bc 945d c7be
000003c0: 8633 44be 6fee f43d 8fe8 f23d c10d a93d
000003d0: 57ff c03b 7ae1 64bd 3a37 153d 8cba 5fbe
000003e0: 1b33 0dbf b733 88be dd77 f13d 3a20 f43e
000003f0: a7be 1e3e 9e91 9a3e 6ab7 983e e938 543e

fc2.bias f4 [4]
-0.09360616 -0.057018887 0.047772195 0.042909876
00000000: 96b4 bfbd a38c 69bd c7ac 433d 44c2 2f3d
