dqn/exercise/checkpoint.pth (torch_old, 21039 bytes, 6 tensors)

fc1.weight f4 [64, 8]
-0.32953593 0.111324005 -0.8974407 -0.3133903 0.372478 0.15781724 0.5812074 0.3654619
-0.47193834 -1.3139249 0.1116729 -0.23828346 -0.7202235 -0.32367513 -0.04531323 -0.24235073
0.020249354 -0.082177095 -0.40956283 0.19433728 0.3820605 1.2485312 0.0116135 0.24530888
-0.14415732 0.11437249 1.9912332 -1.8541147 -0.43999287 -0.06601239 0.11720532 0.26283336
0.18529531 -0.7767676 -1.0852582 -1.1669575 0.23346439 0.56324846 0.3129008 0.056796204
0.11355674 -0.763296 0.2811149 -0.6844212 0.014415169 0.4449993 0.48956895 0.3699782
-0.44230258 -0.114581734 0.22232127 -0.38435042 0.12776008 0.47829017 0.17293988 -0.97053266
-0.26767647 -2.8915324 -0.07850666 -0.5798626 0.26941264 0.22662415 0.18841077 0.019110424
0.14713092 0.03269224 0.7713155 -0.06136274 -0.3746799 0.6827565 -0.14628708 -0.7866508
0.34689885 0.46089676 1.0792744 0.5558022 -0.37091708 -0.52427953 -0.47164664 -0.8374148
-0.38932028 0.7912707 0.10803346 -1.0862063 0.13699085 -0.07246452 -0.17044613 -0.24368373
-0.19324665 0.049561616 -0.9011992 -0.16653453 1.0356423 0.40187454 0.24121565 -0.09800065
-0.33629477 0.16640273 0.47554925 0.08727001 -0.12763259 0.80147076 0.42415422 -0.80698055
-1.250434 -0.7522276 -0.61134803 0.40918362 0.47957885 0.33192363 0.04699348 0.23280406
-0.3041677 0.7041303 0.76961625 -1.0162826 -0.22345465 -0.05642865 0.31791025 0.19987231
0.5386432 -0.13718133 -0.4277546 0.040764153 -0.13325304 -0.55809957 -0.04464038 0.5521547
0.1732765 -1.395813 1.1440437 0.37880087 -1.0388651 -0.41543418 0.26453978 -0.04920565
-0.8001194 -0.10014576 0.93927896 0.86460185 -0.024771653 0.48196477 0.29696923 -0.7408698
-0.34453142 -0.40879825 -0.7438016 -0.2758528 0.8806822 -0.13919981 -0.904452 -0.8594525
-0.025713198 0.3389714 -0.14838125 -0.7838499 0.46630198 -1.1089283 0.12562694 -0.052396126
-0.903035 -1.0689057 -0.9406372 -1.0263834 0.40373006 0.027842682 0.1702849 0.06650776
0.2177973 -0.20533337 1.3646197 -0.73526263 -0.3866439 0.29910016 -0.58838063 -0.3657836
0.29976293 -1.8749635 -0.63625526 1.6839516 -0.85895705 -0.5586653 0.36862352 0.10399316
0.14250948 -2.43165 -0.5234035 -1.1875826 -0.18871456 -0.3710253 0.11634563 0.21144874
-1.1304545 -0.9685177 -0.501524 0.19663234 0.4955911 0.19359975 0.13013755 0.059345443
-0.057768952 -0.04026429 0.3733875 0.9710967 0.5029904 0.67898375 0.1600664 0.6015294
0.52130616 -1.420222 0.62297463 -0.30407184 -0.74498785 -0.2680598 0.07918071 0.053627636
0.20285466 -0.86197907 0.8476923 -0.45749772 0.29105282 0.7269202 0.37478206 -0.3337842
-0.3279621 0.78901464 -1.1051816 -1.7776134 -0.13402301 -0.10460648 -0.20965397 0.13949062
-0.17469433 0.13552533 2.0492857 0.37008306 1.5517013 0.2134913 -0.026054272 -0.2839321
-0.26134005 -0.30264345 -1.7089788 -0.81860954 -0.124056205 -0.37262893 0.29537064 0.053204577
-0.15603095 -0.66244483 -0.66263586 -0.8310608 0.4437478 0.077143684 -0.10114117 0.039677896
00000000: efb8 a8be d7fd e33d acbe 65bf b274 a0be
00000010: 70b5 be3e d89a 213e 02ca 143f d21d bb3e
00000020: e7a1 f1be b12e a8bf c3b4 e43d 9400 74be
00000030: 9160 38bf bfb8 a5be 5e9a 39bd ca2a 78be
00000040: f9e1 a53c 774c a8bd 38b2 d1be 5a00 473e
00000050: 6f9d c33e dfcf 9f3f 8d46 3e3c 4032 7b3e
00000060: fa9d 13be 203c ea3d bbe0 fe3f a153 edbf
00000070: bf46 e1be 8131 87bd 5809 f03d 1892 863e
00000080: 0ebe 3d3e 3eda 46bf bee9 8abf dd5e 95bf
00000090: 4a11 6f3e 0d31 103f 8934 a03e 23a3 683d
000000a0: 7090 e83d 5e67 43bf 4bee 8f3e 3a36 2fbf
000000b0: 9a2d 6c3c f3d6 e33e c8a8 fa3e c86d bd3e
000000c0: 7c75 e2be d4a9 eabd 30a8 633e 94c9 c4be
000000d0: 8ad3 023e 73e2 f43e 2717 313e d474 78bf
000000e0: e40c 89be de0e 39c0 1ac8 a0bd e071 14bf
000000f0: 74f0 893e 2910 683e c1ee 403e 778d 9c3c
00000100: 7da9 163e 4ce8 053d ef74 453f 7f57 7bbd
00000110: 0bd6 bfbe 21c9 2e3f 48cc 15be f261 49bf
00000120: ba9c b13e a9fa eb3e aa25 8a3f 0e49 0e3f
00000130: d8e8 bdbe 2f37 06bf ab7b f1be d160 56bf
00000140: fd54 c7be b790 4a3f a640 dd3d cf08 8bbf
00000150: 5447 0c3e 4768 94bd 6e89 2ebe 3a88 79be
00000160: 73e2 45be 1f01 4b3d feb4 66bf 0788 2abe
00000170: ed8f 843f 80c2 cd3e 3c01 773e 91b4 c8bd
00000180: d42e acbe 7a65 2a3e 317b f33e 9eba b23d
00000190: 1eb2 02be 302d 4d3f be2a d93e 4796 4ebf
000001a0: 390e a0bf fd91 40bf 4e81 1cbf 8480 d13e
000001b0: 5c8b f53e e5f1 a93e 3c7c 403d 3064 6e3e
000001c0: debb 9bbe e241 343f 9205 453f 8c15 82bf
000001d0: 4cd1 64be ba21 67bd 22c5 a23e 54ab 4c3e
000001e0: 85e4 093f 4379 0cbe a702 dbbe 50f8 263d
000001f0: 7c73 08be 9ddf 0ebf d5d8 36bd 035a 0d3f
00000200: 656f 313e 00aa b2bf 0670 923f 30f2 c13e
00000210: 88f9 84bf cab3 d4be c271 873e dd8b 49bd
00000220: a0d4 4cbf 3819 cdbd 9674 703f 8c56 5d3f
00000230: eced cabc 16c4 f63e 5a0c 983e a5a9 3dbf
00000240: 6c66 b0be 014e d1be c869 3ebf 943c 8dbe
00000250: 6374 613f 658a 0ebe 2b8a 67bf 1405 5cbf
00000260: 7ca4 d2bc a98d ad3e 41f1 17be 63aa 48bf
00000270: 22bf ee3e 5df1 8dbf 59a4 003e 529d 56bd
00000280: 4d2d 67bf e7d1 88bf 99cd 70bf 8860 83bf
00000290: b5b5 ce3e 5616 e43c 2a5f 2e3e 3835 883d
000002a0: 4106 5f3e e942 52be dcab ae3f 2c3a 3cbf
000002b0: 30f6 c5be a823 993e 1da0 16bf fd47 bbbe
000002c0: 877a 993e cefe efbf a0e1 22bf ba8b d73f
000002d0: 9ce4 5bbf b004 0fbf 39bc bc3e 5efa d43d
000002e0: 01ee 113e 27a0 1bc0 c6fd 05bf b502 98bf
000002f0: 643e 41be 07f7 bdbe 9e46 ee3d 0586 583e
00000300: bcb2 90bf c7f0 77bf e063 00bf fd59 493e
00000310: 1ebe fd3e 033f 463e c742 053e 3514 733d
00000320: 239f 6cbd 2bec 24bd a52c bf3e cb99 783f
00000330: fbc3 003f e1d1 2d3f 72e8 233e d5fd 193f
00000340: 5274 053f d6c9 b5bf 447b 1f3f 4eaf 9bbe
00000350: 86b7 3ebf 223f 89be 7f29 a23d a7a8 5b3d
00000360: 22b9 4f3e a9aa 5cbf 5d02 593f 243d eabe
00000370: e004 953e 7117 3a3f 6fe3 bf3e c3e5 aabe
00000380: a6ea a7be ddfc 493f 9776 8dbf d688 e3bf
00000390: 543d 09be ec3b d6bd 88af 56be a1d6 0e3e
000003a0: 12e3 32be 27c7 0a3e 7f27 0340 877b bd3e
000003b0: 269e c63f 779d 5a3e c56f d5bc 8c5f 91be
000003c0: 5dce 85be 15f4 9abe d1bf dabf 6590 51bf
000003d0: 2e11 febd 38c9 bebe d23a 973e 0bed 593d
000003e0: 94c6 1fbe fc95 29bf 81a2 29bf 67c0 54bf
000003f0: e932 e33e 82fd 9d3d 1a23 cfbd 4a85 223d

fc1.bias f4 [64]
0.07124338 -0.70411986 -0.13769849 0.023538535 -0.23015995 0.040959865 0.33552796 0.21797226
0.16555022 0.28783572 0.73495245 -0.15649806 -0.4199191 -0.24968454 0.7403665 -0.18376838
-0.21135217 -0.41112044 0.29939756 0.65979046 -0.37647322 -0.41722688 -0.35375345 0.27282164
-0.24071258 -0.3502971 -0.18612756 0.3106543 0.41811424 -0.047501598 -0.28886116 -0.3519197
0.073780574 0.41293886 0.22920756 -0.3380683 0.39483044 0.5749398 -0.33543846 -0.43128568
0.33178788 -0.2604888 0.31350565 -0.036190122 0.37195122 0.38854054 0.38902608 -0.027396027
-0.059136357 -0.3880911 -0.0016358736 0.510826 -0.2039779 0.39336634 -0.2569304 0.4740426
0.49744004 0.122891866 0.46247777 -0.2151591 0.074388616 -0.24314888 0.26985443 0.23568034
00000000: 0de8 913d 3341 34bf d500 0dbe e3d3 c03c
00000010: 0daf 6bbe 88c5 273d 52ca ab3e 1f34 5f3e
00000020: ff85 293e 345f 933e d825 3c3f 0741 20be
00000030: a3ff d6be 4ead 7fbe a988 3d3f c72d 3cbe
00000040: b46c 58be 617e d2be a34a 993e 07e8 283f
00000050: 19c1 c0be c39e d5be 2c1f b5be 47af 8b3e
00000060: 5c7d 76be 245a b3be 3998 3ebe 150e 9f3e
00000070: 1213 d63e 0991 42bd 9ce5 93be d22e b4be
00000080: 451a 973d b96c d33e 63b5 6a3e 4a17 adbe
00000090: 3727 ca3e 412f 133f 97be abbe 7ad1 dcbe
000000a0: 1ae0 a93e ca5e 85be d083 a03e 183c 14bd
000000b0: 6470 be3e c9ee c63e 6d2e c73e a26d e0bc
000000c0: f738 72bd e0b3 c6be cf6a d6ba 7ec5 023f
000000d0: 95df 50be 5067 c93e 628c 83be b6b5 f23e
000000e0: 76b0 fe3e bbae fb3d e3c9 ec3e ab52 5cbe
000000f0: 0f59 983d 05fc 78be 5c2a 8a3e 3056 713e

fc2.weight f4 [64, 64]
0.14353243 0.5540044 0.20317283 0.2316131 0.24640574 -0.087311864 0.4198404 -0.3154231
0.48010603 0.3303253 0.029957758 0.7397424 0.8229363 0.8584461 0.054464318 0.23935087
0.6062785 1.3754721 0.17588717 -0.17899048 0.6870085 0.7067994 0.96044445 -0.1627627
0.65577835 0.031806704 0.99700737 0.17824386 -0.021585206 -1.4056665 0.28924254 0.8588451
0.020047147 0.30698505 0.2530873 -0.26089904 -0.06594156 0.066014394 0.04433936 0.70920753
0.21376424 0.36399966 0.38448998 -1.0933287 0.370908 0.15378368 0.6863056 0.39212495
-0.43453303 0.9135921 0.24623643 -0.04786534 0.59884197 -1.4750311 0.38121936 -0.7304273
0.04179457 0.39437765 0.04212362 1.0552679 -0.13862768 0.5688696 -0.32445818 0.06576907
0.17403808 -0.049416985 0.26453108 -0.19377767 0.18966173 0.062280502 0.37583926 -0.18564668
0.23749141 0.3145949 0.15885562 0.8849578 1.1223736 0.84145814 -0.0606314 0.09256984
0.20063391 1.7351339 -0.06597574 -0.0522741 0.8847929 0.6192345 0.2715436 -0.41841987
0.85077935 0.23779736 0.41387433 0.09533678 0.1597488 -1.1943407 0.036617458 0.9550176
0.095639266 0.4004415 0.38013393 -0.3438824 0.34679213 0.050118163 0.085601404 -0.46558324
0.29764104 0.3930657 0.2239768 -0.4131295 0.6891446 0.08630987 0.56982255 0.37259394
-0.30795857 0.908811 0.23813757 0.020003883 0.5023322 -1.6747601 0.44250938 -0.8319336
0.13357256 0.07037681 0.036691092 0.4601874 -0.12452182 0.19032072 -0.43907198 0.07725189
-0.06293209 -0.015600844 -0.259678 0.47922158 -2.493905 0.1899573 -0.066959575 -0.8345682
0.652367 0.13121952 0.5855955 -1.2241222 -1.2312804 0.3419769 0.6485313 -0.019740246
0.12440406 -1.9897765 0.03436151 0.15627497 -0.28891325 -0.7351519 0.3635532 -0.02109944
-0.009148582 -0.06504338 -0.015291257 0.38081533 -0.14753786 -0.29329526 -0.81521523 0.17568535
-0.16535778 0.338098 -0.40683344 0.20002784 -1.3711264 0.38819697 0.09910545 -0.538829
-0.29186726 -2.751801 0.42881078 -0.30600855 0.61401665 -0.42186108 0.16111365 0.46606958
-0.29182038 -0.11169097 -0.0915542 -0.010994114 0.11949796 -0.21249339 -0.4393243 -0.046140086
-0.25264424 0.0863423 0.18205638 0.21794412 -0.40279865 -0.19013897 0.078588806 -0.08985332
-0.20643781 0.15628429 0.11421331 -0.35675958 0.20979016 0.1254888 0.5493743 -0.3855434
0.40679538 0.057514716 0.3154894 0.19329669 0.03501206 0.34565187 0.111148074 0.19592382
0.37399232 0.64602673 0.6159528 -0.24785334 1.0918503 1.1145438 0.34990072 -0.31423563
0.53454435 -0.06481296 0.44669423 0.16332819 -0.05191624 -1.3603761 0.12691039 0.646961
0.08049352 0.21462698 0.4719398 -0.23980102 -0.45384663 0.093192115 0.12429814 -0.34547827
0.19583398 0.1532536 -0.11262318 -0.8931384 0.31305584 -0.031943787 0.5343404 0.5625356
-0.81159693 0.63219684 -0.14414166 -0.21468505 0.35539055 -1.6058117 0.6615204 -0.67002106
0.24925713 0.37813318 0.035413973 0.22754212 -0.015205552 0.30275103 -0.00840242 0.24932367
00000000: 2afa 123e 3bd3 0d3f 8a0c 503e fc2b 6d3e
00000010: c951 7c3e 90d0 b2bd 52f5 d63e 237f a1be
00000020: 75d0 f53e 6620 a93e f969 f53c c25f 3d3f
00000030: f4ab 523f 20c3 5b3f fa15 5f3d 6518 753e
00000040: 1135 1b3f 780f b03f c41b 343e 4849 37be
00000050: cadf 2f3f cef0 343f b0df 753f 44ab 26be
00000060: 17e1 273f bf47 023d e03b 7f3f 8f85 363e
00000070: 75d3 b0bc e1ec b3bf 9917 943e 46dd 5b3f
00000080: ea39 a43c 252d 9d3e a994 813e 8f94 85be
00000090: 5e0c 87bd 8e32 873d 309d 353d a08e 353f
000000a0: 03e5 5a3e 2a5e ba3e dfdb c43e 32f2 8bbf
000000b0: a7e7 bd3e 7879 1d3e b9b1 2f3f 9ac4 c83e
000000c0: 1d7b debe 2ce1 693f 6725 7c3e 720e 44bd
000000d0: b54d 193f d2cd bcbf 2f2f c33e 49fd 3abf
000000e0: c830 2b3d deeb c93e d189 2c3d 0513 873f
000000f0: 6af4 0dbe 70a1 113f 621f a6be efb1 863d
00000100: 0a37 323e 7769 4abd 9e70 873e a76d 46be
00000110: af36 423e d719 7f3d 016e c03e 2a1a 3ebe
00000120: f330 733e 9512 a13e 0cab 223e 988c 623f
00000130: f0a9 8f3f cd69 573f a258 78bd 4295 bd3d
00000140: fa72 4d3e de18 de3f 4a1e 87bd 5e1d 56bd
00000150: ca81 623f 2786 1e3f c307 8b3e 213b d6be
00000160: adcc 593f 2781 733e 56e7 d33e ee3f c33d
00000170: 3095 233e 28e0 98bf 30fc 153d 097c 743f
00000180: 85de c33d ab06 cd3e eaa0 c23e 5b11 b0be
00000190: bd8e b13e b448 4d3d ca4f af3d ed60 eebe
000001a0: 6864 983e e83f c93e 2d5a 653e b685 d3be
000001b0: c86b 303f 3bc3 b03d e4df 113f a2c4 be3e
000001c0: bfac 9dbe d6a7 683f 56da 733e 2fdf a33c
000001d0: d898 003f 8a5e d6bf 9790 e23e 9af9 54bf
000001e0: 3fc7 083e b821 903d 6649 163d af9d eb3e
000001f0: 4c05 ffbd 6fe3 423e 0bce e0be 3d36 9e3d
00000200: 8ae2 80bd af9a 7fbc 84f4 84be 885c f53e
00000210: 249c 1fc0 2b84 423e 1a22 89bd 43a6 55bf
00000220: 8601 273f 695e 063e 96e9 153f 09b0 9cbf
00000230: 999a 9dbf 9917 af3e 2606 263f 4cb6 a1bc
00000240: 8ec7 fe3d ffb0 febf a8be 0c3d 8c06 203e
00000250: 70ec 93be ea32 3cbf a523 ba3e bcd8 acbc
00000260: efe3 15bc 7735 85bd 2e88 7abc 3afa c23e
00000270: 2a14 17be cc2a 96be f2b1 50bf dce6 333e
00000280: 8d53 29be 2e1b ad3e 794c d0be 19d4 4c3e
00000290: 1281 afbf c1c1 c63e ccf7 ca3d b3f0 09bf
000002a0: a06f 95be 821d 30c0 168d db3e 27ad 9cbe
000002b0: 3230 1d3f 2dfe d7be fafa 243e aca0 ee3e
000002c0: 7b69 95be 3cbe e4bd c580 bbbd a820 34bc
000002d0: 59bb f43d de97 59be 1def e0be 63fd 3cbd
000002e0: 965a 81be 3bd4 b03d fd6c 3a3e be2c 5f3e
000002f0: a03b cebe cab3 42be 2bf3 a03d 0405 b8bd
00000300: 6f64 53be fd08 203e abe8 e93d 31a9 b6be
00000310: 3bd3 563e 2380 003e cba3 0c3f f265 c5be
00000320: 7c47 d03e 8d94 6b3d d487 a13e 91ef 453e
00000330: ce68 0f3d 48f9 b03e 9aa1 e33d 41a0 483e
00000340: ec7b bf3e 0262 253f 15af 1d3f 44cd 7dbe
00000350: c0c1 8b3f 5fa9 8e3f 3026 b33e 7ee3 a0be
00000360: e6d7 083f a8bc 84bd 1bb5 e43e 813f 273e
00000370: 20a6 54bd ce20 aebf ccf4 013e 3c9f 253f
00000380: c9d9 a43d 2dc7 5b3e 18a2 f13e 668e 75be
00000390: 965e e8be 82db be3d 0690 fe3d 87e2 b0be
000003a0: b488 483e 83ee 1c3e fba6 e6bd b8a4 64bf
000003b0: db48 a03e 7dd7 02bd 88ca 083f 5502 103f
000003c0: d1c4 4fbf a7d7 213f df99 13be 66d6 5bbe
000003d0: c0f5 b53e 3d8b cdbf 6759 293f 8086 2bbf
000003e0: 433d 7f3e ac9a c13e 3e0e 113d cd00 693e
000003f0: b520 79bc 2f02 9b3e 4eaa 09bc b44e 7f3e

fc2.bias f4 [64]
-0.09584582 -0.049321346 0.7654095 -0.05857702 -0.013331599 -0.2056752 -0.030588908 -0.19025978
-0.00034009907 -0.11710694 -0.24030961 -0.11906857 -0.15706576 -0.33219588 0.007205428 0.5486447
0.087019324 -0.02498562 0.5213191 -0.15548201 -0.31080493 0.47718605 -0.05964728 -0.036342278
-0.23967269 0.541628 -0.19678971 -0.41335648 -0.14777341 -0.2885372 0.46716633 1.0866219
-0.18150903 -0.038516875 -0.29962188 -0.1217497 -0.10300361 -0.10645744 -0.14616981 0.05424315
-0.10727009 -0.09209596 0.0627685 0.07908644 -0.11931401 0.07450831 0.53217334 -0.05945654
-0.21137229 -0.22005728 -0.08842554 -0.14615336 0.20857115 -0.01537204 -0.112773895 -0.13133714
-0.15647416 0.10235381 -0.36815912 -0.13179816 -0.34779608 -0.19037665 0.87970996 -0.15026267
00000000: d04a c4bd 2e05 4abd e1f1 433f 75ee 6fbd
00000010: c76c 5abc 859c 52be 9795 fabc 76d3 42be
00000020: 534f b2b9 c3d5 efbd b913 76be 39da f3bd
00000030: d9d5 20be 9415 aabe 831b ec3b fb73 0c3f
00000040: 3037 b23d a5ae ccbc 2b75 053f ad36 1fbe
00000050: d321 9fbe bb51 f43e b550 74bd a4db 14bd
00000060: c26c 75be 22a8 0a3f 3e83 49be 76a3 d3be
00000070: ea51 17be 26bb 93be 6d30 ef3e 6d16 8b3f
00000080: 81dd 39be dfc3 1dbd 0a68 99be e857 f9bd
00000090: 8ff3 d2bd 5c06 dabd 8aad 15be 112e 5e3d
000000a0: 6cb0 dbbd cf9c bcbd c58c 803d 12f8 a13d
000000b0: e75a f4bd d097 983d 833c 083f b388 73bd
000000c0: fa71 58be b256 61be 7318 b5bd 3aa9 15be
000000d0: ad93 553e 02db 7bbc 00f6 e6bd 3e7d 06be
000000e0: c33a 20be e09e d13d 5a7f bcbe 19f6 06be
000000f0: 5412 b2be 19f2 42be ac34 613f 75de 19be

fc3.weight f4 [4, 64]
-0.9232082 -0.6779733 0.3316486 -0.55435574 0.042785916 -0.7212735 0.045003407 -0.617415
-0.08375499 0.038339898 -0.6497017 -0.071880504 -0.05800748 -0.7974197 2.436161 2.1409762
1.4403415 -0.84963727 -0.070454605 -0.58360875 -0.30540323 1.7317315 -0.48595247 -0.12953088
-0.68554854 1.876418 0.36258066 -0.8963704 -0.68964726 -0.8921295 2.4266295 1.7979584
-0.9879382 -0.5425326 -0.52629286 -0.10754472 -0.3979041 -0.55728424 -0.00093836646 -0.9217356
-0.65476364 -0.7216763 -0.6013211 1.5012444 0.03982227 -0.032703206 1.2311673 -0.9102786
-0.76204836 -0.61627215 -0.6317886 -0.6633976 -1.1342852 -0.75439984 -0.51296335 0.019345364
-0.67883104 -0.63838637 -0.81187385 -0.33980906 -0.90976435 -0.6976881 2.1243572 -0.7223184
-0.4262514 -1.0178484 0.8161663 -0.6107574 -0.21511193 -0.38618734 -0.026175682 -0.5414094
0.09543962 -0.0800042 -0.73569596 -0.04433821 0.057168614 -0.26726314 2.012869 1.8025585
1.9436404 -0.6194681 -0.93438697 -0.5495183 -0.5284417 1.6199394 -0.48774382 -0.22679904
-0.5702764 1.660117 0.010487502 -0.28242502 -0.56811154 -0.56219625 2.09677 2.206883
-0.6441844 -0.87758166 -0.457965 0.10889507 -1.2522043 -0.7021733 0.06277787 -0.8519237
-0.8579349 -0.9282876 -1.0375348 2.1780226 -0.07774867 0.010687441 1.399272 -0.59179354
-0.6336919 -0.82877433 -0.43892783 -0.44578463 -0.78293806 -0.4196453 -0.67180395 -0.019854814
-0.5030077 -0.57648665 -0.43149248 -1.1025385 -0.5839556 -0.2850291 2.1925519 -0.52494895
-0.8615931 -0.73596776 -0.5561235 -0.4358766 0.60673416 -0.2958471 0.0037690653 -0.37707767
0.085465044 0.07464154 -0.4739685 0.029477134 0.040749636 -0.7063828 0.69963825 2.345963
-0.64200866 -0.8516916 -0.94370544 -0.58769006 0.53170204 1.9452873 -0.7933778 0.882862
-0.5195125 2.010377 -0.41976508 -0.629814 -0.5990571 -0.48634133 2.1472282 1.809357
-0.65740526 -0.70711523 -0.39816374 -0.05058533 -0.30699876 -0.5496053 0.03716714 -0.8711987
-0.6323145 -0.894169 -0.7416605 1.2261289 0.015592052 -0.0031429976 -0.3574091 -0.45564187
-0.5467448 -0.57861686 -0.7649727 -0.8461314 -1.2114985 -0.84815055 -0.5973678 0.0414128
-0.00031445536 -0.9281846 -0.41404325 -0.32541397 -0.38937214 -0.6337451 2.3439307 -0.64667284
-0.613754 -0.33191636 -0.21093011 -0.9374157 -0.28775185 -0.78997064 0.030802933 -0.71620685
0.01797834 -0.012125021 -0.8107374 -0.0024882853 -0.09264863 -0.6751913 2.3815906 2.5563924
1.3148578 -0.4842816 -0.09538665 -0.6863838 -0.6613568 1.671378 -0.569803 0.44274294
-0.613866 2.1777596 -0.46745268 -0.5603943 -0.7020495 -0.8794824 2.3885543 1.6264663
-0.7272919 -0.510821 -0.75255513 -0.07586983 -0.43383315 -0.6824872 -0.05654208 -1.0697803
-0.5784552 -0.80082697 -0.38834453 0.8750381 0.086955845 -0.10475251 1.1468058 -0.87685657
-0.6303864 -0.33944094 -0.9157113 -0.60669535 -0.34170765 -0.37936687 -1.1335858 0.015060484
-0.4104388 -0.8182409 -0.66076064 -0.6250678 -0.6553143 -0.96190166 2.180502 -0.5764767
00000000: 5f57 6cbf a88f 2dbf d8cd a93e 42ea 0dbf
00000010: 4940 2f3d 61a5 38bf 7e55 383d e90e 1ebf
00000020: bc87 abbd 4c0a 1d3d da52 26bf 1636 93bd
00000030: 4099 6dbd b323 4cbf 10ea 1b40 c105 0940
00000040: 1c5d b83f d481 59bf 814a 90bd 6267 15bf
00000050: d05d 9cbe 61a9 dd3f c3ce f8be bea3 04be
00000060: 1c80 2fbf 772e f03f 2ca4 b93e 8878 65bf
00000070: b98c 30bf 9962 64bf e64d 1b40 8023 e63f
00000080: 85e9 7cbf 6be3 0abf 21bb 06bf 6840 dcbd
00000090: 16ba cbbe 2eaa 0ebf b5fc 75ba ddf6 6bbf
000000a0: 979e 27bf c7bf 38bf 2ef0 19bf c728 c03f
000000b0: ad1c 233d ccf3 05bd e496 9d3f 0508 69bf
000000c0: 9a15 43bf 03c4 1dbf e6bc 21bf 6dd4 29bf
000000d0: 4230 91bf 5920 41bf 9151 03bf 2b7a 9e3c
000000e0: dfc7 2dbf 4a6d 23bf f7d6 4fbf 74fb adbe
000000f0: 51e6 68bf b09b 32bf 78f5 0740 dce9 38bf
00000100: a03d dabe db48 82bf 46f0 503f 995a 1cbf
00000110: 4d46 5cbe 59ba c5be 626e d6bc ce99 0abf
00000120: d975 c33d 3ed9 a3bd 9256 3cbf fc9b 35bd
00000130: a329 6a3d b7d6 88be d8d2 0040 3dba e63f
00000140: 35c9 f83f 7695 1ebf fc33 6fbf 3bad 0cbf
00000150: f547 07bf 2d5a cf3f 8fb9 f9be 023e 68be
00000160: a2fd 11bf b77e d43f c6d3 2b3c 039a 90be
00000170: c26f 11bf 18ec 0fbf 7b31 0640 923d 0d40
00000180: 45e9 24bf 31a9 60bf 637a eabe 6104 df3d
00000190: 3b48 a0bf a1c1 33bf af91 803d ac17 5abf
000001a0: 9fa1 5bbf 42a4 6dbf f1cd 84bf b964 0b40
000001b0: b23a 9fbd 601a 2f3c 581b b33f c87f 17bf
000001c0: a239 22bf 8e2a 54bf 26bb e0be e23d e4be
000001d0: a16e 48bf c0db d6be 58fb 2bbf 90a6 a2bc
000001e0: 1dc5 00bf a194 13bf 95ec dcbe fb1f 8dbf
000001f0: 1d7e 15bf 56ef 91be c552 0c40 0e63 06bf
00000200: 5e91 5cbf 6268 3cbf 1c5e 0ebf 382b dfbe
00000210: ee52 1b3f 4579 97be 6c02 773b 5310 c1be
00000220: 4c08 af3d aadd 983d 00ac f2be 087a f13c
00000230: 17e9 263d 81d5 34bf 7e1b 333f 4224 1640
00000240: ae5a 24bf 7608 5abf ae96 71bf db72 16bf
00000250: a01d 083f 2dff f83f cf1a 4bbf 3e03 623f
00000260: c5fe 04bf 04aa 0040 73eb d6be 7e3b 21bf
00000270: ce5b 19bf bb01 f9be 306c 0940 0399 e73f
00000280: b64b 28bf 8105 35bf 1edc cbbe 9032 4fbd
00000290: f12e 9dbe efb2 0cbf 923c 183d e106 5fbf
000002a0: 5ddf 21bf 42e8 64bf 76dd 3dbf cbf1 9c3f
000002b0: ce75 7f3c c0fa 4dbb 53fe b6be e449 e9be
000002c0: 78f7 0bbf 3c20 14bf 40d5 43bf 119c 58bf
000002d0: 6212 9bbf 6520 59bf 19ed 18bf 78a0 293d
000002e0: 7cdd a4b9 829d 6dbf 7afd d3be a99c a6be
000002f0: c95b c7be 1e3d 22bf f602 1640 5a8c 25bf
00000300: fb1e 1dbf f1f0 a9be 10fe 57be 7afa 6fbf
00000310: 3654 93be 843b 4abf 6f56 fc3c 5559 37bf
00000320: 5047 933c 06a8 46bc 7c8c 4fbf 8012 23bb
00000330: 91be bdbd 56d9 2cbf fb6b 1840 ef9b 2340
00000340: 434d a83f c2f3 f7be 135a c3bd d9b6 2fbf
00000350: ae4e 29bf b7ef d53f 9cde 11bf 34af e23e
00000360: 5226 1dbf 6a60 0b40 f555 efbe 0076 0fbf
00000370: 84b9 33bf c225 61bf 13de 1840 0c30 d03f
00000380: cd2f 3abf 2ac5 02bf 74a7 40bf a461 9bbd
00000390: 611f debe 7bb7 2ebf ab98 67bd 90ee 88bf
000003a0: a415 14bf ff02 4dbf 18d5 c6be 7f02 603f
000003b0: e815 b23d 7c88 d6bd 88ca 923f ac79 60bf
000003c0: 0161 21bf 34cb adbe 0e6c 6abf 6350 1bbf
000003d0: 4ef4 aebe 603c c2be 5719 91bf 40c0 763c
000003e0: 0925 d2be 3c78 51bf 9c27 29bf 7104 20bf
000003f0: aec2 27bf 303f 76bf 588d 0b40 fa93 13bf

fc3.bias f4 [4]
0.52967495 0.29102457 0.6968823 0.07873389
00000000: c798 073f 2c01 953e e166 323f 3c3f a13d
